Model Training and Evaluation Results/PEMS07/Gated-STGCN/Gated_STGCN_best_27.78.pth (torch, 155927 bytes, 26 tensors)

block1.conv1.weight f4 [32, 1, 1, 3]
0	0x3f1d189d	0.6136568
1	0xbedb44b9	-0.4282587
2	0xbe278a17	-0.16361271
3	0x3ed72d1c	0.42026603
4	0xbf2df1d4	-0.67947125
5	0x3ea24f4f	0.31701133
6	0xbe97c16c	-0.29639757
7	0x3f06451c	0.524492
8	0xbd2dc8e0	-0.042427897
9	0xbeace689	-0.33769634
10	0x3eca5c49	0.39523533
11	0xbcb557d1	-0.0221366
12	0x3ea4d939	0.32196978
13	0xbe8587cb	-0.26080164
14	0xbd8bde9c	-0.06829569
15	0xbe93fe07	-0.28904745
16	0x3ee039c4	0.43794072
17	0xbd4c2f34	-0.049849704
18	0x3f049559	0.51790386
19	0x3daa45db	0.08314105
20	0xbedc6404	-0.43045056
21	0xbec86537	-0.3913972
22	0x3e03563a	0.12825862
23	0x3e1a8bf3	0.15092449
24	0xbe1e29c0	-0.15445614
25	0x3e388297	0.18018566
26	0x3ee8a3f2	0.4543758
27	0x3f18f874	0.5975411
28	0xbf111f08	-0.56687975
29	0x3e2beea4	0.16790253
30	0xbdb4600e	-0.088073835
31	0x3f202492	0.625558
32	0x3e269ac1	0.16269971
33	0xbe868e44	-0.26280415
34	0xbf0222e0	-0.50834465
35	0x3c923dc7	0.017851723
36	0x3f0289ee	0.50991714
37	0xbe886fcb	-0.2664779
38	0xbc0900e0	-0.008362025
39	0xbefcf1c4	-0.49403203
40	0x3f28eec4	0.6598933
41	0xbe815ae6	-0.25264663
42	0x3f24cdc3	0.6437647
43	0xbe672fb7	-0.22576796
44	0xbed529de	-0.41633505
45	0x3eedf722	0.4647761
46	0xbf19934b	-0.59990376
47	0x3e82c301	0.255394
48	0xbf1318d4	-0.5745976
49	0xbe445104	-0.1917153
50	0xbea39e7c	-0.3195685
51	0xbf1d729c	-0.61503005
52	0xbe128921	-0.14310123
53	0xbefc4042	-0.49267775
54	0x3fb76be0	1.4329796
55	0x3f8197eb	1.0124487
56	0x3dd26099	0.10272331
57	0xbfd7a021	-1.6845742
58	0x3eb93d26	0.36179465
59	0x3f0b3856	0.54382837
60	0xbe0a32f0	-0.13495994
61	0x3eeac44b	0.45852885
62	0x3f4d127c	0.8010633
63	0xbf9df5bf	-1.2340621
64	0xbfdf30fb	-1.7436823
65	0xbefbed7a	-0.49204618
66	0xbee8ffc3	-0.4550763
67	0xbe902544	-0.2815343
68	0xbfa64f4a	-1.2992947
69	0xbd7152ff	-0.058917042
70	0x3f3d542a	0.7395655
71	0x3e1fd8c7	0.15610038
72	0x3e9978a9	0.2997487
73	0x3e7dade3	0.24773364
74	0x3eee585f	0.46551797
75	0x3dcfd987	0.10148912
76	0x3ec0dcf0	0.37668562
77	0x3f235593	0.6380245
78	0xbf875e8c	-1.0575728
79	0xbe5dfe7e	-0.21679112
80	0xbf12e0a1	-0.57374007
81	0xbf428dcd	-0.7599762
82	0xbef0bd39	-0.47019365
83	0xbe96edcc	-0.294783
84	0xbf53ea0a	-0.8277899
85	0xbfc0163e	-1.5006788
86	0xbf966cf5	-1.1752001
87	0x3dd3dccd	0.10344849
88	0xbf4771af	-0.7790784
89	0x3e2ba752	0.16763046
90	0xbe5c19bb	-0.2149419
91	0xbf0c0118	-0.5468917
92	0x3d50e16f	0.05099624
93	0xbe32a0a8	-0.17444098
94	0xbf75db1c	-0.9603746
95	0xbea744c5	-0.32669654

block1.conv1.bias f4 [32]
0	0x3d84aa61	0.0647781
1	0x3d0cd2ca	0.03438071
2	0xbe139d2a	-0.14415422
3	0x3ce67d7c	0.028136007
4	0x3e012388	0.1261121
5	0x3df4bd8b	0.11950215
6	0x3e2aa3cb	0.16664045
7	0x3db32069	0.08746416
8	0xbdbd0a93	-0.092305325
9	0xbe8a69fa	-0.2703398
10	0x3f02c7e0	0.51086235
11	0xbded087f	-0.11573886
12	0x3e81b24a	0.25331336
13	0xbb91d080	-0.004449904
14	0x3d06760d	0.032827426
15	0x3e262c54	0.16227847
16	0x3f0a7338	0.5408206
17	0xbef6844f	-0.48147818
18	0xbe9bb888	-0.30414224
19	0xbe80171d	-0.25017634
20	0xbdb96ce2	-0.09053971
21	0xbf3890c0	-0.7209587
22	0xbf4cb29f	-0.79960054
23	0xbf918187	-1.1367654
24	0xbee5c46a	-0.44876415
25	0xbdfb3072	-0.122650996
26	0x3eda8cd1	0.4268556
27	0xbf606b54	-0.8766377
28	0xbe1c3704	-0.15255362
29	0xbeae4f68	-0.34044957
30	0xbdc8d7e0	-0.098068
31	0xbf07fa73	-0.5311653

block1.gcn.conv1.weight f4 [32, 48, 1, 1]
0	0x3d856914	0.06514183
1	0x3e146b56	0.1449407
2	0x3e389d70	0.18028808
3	0x3e17503e	0.14776704
4	0x3e481a92	0.19541386
5	0x3ecd2ba0	0.40072346
6	0xbe9fa933	-0.31183776
7	0xbe0224c3	-0.12709336
8	0x3b3e7669	0.0029062277
9	0xbea51bad	-0.32247677
10	0x3f0635e4	0.5242598
11	0xbe8a5c72	-0.27023655
12	0xbd19be64	-0.037535086
13	0x3da1cdb7	0.07900565
14	0xbd811adc	-0.06303951
15	0xbb20f864	-0.0024562115
16	0x3dc55306	0.09634976
17	0x3ce72bf6	0.028219204
18	0xbd53a072	-0.051666684
19	0xbcd63909	-0.026150243
20	0x3e6ffd4b	0.23436467
21	0x3e19bf0a	0.15014282
22	0xbe3690fa	-0.17828742
23	0x3e9b5031	0.3033462
24	0xbe95b7b7	-0.29241726
25	0x3b50a985	0.0031839323
26	0xbe355328	-0.17707503
27	0x3d1d5343	0.038409483
28	0x3d330158	0.043702453
29	0x3d83bca8	0.06432468
30	0xbcb17f5e	-0.021667179
31	0x3de5a944	0.112139255
32	0xbe89299d	-0.2678956
33	0x3d9132b7	0.07089751
34	0x3c165da8	0.009177603
35	0x3d8ff447	0.07029014
36	0xbd8dc896	-0.06923024
37	0xbd275302	-0.040850647
38	0x3e144ecb	0.14483182
39	0xbe8858d0	-0.2663026
40	0xbe6bc879	-0.23025693
41	0xbe20f9e9	-0.15720333
42	0xbde3892e	-0.11110149
43	0x3d41e368	0.047336012
44	0x3e389eee	0.18029377
45	0x3e3dd0c2	0.18536666
46	0x3e0525af	0.13002656
47	0x3eb68e13	0.3565527
48	0x3dc512bc	0.09622714
49	0xbcd1a315	-0.025590459
50	0xbeb215d4	-0.3478228
51	0x3e13b19f	0.14423226
52	0xbde0d980	-0.10978985
53	0xbdda993c	-0.106737584
54	0xbea61c9d	-0.32443705
55	0xbe1dbf6b	-0.15405051
56	0xbe796f6a	-0.24358907
57	0x3ef85159	0.48499563
58	0xbd188155	-0.037232716
59	0xbe11242a	-0.14173952
60	0xbf020c89	-0.5080038
61	0xbeb8808f	-0.36035582
62	0xbf191775	-0.5980142
63	0xbdb23e27	-0.08703261
64	0xbd1f9b73	-0.038966607
65	0xbe68494d	-0.22684212
66	0x3e01df09	0.12682737
67	0xbd8b1f36	-0.067930624
68	0xbe0919fc	-0.13388819
69	0x3eb5ec23	0.3553172
70	0x3ea82562	0.3284102
71	0xbe180f2b	-0.14849536
72	0xbecb9e00	-0.39768982
73	0xbf12bc49	-0.5731855
74	0xbe0a5999	-0.13510741
75	0xbdbff674	-0.09373179
76	0x3e47bca9	0.19505562
77	0x3e866322	0.26247507
78	0xbe750685	-0.23928268
79	0xbe57af69	-0.21063007
80	0xbda1e21f	-0.07904457
81	0x3db68c58	0.08913487
82	0xbd2d4783	-0.042304527
83	0xbebb9550	-0.36637354
84	0xbddfd102	-0.10928537
85	0x3e15b0d8	0.14618242
86	0xbe280b30	-0.16410518
87	0x3df773f7	0.120826654
88	0xbc839fcc	-0.016067408
89	0xbea28c86	-0.31747836
90	0x3d64bd15	0.055844385
91	0x3e0d1229	0.13776459
92	0xbebcdb19	-0.36885908
93	0x3e1d4e2e	0.15361854
94	0xbe403df1	-0.18773629
95	0xbf00e693	-0.5035183
96	0x3eefd834	0.46844637
97	0xbe17c0f8	-0.14819705
98	0xbe944d36	-0.28965157
99	0xbf07b393	-0.53008384
100	0x3e3192dd	0.1734118
101	0xbddbc95b	-0.10731765
102	0xbec8372c	-0.39104593
103	0xbe9435c2	-0.28947264
104	0xbe18850e	-0.14894506
105	0x3d9a116f	0.075228564
106	0xbe89fbb3	-0.26949844
107	0x3d3fcc8c	0.04682593
108	0xbe36583b	-0.17807095
109	0xbd32c0c4	-0.043640867
110	0x3df5950b	0.11991318
111	0x3deb29b2	0.11482562
112	0xbce8de0f	-0.028426198
113	0x3e5b6cf6	0.21428284
114	0x3f6dad47	0.92842525
115	0xbe783d15	-0.24242051
116	0xbec07ece	-0.37596744
117	0x3e2a359f	0.16622017
118	0x3d0c630e	0.034274153
119	0x3b57d22b	0.0032931666
120	0xbf08e075	-0.53467494
121	0x3dfbc05c	0.12292549
122	0xbdfaa295	-0.12238041
123	0xbda241b0	-0.07922685
124	0x3d257b29	0.040400658
125	0x3e5b693e	0.21426865
126	0xbdd04eb5	-0.10171262
127	0xbc2b24dd	-0.010445801
128	0xbd5772d2	-0.052599736
129	0x3de0ff13	0.109861515
130	0xbdc820b2	-0.09771861
131	0xb98f9f4f	-0.0002739378
132	0x3e9b9b4f	0.3039193
133	0x3d52e0a9	0.051483784
134	0xbe91d411	-0.28482106
135	0x3f18330d	0.594529
136	0x3e81baa5	0.2533771
137	0x3d1f1b6a	0.038844503
138	0x3f2a0a24	0.66421723
139	0xbdcf0fa4	-0.10110405
140	0x3d34410b	0.044007342
141	0xbdc1b184	-0.094576865
142	0xbdd46cdb	-0.10372325
143	0xbe1da542	-0.15395072
144	0xbe87f9a6	-0.26557654
145	0x3e1bc016	0.15209994
146	0x3d1aac4e	0.03776198
147	0xbe2b7504	-0.16743857
148	0xbea8d2ac	-0.3297323
149	0x3e01c470	0.12672591
150	0xbee3aba8	-0.444669
151	0x3e02ee11	0.12786128
152	0x3d745ae3	0.05965699
153	0x3eabc57d	0.3354911
154	0xbcf73e3c	-0.030181043
155	0x3e6cc3cc	0.23121566
156	0xbea1ec17	-0.31625435
157	0xbdf22aea	-0.118245915
158	0x3db22999	0.086993404
159	0x3ea9ba90	0.33150148
160	0x3e02b8cb	0.12765805
161	0xbe057cfb	-0.13035958
162	0xbe097d8f	-0.13426803
163	0xbcbfad4d	-0.023398066
164	0x3dd151e4	0.102206975
165	0x3ed96ec1	0.4246731
166	0xbe898117	-0.268563
167	0xbe2749e0	-0.16336775
168	0xbf360cfa	-0.7111355
169	0x3d827a9f	0.06371044
170	0xbe0031b8	-0.12518966
171	0xbe74d813	-0.23910551
172	0x3d9f0a97	0.07765692
173	0xbe2bb2e4	-0.1676746
174	0x3ec86f4e	0.3914742
175	0xbe3b4d76	-0.18291268
176	0x3cc08066	0.023498725
177	0xbf2322c9	-0.6372495
178	0xbe9d6761	-0.30742934
179	0x3d761021	0.060073975
180	0x3e60faa1	0.21970607
181	0x3e0aba81	0.13547708
182	0x3c64edb0	0.013972685
183	0x3d2bd8d0	0.041954815
184	0xbda150bc	-0.07876727
185	0xbd01226c	-0.031526968
186	0xbe57ffa0	-0.21093607
187	0x3e042b28	0.12907088
188	0x3d764c8b	0.06013159
189	0x3da693ab	0.08133634
190	0xbe86735c	-0.26259887
191	0x3e26febe	0.16308114
192	0x3dfd48d8	0.123674095
193	0xbd57d316	-0.05269154
194	0xbd8f8cf6	-0.07009308
195	0xbee1f1f0	-0.44129896
196	0xbe744b08	-0.23856747
197	0xbe00d795	-0.12582238
198	0xbf10c7ae	-0.5655469
199	0xbe175034	-0.14776689
200	0xbd9a7d93	-0.07543483
201	0xbed98eba	-0.42491704
202	0xbe0b8e46	-0.13628492
203	0x3db827ff	0.08992004
204	0x3c331763	0.010930869
205	0xbea1e01d	-0.31616297
206	0xbd3429a1	-0.043985013
207	0x3de1b75d	0.11021302
208	0xbd93c717	-0.07215708
209	0x3d9bd160	0.076082945
210	0x3ee02251	0.4377618
211	0xbc9eac65	-0.019369313
212	0xbe3b9861	-0.18319847
213	0x3e265e3b	0.16246884
214	0xbdb7f480	-0.089821815
215	0x3e573ba7	0.2101885
216	0xbf076b98	-0.5289855
217	0xbd379c6a	-0.044826902
218	0xbd193910	-0.037407935
219	0xbdb9edc2	-0.09078552
220	0x3d0f3210	0.034959853
221	0xbd57a206	-0.052644752
222	0xbc1c45df	-0.009538143
223	0xbdc29773	-0.09501543
224	0xbd374efd	-0.044753063
225	0xbdeb4f2c	-0.1148971
226	0x3cc13bcc	0.023588084
227	0xbdeed661	-0.11661983
228	0x3e94af72	0.29040104
229	0xbde2f198	-0.110812366
230	0x3dc6bba0	0.097037554
231	0x3efb9da8	0.4914372
232	0x3e3f0f71	0.18658234
233	0xbcb6fdc5	-0.022337804
234	0x3eb7f1f6	0.3592679
235	0x3da9ecc6	0.08297114
236	0x3cc3d4b1	0.02390513
237	0xbca6bacb	-0.020352742
238	0xbe86ed12	-0.26352745
239	0xbdcc802d	-0.09985385
240	0xbd95d77d	-0.07316492
241	0x3d9d13d7	0.076698
242	0xbe3f103c	-0.18658537
243	0xbe9718de	-0.2951116
244	0xbea0a2f6	-0.3137433
245	0xbef01eea	-0.46898586
246	0x3eb009cf	0.34382483
247	0xbd240721	-0.04004586
248	0xbe4665d7	-0.19374786
249	0x3e9913a6	0.29897803
250	0x3d17efab	0.0370938
251	0x3e8c910e	0.27454418
252	0xbe4ffde6	-0.20311698
253	0xbea0ad22	-0.3138209
254	0xbcb33c23	-0.021879261
255	0xbc022b98	-0.007944964

block1.gcn.conv1.bias f4 [32]
0	0xbd87d504	-0.066324264
1	0xbe5d0434	-0.21583635
2	0xbdbfb2de	-0.09360288
3	0xbe3f8b73	-0.1870554
4	0xbc607c21	-0.01370147
5	0xbdbb984c	-0.09159908
6	0xbe11096e	-0.14163753
7	0x3d239dbd	0.039945353
8	0xbeab3009	-0.33435085
9	0xbddd1c85	-0.10796455
10	0xbd47cdd5	-0.04878028
11	0xbd9c9764	-0.07646063
12	0xbd2feb72	-0.042949148
13	0xbd2a880a	-0.041633643
14	0xbe2197f6	-0.15780625
15	0xbebbf8c0	-0.3671322
16	0xbe00cd83	-0.12578396
17	0xbd4a77c9	-0.049430642
18	0xbd2fb9d7	-0.04290184
19	0xbca8da59	-0.020611929
20	0xbe9958de	-0.29950613
21	0xbd06212d	-0.032746483
22	0xbe3ed36c	-0.18635339
23	0xbe4b5d0b	-0.19859712
24	0x3d903975	0.07042209
25	0x3d902ec4	0.0704017
26	0xbee1e919	-0.44123152
27	0x3ccd24de	0.025041994
28	0xbe0573b1	-0.13032414
29	0xbea01ab4	-0.31270373
30	0xbe7a1528	-0.24422133
31	0xbe6bb560	-0.23018408

block1.conv2.weight f4 [64, 32, 1, 3]
0	0xbea3da2a	-0.32002383
1	0xbdba941e	-0.09110282
2	0x3e52a619	0.20571174
3	0xbea8d649	-0.32975987
4	0x3f11d650	0.5696764
5	0xbeb2d48f	-0.34927794
6	0x3e262a95	0.16227181
7	0x3e6ad27c	0.22931856
8	0xbf20a2b0	-0.6274824
9	0x3efd137b	0.49428925
10	0x3e19c70f	0.15017341
11	0x3e43ee19	0.19133796
12	0x3e245b0e	0.1605036
13	0x3d64acfa	0.055829026
14	0xbeadc835	-0.33941808
15	0x3e4b1a6d	0.198343
16	0xbe70a4ca	-0.23500362
17	0xbab4bc20	-0.0013788976
18	0xbeb90fd5	-0.3614489
19	0xbd9824c0	-0.074288845
20	0x3e2388fc	0.15970224
21	0x3d12460d	0.035711337
22	0x3e3a52d2	0.18195656
23	0x3ec5e596	0.38651723
24	0x3e06e977	0.13174997
25	0xbe52d41f	-0.2058873
26	0x3e1517c8	0.14559853
27	0xbf45b14c	-0.7722366
28	0xbea42dd6	-0.3206622
29	0x3e32eb7d	0.17472644
30	0x3e3960d0	0.18103337
31	0x3e48b88e	0.19601652
32	0x3e9bd907	0.30439016
33	0xbd8e0bb8	-0.06935829
34	0x3e29e918	0.16592824
35	0x3ece9add	0.40352526
36	0x388ae192	6.6223685e-05
37	0x3e52be11	0.20580317
38	0x3e499ed8	0.196895
39	0xbe828fb0	-0.2550025
40	0x3eb4b1c4	0.35291874
41	0x3f17237b	0.59038514
42	0x3e27bbaf	0.1638019
43	0xbafb6365	-0.0019179402
44	0x3e8711ae	0.26380676
45	0xbe6dd8da	-0.23227254
46	0xbee7cdcd	-0.452742
47	0x3fecac0f	1.8490008
48	0x3db57263	0.08859708
49	0x3e129e88	0.14318287
50	0x3ea985c5	0.3310987
51	0x3e6c1f05	0.23058708
52	0x3e8b472c	0.27202737
53	0x3ec8ca0e	0.39216655
54	0x3e3bc1ae	0.18335602
55	0x3f186c1c	0.5953996
56	0x3f2ba760	0.6705227
57	0xbd03f3b4	-0.032214835
58	0x3daa60d6	0.08319251
59	0x3e5611bd	0.20905204
60	0xbeca7631	-0.39543298
61	0xbe7f6334	-0.24940187
62	0xbdbb93f4	-0.09159079
63	0x3d0b1475	0.033955056
64	0xbe3fabc7	-0.18717872
65	0x3d34f78b	0.044181388
66	0x3dd00eaa	0.10159047
67	0x3e80112f	0.2501311
68	0xbd434bcf	-0.04767972
69	0xbe40bbc7	-0.18821631
70	0xbe797ee3	-0.2436481
71	0xbf090fbb	-0.5353963
72	0x3db32470	0.08747184
73	0x3e94f77a	0.2909506
74	0x3f13e6ab	0.57773846
75	0x3e2d1256	0.16901526
76	0x3e752c7f	0.23942755
77	0x3f4665c3	0.77499026
78	0xbef1b84b	-0.47210917
79	0xbe35e059	-0.17761363
80	0xbe7634ba	-0.24043551
81	0x3ec57eae	0.3857321
82	0x3f079c5d	0.52972966
83	0x3eb6bb0a	0.35689574
84	0x3ee02c99	0.43784025
85	0x3ea02516	0.31278294
86	0x3ce818be	0.02833211
87	0xbe991e4c	-0.29905927
88	0xbe534174	-0.20630437
89	0xbe0c4aae	-0.13700363
90	0xbe6602a1	-0.2246194
91	0xbc892a00	-0.01674366
92	0x3e6708ac	0.22561902
93	0x3e79c48a	0.2439138
94	0x3e08f652	0.13375214
95	0x3eda3b0b	0.4262317
96	0xbe05850e	-0.13039038
97	0x3e581a1c	0.2110371
98	0xbe6c771b	-0.2309231
99	0x3ec8999e	0.391797
100	0x3ea2b4ee	0.31778663
101	0x3dd9af7b	0.10629173
102	0x3eae1dc6	0.3400709
103	0x3e950c75	0.29111066
104	0x3e55e5af	0.20888399
105	0x3d39b3d3	0.04533751
106	0x3d93f5e0	0.07224631
107	0xbda7b52c	-0.08188853
108	0x3e9fb2c6	0.3119108
109	0x3e258317	0.16163288
110	0x3d956239	0.07294125
111	0x3edf7e04	0.4365083
112	0x3d08203a	0.03323386
113	0x3d6022eb	0.0547208
114	0x3e0c506e	0.13702556
115	0xbdc031e6	-0.09384517
116	0xbeb3da94	-0.351277
117	0xbca886ae	-0.020572033
118	0xbda29763	-0.07939031
119	0xbd7dff6e	-0.062011175
120	0xbe504f93	-0.20342855
121	0x3e520e27	0.20513211
122	0x3ee49cfc	0.4465102
123	0x3e5d802d	0.21630926
124	0x3d83c432	0.06433906
125	0x3df53793	0.119734906
126	0x3c895817	0.016765637
127	0x3d17189e	0.03688871
128	0x3e11ed65	0.14250715
129	0xbebc047d	-0.36722174
130	0xbe10e340	-0.14149189
131	0x3d9a4c24	0.07534054
132	0x3e492f2c	0.19646901
133	0x3e578020	0.2104497
134	0x3cf38662	0.029727165
135	0x3e1b38aa	0.15158334
136	0xbe8f0d7f	-0.27939984
137	0x3dbe6c59	0.092980094
138	0xbdf324c4	-0.11872247
139	0x3f7f6696	0.9976591
140	0x3e509853	0.20370607
141	0x3ebca163	0.36841878
142	0x3efcdc9b	0.4938706
143	0x3f659acc	0.89689326
144	0xbd384726	-0.044989727
145	0xbcb18493	-0.021669662
146	0xbda21a2f	-0.079151504
147	0x3e07214c	0.13196295
148	0x3e9876db	0.2977818
149	0x3ec22ba9	0.37923935
150	0xbdd982b4	-0.10620633
151	0xbd9919f5	-0.07475654
152	0xbd8fa648	-0.070141375
153	0x3e53b499	0.20674361
154	0x3ec3add0	0.38218546
155	0x3de4a226	0.1116374
156	0x3da0066f	0.07813727
157	0x3eaee948	0.34162354
158	0x3f58d5c3	0.84701174
159	0x3ea0ae0d	0.3138279
160	0x3de271fb	0.11056896
161	0xbdd01a83	-0.10161307
162	0x3ebab91a	0.36469346
163	0x3e719ad1	0.23594214
164	0x3e81a0f1	0.253181
165	0x3e79128f	0.24323486
166	0xbcd7765a	-0.026301552
167	0x3ee91733	0.45525512
168	0xbe1ede05	-0.15514381
169	0x3e8ddc9c	0.27707374
170	0x3ec24ac4	0.37947667
171	0xbe20538e	-0.15656874
172	0x3e5e6c9f	0.21721123
173	0x3ec00bb2	0.37508923
174	0xbd56ff51	-0.052489582
175	0x3da3c98f	0.079974286
176	0x3f378796	0.7169126
177	0x3e0a580a	0.13510147
178	0x3da4fe76	0.08056347
179	0x3dbc52aa	0.091954544
180	0x3eceb83a	0.4037493
181	0x3f366633	0.71249694
182	0xbec9e32c	-0.3943113
183	0xbee03bcc	-0.4379562
184	0x3d20d69b	0.039267164
185	0x3e01e48d	0.12684841
186	0x3dad35e5	0.08457545
187	0x3dc7f775	0.097639956
188	0xbb8edba2	-0.0043596784
189	0x3e238215	0.15967591
190	0x3e8948de	0.26813406
191	0x3fab20f2	1.3369429
192	0xbea126bd	-0.31474867
193	0xbf10d733	-0.5657837
194	0xbe395c16	-0.18101534
195	0x3c21981b	0.009862925
196	0xbe5d379c	-0.21603245
197	0x3c06c156	0.008224806
198	0xbe9f033e	-0.3105716
199	0xbe6dd6f8	-0.23226535
200	0xbec60ff5	-0.3868405
201	0xbe6402cc	-0.22266692
202	0xbe45f172	-0.19330385
203	0x3ee9e389	0.45681408
204	0xbed65ebc	-0.41869152
205	0xbdbf89e3	-0.09352472
206	0xbe3b35d0	-0.18282247
207	0xbdcae3fa	-0.09906764
208	0xbd44a160	-0.04800546
209	0xb9fe4095	-0.00048494773
210	0xbf649f59	-0.89305645
211	0xbe700a58	-0.23441446
212	0x3ec2e55a	0.38065606
213	0x3efe8bbd	0.49715987
214	0x3e72c512	0.23707989
215	0x3f4352f5	0.7629846
216	0x3f128282	0.5723039
217	0x3ddf8aa3	0.10915115
218	0xbdc66765	-0.0968769
219	0xbe449b8a	-0.19199958
220	0xbd72f375	-0.05931421
221	0x3c9e1e72	0.019301627
222	0xbeddc4fd	-0.43314353
223	0xbd190d85	-0.03736641
224	0xbe9d828b	-0.3076366
225	0xbcb6464c	-0.022250317
226	0x3eb68057	0.3564479
227	0xbe7f41bc	-0.2492742
228	0xbe074d19	-0.13213004
229	0x3d8691ff	0.06570815
230	0xbd8b2953	-0.06794991
231	0xbf5a320a	-0.85232604
232	0xbea3987b	-0.3195227
233	0x3d5a6f79	0.053328965
234	0xbe916030	-0.28393698
235	0xbe222ded	-0.15837832
236	0xbc8fe29f	-0.017564116
237	0xbfadd70a	-1.358125
238	0xbf12ddce	-0.573697
239	0xbf8378cd	-1.027124
240	0x3ee42861	0.44562057
241	0x3e20f45e	0.15718219
242	0x3cd7e798	0.02635555
243	0xbcf4d330	-0.029885858
244	0xbe7f0f03	-0.2490807
245	0xbe9e7015	-0.30944887
246	0x3c8e9aaf	0.017407743
247	0x3e75b695	0.23995431
248	0x3cc581bb	0.024109712
249	0xbe32ea00	-0.17472076
250	0xbc804d87	-0.015661968
251	0xbe2abb2c	-0.16672963
252	0x3e08fc46	0.13377485
253	0x3d696ca5	0.056988377
254	0xbe94cdf9	-0.29063395
255	0xbef7e58a	-0.48417312

block1.conv2.bias f4 [64]
0	0x3e8385b5	0.25687948
1	0x3e5e01a7	0.21680318
2	0xbe9fb8b7	-0.31195614
3	0x3d9c97d9	0.0764615
4	0xbeb36a3c	-0.35041988
5	0x3d53d589	0.051717315
6	0xbe0af0d0	-0.13568425
7	0xbe84369e	-0.2582292
8	0xbe6dea39	-0.2323388
9	0x3e81bab5	0.2533776
10	0xbe214bef	-0.15751623
11	0xbd6f577e	-0.05843305
12	0xbe3b76dd	-0.18307061
13	0xbec5bdea	-0.38621455
14	0x3dc4f77a	0.09617515
15	0xbc30612b	-0.010765354
16	0x3ec060ad	0.37573758
17	0xbdccd95e	-0.10002397
18	0xbd9178ac	-0.071030945
19	0x3e10c7f3	0.14138775
20	0xbc6e51ad	-0.01454584
21	0xbe273997	-0.16330563
22	0xbe7302ca	-0.23731533
23	0x3e10232e	0.1407592
24	0xbd69d67f	-0.057089325
25	0xbe1efbe9	-0.15525784
26	0xbe3964a7	-0.18104802
27	0xbe8355b2	-0.25651318
28	0x3d9780f3	0.07397642
29	0x3d893ffd	0.06701658
30	0xbea72169	-0.32642677
31	0xbd98ff74	-0.07470599
32	0xbe43b01b	-0.19110148
33	0xbee686e9	-0.45024803
34	0xbe406ac3	-0.18790726
35	0x3d92aae4	0.07161501
36	0xbe33787a	-0.17526427
37	0xbc9536c1	-0.018214585
38	0x3ee50c00	0.44735718
39	0xbea52a84	-0.32259
40	0xbe505434	-0.20344621
41	0xbe5d63ee	-0.21620151
42	0x3d5058e2	0.050866015
43	0xbdb8322a	-0.08993943
44	0x3d8094c4	0.06278375
45	0xbe7a4ab4	-0.2444256
46	0xbca98d3a	-0.020697225
47	0x3c7d7879	0.015470617
48	0xbd226ab1	-0.03965253
49	0xbd538562	-0.051640876
50	0xbe862b70	-0.26205015
51	0xbe369a13	-0.17832212
52	0x3e5b2ec5	0.2140456
53	0x3d9f9e49	0.077938624
54	0x3e0402ed	0.12891741
55	0x3e7e2b9b	0.24821322
56	0x3c72f4f3	0.014828908
57	0x3deab5bd	0.11460445
58	0x3e292734	0.16518861
59	0x3e4e1a74	0.20127279
60	0xbdcf6970	-0.101275325
61	0x3e3d5d44	0.1849261
62	0xbf478515	-0.7793744
63	0x3e51a766	0.20474014

block1.conv_1.weight f4 [32, 1, 1, 1]
0	0xbc6f2099	-0.014595174
1	0x3eccdbbd	0.40011397
2	0xbf10ba02	-0.56533825
3	0x3ceea47f	0.029131172
4	0xbe2a868c	-0.16652888
5	0x3eae2098	0.34009242
6	0xbf8ab7e4	-1.0837369
7	0xbf0023c4	-0.50054574
8	0x3d10e961	0.035378817
9	0x3f43c046	0.7646526
10	0xbea21ae1	-0.31661132
11	0xbe459337	-0.1929444
12	0xbf84863a	-1.0353463
13	0xbf315622	-0.69272053
14	0xbd79fdc2	-0.061033018
15	0xbebbefea	-0.36706477
16	0x3e96760b	0.29386935
17	0xbf2f5a81	-0.68497473
18	0x3e117e3b	0.1420831
19	0xbe55d657	-0.20882545
20	0xbf53152b	-0.82454175
21	0xbe64090c	-0.22269076
22	0xbf45164a	-0.76987135
23	0xbe0ca36b	-0.13734214
24	0x3edf58f6	0.4362256
25	0xbf6444f1	-0.89167696
26	0xbf5bf7ab	-0.85924786
27	0xbf6bdbe7	-0.9213242
28	0x3e13c6e8	0.14431345
29	0x3f7d8a96	0.9903959
30	0xbe88b2bd	-0.26698866
31	0xbf3d0adc	-0.73844695

block1.conv_1.bias f4 [32]
0	0xbf53eeb3	-0.827861
1	0xbf1cee4a	-0.613011
2	0x3d2a4b51	0.041575734
3	0x3ea6914f	0.32532737
4	0x3f3b03cc	0.7305267
5	0x3f1117b0	0.5667677
6	0xbf4482b1	-0.7676192
7	0xbd8d2985	-0.06892685
8	0x3f285fb7	0.6577105
9	0x3e54213f	0.20715807
10	0xbec521ac	-0.38502252
11	0x3a57ce22	0.00082323153
12	0xbeda3c34	-0.42624056
13	0x3dcdae28	0.10042983
14	0xbf0267e1	-0.50939757
15	0xbefb3754	-0.4906565
16	0x3dd55d09	0.10418136
17	0xbee5c8c4	-0.44879735
18	0x3eed5ba9	0.46358994
19	0xbef9ef0a	-0.48815185
20	0xbf6d1cc7	-0.92622036
21	0xbda45ff6	-0.080261156
22	0xbeca6e64	-0.39537346
23	0xbd175cf5	-0.036953885
24	0x3f2afaa0	0.66788673
25	0xbf55a778	-0.8345866
26	0xbf059b1e	-0.52189815
27	0xbea869dd	-0.32893267
28	0xbe02d070	-0.12774825
29	0x3f6ea33b	0.9321782
30	0x3f0ba0e6	0.54542387
31	0xbf11b872	-0.56922066

block2.conv1.weight f4 [32, 32, 1, 3]
0	0x3cd8dd82	0.02647281
1	0xbcbe81e8	-0.023255304
2	0xbde18e1d	-0.11013434
3	0x3e519cf7	0.20470034
4	0x3b91c7fc	0.004448889
5	0xbc3f54f4	-0.011677969
6	0xbe2c9290	-0.16852784
7	0x3d95cd61	0.073145635
8	0xbe63f1dd	-0.22260232
9	0x3ec989f5	0.39363065
10	0x3e46c27f	0.19410132
11	0xbe8adbc4	-0.27120793
12	0xbe73962b	-0.23787753
13	0x3e82473b	0.2544497
14	0xbd2561f0	-0.040376604
15	0x3d463d53	0.048398327
16	0xbdc46a7a	-0.09590621
17	0xbe6e90c6	-0.23297414
18	0xbf08a20f	-0.5337228
19	0x3e83b8ec	0.25727022
20	0x3ec2b890	0.38031435
21	0xbef2c155	-0.47413126
22	0x3dd77eb8	0.105222166
23	0x3e45e4a1	0.19325496
24	0xbe175695	-0.14779122
25	0x3df8f94a	0.12156923
26	0x3d01e67f	0.03171396
27	0x3e91b056	0.28454846
28	0x3cd13450	0.02553764
29	0x3d146608	0.036230117
30	0xbf23e185	-0.6401599
31	0x3e04e03c	0.12976164
32	0x3ea62ad1	0.3245454
33	0x3dcc0c29	0.09963257
34	0x3e255c54	0.16148502
35	0x3e84e14e	0.25953144
36	0xbf0a11d8	-0.5393348
37	0x3e5302a5	0.20606478
38	0x3e7f89d8	0.24954927
39	0xbeab2be7	-0.33431932
40	0x3e642fc6	0.22283849
41	0xbc971264	-0.018441387
42	0xbe888eba	-0.26671392
43	0x3e49c71e	0.19704863
44	0x3d4f95de	0.050680034
45	0xbe53e0d9	-0.20691241
46	0x3e250500	0.16115189
47	0x3e2dc439	0.16969384
48	0x3eec146a	0.46109325
49	0xbe0ea0a5	-0.13928469
50	0xbc3b2b5c	-0.011423912
51	0xbee26f8a	-0.44225723
52	0x3e6705aa	0.22560754
53	0x3e287e6c	0.16454476
54	0x3cec7fe4	0.028869577
55	0x3541861d	7.2093263e-07
56	0xbe8cedcf	-0.27525184
57	0x3dd9cf62	0.10635258
58	0xbdafcc3a	-0.08583875
59	0xbb42061e	-0.0029605697
60	0xbe31e13b	-0.17371075
61	0x3d2dc6fc	0.042426094
62	0x3e8883aa	0.26662952
63	0xbf04d99c	-0.51894546
64	0x3e838502	0.25687414
65	0x3e3d9a91	0.18515994
66	0xbefa5667	-0.48894045
67	0x3e5a49e3	0.21317248
68	0x3e63860f	0.22219108
69	0xbd47e671	-0.04880375
70	0x3dbe6c47	0.09297996
71	0xbe15a703	-0.14614491
72	0x3e42a6e5	0.19008978
73	0xbe4eb048	-0.20184433
74	0xbdb62709	-0.08894164
75	0xbec00e54	-0.37510931
76	0x3e6492f0	0.22321677
77	0x3e3393a2	0.17536786
78	0xbeea9933	-0.45820007
79	0x3e8b100b	0.27160677
80	0x3e6301d4	0.22168666
81	0xbf112b82	-0.5670701
82	0x3e9a2287	0.30104467
83	0x3e488423	0.19581656
84	0x3b85475f	0.004067346
85	0x3d02f248	0.03196934
86	0x3dbcea5b	0.09224387
87	0x3f212fc2	0.629635
88	0xbea6ad7e	-0.3255424
89	0xbeb36533	-0.35038146
90	0x3c92bfe3	0.017913764
91	0x3dcbae7c	0.0994539
92	0xbd803bbd	-0.06261394
93	0xbec1ea9b	-0.37874302
94	0x3e63b543	0.22237115
95	0x3e768a26	0.24076137
96	0xbedf80bc	-0.43652904
97	0xbeff2ebf	-0.49840352
98	0xbe21b985	-0.15793426
99	0xbe21d435	-0.15803607
100	0xbc8d88f5	-0.01727722
101	0x3df22669	0.118237324
102	0xbe45ef10	-0.19329476
103	0x3dd9dfde	0.106384024
104	0xbc70891a	-0.014681125
105	0x3eeede76	0.466541
106	0x3daca869	0.08430559
107	0xbc12ada8	-0.008952536
108	0x3ebd2d7b	0.3694876
109	0x3e07d77c	0.13265795
110	0xbebd1f4e	-0.36937946
111	0xbd0b4501	-0.034001354
112	0x3ef64249	0.48097447
113	0x3dc25dfe	0.09490584
114	0x3e2938eb	0.16525619
115	0xbe8721c3	-0.26392946
116	0xbd9c9826	-0.076462075
117	0x3d7f1d0e	0.062283568
118	0xbb3f6cd5	-0.0029209156
119	0xbcbae06e	-0.022812095
120	0xbddccc29	-0.10781128
121	0x3e1690fb	0.14703743
122	0xbe7baeaf	-0.24578355
123	0xbcb04467	-0.021516992
124	0x3d3a8f6e	0.04554694
125	0x3e79c4bf	0.24391459
126	0x3d87edc8	0.0663715
127	0xbeb1a6f9	-0.34697703
128	0xbe18be32	-0.14916304
129	0x3eca2bb3	0.39486465
130	0x3db46156	0.08807628
131	0xbd9d9919	-0.07695217
132	0x3e42e971	0.19034363
133	0xbe296340	-0.16541767
134	0xbe3a7f76	-0.18212685
135	0xbe83742b	-0.25674567
136	0xbdc67084	-0.096894294
137	0xbd29efaa	-0.041488327
138	0xbe886e13	-0.2664648
139	0xbf28da8b	-0.6595847
140	0xbf0304ab	-0.51179
141	0x3e111369	0.1416756
142	0xbe2e183b	-0.1700143
143	0xbd91da11	-0.07121671
144	0x3ec40c9b	0.38290867
145	0x3e69c0f2	0.22827509
146	0x3dc3960e	0.09550105
147	0x3cc01d61	0.023451509
148	0xbe3bd0f5	-0.1834143
149	0xbd50c394	-0.050967768
150	0xbe8a0187	-0.2695429
151	0x3cebc861	0.028782072
152	0xbc9b9853	-0.018993532
153	0x3e07ce08	0.13262188
154	0xbe1a4b11	-0.15067698
155	0xbe95582d	-0.29168835
156	0x3e4beb4a	0.19913974
157	0xbd76bd7f	-0.06023931
158	0xbd047b3f	-0.0323441
159	0xbdf133fd	-0.11777494
160	0xbe676734	-0.22597963
161	0xbe20d807	-0.15707408
162	0x3e122f6c	0.14275903
163	0xbd4fb542	-0.05070997
164	0xbd4f2204	-0.05056955
165	0x3d051ee3	0.03250016
166	0x3ef12ed7	0.47106048
167	0x3e67af5a	0.22625485
168	0x3dc003fa	0.093757585
169	0x3ef43027	0.47692987
170	0x3c88292a	0.016621191
171	0x3e4ebc76	0.2018908
172	0xbe0b9367	-0.13630448
173	0x3df214c0	0.11820364
174	0x3ddf2711	0.10896123
175	0xbe195262	-0.14972833
176	0xbd0e75f3	-0.034780454
177	0x3deff374	0.11716357
178	0xbe150417	-0.14552341
179	0xbe0faa32	-0.14029768
180	0x3e7dc98c	0.24783915
181	0x3e7d1117	0.2471355
182	0x3d34868e	0.044073634
183	0xbdb13a46	-0.08653693
184	0x3c9df795	0.019283095
185	0x3dbf1afb	0.09331318
186	0x3e6eefd5	0.23333676
187	0x3eb05c0b	0.34445223
188	0xbee6ab25	-0.45052448
189	0x3df353d3	0.118812226
190	0x3d28cb7e	0.04120969
191	0x3d81b524	0.06333378
192	0xbeea8480	-0.45804214
193	0xbee40de2	-0.44541842
194	0xbe36d3f9	-0.17854299
195	0xbd74a09d	-0.059723485
196	0x3e760deb	0.24028747
197	0x3db2291f	0.086992495
198	0x3e964058	0.29345965
199	0x3d828469	0.063729115
200	0x3e3e9ca2	0.18614438
201	0x3ef75f62	0.4831496
202	0xbf0aa50d	-0.541581
203	0xbe900ade	-0.2813329
204	0xbe09d12e	-0.13458702
205	0xbdfa67c5	-0.12226824
206	0xbeeba231	-0.4602218
207	0x3e8070e2	0.25086123
208	0x3eaa1b3f	0.33223912
209	0x3eacbf3b	0.33739647
210	0x3eabce3c	0.33555782
211	0xbcbe2bc5	-0.02321423
212	0x3d2437b5	0.04009219
213	0x3dbfa8f1	0.09358395
214	0xbdaa09a3	-0.08302619
215	0xbd851277	-0.064976625
216	0xbcc7901b	-0.024360707
217	0x3d3a0eef	0.045424398
218	0xbd97229f	-0.0737965
219	0xbda12886	-0.07869057
220	0x3e96e047	0.29467985
221	0x3f043935	0.5164979
222	0x3c563d4d	0.013076139
223	0xbda49a94	-0.08037296
224	0x3c4b6302	0.012413742
225	0x3f07f074	0.5310128
226	0x3ee689f9	0.4502714
227	0x3f0faf9a	0.5612732
228	0x3e68df53	0.22741441
229	0xbeb025c6	-0.3440382
230	0xbe65a152	-0.2242482
231	0x3ebe4ef3	0.37169608
232	0x3d7c9047	0.06166103
233	0x3e595f19	0.21227683
234	0xbec8b563	-0.39200887
235	0xbf1141eb	-0.5674121
236	0xbebed5e1	-0.37272552
237	0xbe0ae30b	-0.13563173
238	0xbe91c1b7	-0.28468105
239	0xbe19a5ab	-0.15004604
240	0xbe30156d	-0.17195673
241	0xbe2b6850	-0.16739011
242	0xbd8c4de5	-0.06850795
243	0x3e6e7da4	0.23290116
244	0xbd919269	-0.07108004
245	0xbd02591e	-0.03182327
246	0xbd0029b8	-0.031289786
247	0xbe55e40d	-0.20887776
248	0x3dc22643	0.09479954
249	0x3e8df8c9	0.2772887
250	0x3e6c1281	0.23053934
251	0x3e55d891	0.20883395
252	0x3d622348	0.055209428
253	0xbe662316	-0.22474322
254	0x3d658705	0.056036968
255	0xbd69303f	-0.056930777

block2.conv1.bias f4 [32]
0	0x3ca42d3e	0.020041104
1	0x3d13d228	0.036089092
2	0x3c89b445	0.016809592
3	0xbdf33c07	-0.11876684
4	0xbe219eb9	-0.15783204
5	0xbd7f41f1	-0.062318746
6	0xbdf8e9a6	-0.1215394
7	0x3e6c521d	0.23078199
8	0xbe12e9dc	-0.14347023
9	0x3db2aeb5	0.08724729
10	0xbc564090	-0.013076916
11	0xbd2b7439	-0.041858885
12	0xbd447d03	-0.047970783
13	0xbd734b69	-0.05939809
14	0xbdc44119	-0.09582729
15	0xbd811d37	-0.063044004
16	0x3b80a211	0.00392557
17	0xbf08590d	-0.5326088
18	0x3d133ae5	0.035944838
19	0xbc0bfa9d	-0.008543638
20	0xbe863df7	-0.2621915
21	0xbe8a8f33	-0.27062377
22	0xbe835d30	-0.25657034
23	0xbe623be6	-0.22093162
24	0xbed65d48	-0.41868043
25	0xbdeebfcc	-0.11657676
26	0xbe828df4	-0.25498927
27	0xbe7dafb9	-0.24774064
28	0x3d599b9a	0.05312691
29	0xbea4abe9	-0.32162407
30	0x3e01c2ba	0.12671939
31	0xbde0f9c7	-0.10985141

block2.gcn.conv1.weight f4 [32, 48, 1, 1]
0	0xbefaef30	-0.4901061
1	0xbefe38f6	-0.49652833
2	0xbe93fd2e	-0.28904098
3	0x3d4b5726	0.049643658
4	0xbe15a239	-0.14612664
5	0xbdda839c	-0.10669634
6	0xbd89f768	-0.06736642
7	0xbdff9cf8	-0.12481111
8	0xbe3dad67	-0.18523179
9	0xbe0a11fe	-0.13483426
10	0x3d5395fd	0.05165671
11	0x3e091243	0.13385873
12	0x3d1b6030	0.03793353
13	0xbd95e723	-0.073194765
14	0xbde778c8	-0.11302334
15	0xbdbdf923	-0.09276035
16	0x3e760348	0.24024689
17	0xbbcf318a	-0.006323044
18	0xbd8e6843	-0.0695348
19	0x3e1f0809	0.15530409
20	0x3d78cf87	0.06074479
21	0xbe216be8	-0.15763819
22	0xbd98fea7	-0.07470446
23	0x3d9f5cbb	0.07781359
24	0x3df07d3e	0.11742638
25	0x3e6f95df	0.23397015
26	0x3db392ef	0.0876826
27	0x3dc791a0	0.09744573
28	0xbcce27c2	-0.025165442
29	0x3d06eba7	0.03293958
30	0x3ea1259a	0.31474
31	0x3be0ffbb	0.006866423
32	0xbd1b1042	-0.0378573
33	0xbdddb5ce	-0.10825692
34	0xbdb42d6a	-0.087977245
35	0xbd492ff7	-0.04911801
36	0xbf1950a2	-0.5988866
37	0xbe1e342c	-0.1544959
38	0xbd90051b	-0.07032224
39	0xbdff279e	-0.12458728
40	0x3daf500c	0.085601896
41	0x3e27d5c8	0.16390145
42	0xbf1d1506	-0.61360204
43	0x3d2468ef	0.040139135
44	0x3d9248e3	0.07142808
45	0x3f782796	0.96935403
46	0x3eea6861	0.4578276
47	0xbc7952df	-0.015217512
48	0x3e84f145	0.25965324
49	0x3d568f8f	0.052383002
50	0x3e81ff34	0.25390017
51	0xbe118d40	-0.14214039
52	0x3d41abf4	0.047283128
53	0x3db20960	0.086931944
54	0xbda4bfd0	-0.08044398
55	0x3d278ecd	0.04090767
56	0x3d1da66c	0.03848879
57	0xbcbea8f2	-0.023273919
58	0x3ebfb0d0	0.37439585
59	0xbd5c684a	-0.053810395
60	0x3e51a064	0.2047134
61	0x3eb64cd9	0.35605505
62	0xbe973c44	-0.29538167
63	0xbe9a07d7	-0.30084106
64	0x3de459cc	0.1114994
65	0xbf2ee978	-0.68324995
66	0x3d727c02	0.059200294
67	0xbdaa328e	-0.08310424
68	0x3e36c439	0.1784829
69	0xbe8eda26	-0.2790081
70	0x3e1b2848	0.15152085
71	0x3ea6e9fd	0.32600394
72	0xbd99a4a1	-0.075021036
73	0xbd48817f	-0.048951622
74	0x3e7c2dc4	0.24626833
75	0x3bfd0e40	0.007722646
76	0x3e0a7dd6	0.13524565
77	0xbdb7506e	-0.089508876
78	0xbe1c1a0a	-0.15244308
79	0x3dab4441	0.08362628
80	0xbdc79d61	-0.097468145
81	0x3e3a59fa	0.18198386
82	0xbe6fae8e	-0.23406431
83	0x3e8d6434	0.2761551
84	0x3b8119d9	0.003939849
85	0xbedd5157	-0.4322612
86	0xbda94c89	-0.08266551
87	0xbdcc6b33	-0.09981384
88	0x3c2ce283	0.0105520515
89	0x3dfae513	0.12250724
90	0x3e992cc4	0.29916966
91	0x3db5c1b7	0.08874839
92	0xbe82aca4	-0.2552234
93	0xbe01fcb6	-0.12694058
94	0x3f1de657	0.61679596
95	0xbe40e805	-0.18838508
96	0x3cc0b010	0.023521453
97	0xbe579bb7	-0.21055494
98	0x3d867223	0.065647386
99	0xbef56afd	-0.47933188
100	0x3da6772c	0.08128199
101	0x3d963cde	0.07335828
102	0xbee2bdbb	-0.44285378
103	0x3ccc5530	0.024942964
104	0x3d5d88d8	0.054085582
105	0x3e93bb3e	0.28853792
106	0xbdd2fbbf	-0.10301923
107	0xbd5825c0	-0.052770376
108	0xbe0a819a	-0.13526002
109	0x3f0306f0	0.5118246
110	0x3da165f8	0.07880777
111	0xbf07e833	-0.5308868
112	0x3ee5b1fe	0.4486236
113	0x3dbea45c	0.09308693
114	0xbe0026a6	-0.12514743
115	0xbd996119	-0.07489223
116	0x3d90b98e	0.07066642
117	0xbed725ea	-0.42021114
118	0xbe6fc462	-0.23414758
119	0xbd711ec2	-0.058867224
120	0x3e514ce9	0.20439495
121	0xbc3abcd5	-0.01139756
122	0xbc8bb30a	-0.017053146
123	0xbea7718f	-0.32703826
124	0x3cfbc046	0.030731332
125	0xbcbff3d8	-0.023431703
126	0x3e9c70d3	0.30554828
127	0x3db2d789	0.08732516
128	0x3e2d8a97	0.16947399
129	0x3ea6ecb9	0.3260248
130	0xbe3bb194	-0.1832946
131	0xbe2e344e	-0.1701214
132	0xbc946293	-0.01811341
133	0xbe04bb08	-0.12961972
134	0xbd78bc0f	-0.06072622
135	0x3ea5799c	0.32319343
136	0xbd3ae92f	-0.045632537
137	0x3e4b2573	0.19838504
138	0x3f500c99	0.8126922
139	0x3d457d9c	0.048215494
140	0xbd59a015	-0.05313118
141	0xbf0fbc20	-0.5614643
142	0x3e8f263e	0.27958864
143	0x3e3d33df	0.18476819
144	0x3da2a13a	0.07940908
145	0xbf63e231	-0.89017016
146	0x3e82c715	0.25542513
147	0xbeb4da3e	-0.35322756
148	0xbe7f27d5	-0.24917538
149	0xbe0b7053	-0.13617067
150	0x3d7ca5c2	0.061681516
151	0x3de2c365	0.11072425
152	0x3ca90b43	0.020635253
153	0xbd3fdbe6	-0.04684057
154	0x3ee145e5	0.43998638
155	0xbdc577f1	-0.09642018
156	0xbde04115	-0.109499134
157	0x3e81be84	0.25340664
158	0x3e61087e	0.21975896
159	0xbe724b95	-0.23661645
160	0x3ec7b744	0.39007008
161	0xbf34f2b9	-0.70682865
162	0xbe33b88a	-0.17550865
163	0x3de7ac8f	0.1131221
164	0xbd285835	-0.041099746
165	0xbc55cfd0	-0.013050035
166	0xbe2a2755	-0.16616566
167	0xbe3aab1d	-0.18229337
168	0x3ca23bd1	0.019803913
169	0x3e006b9a	0.12541047
170	0xbc34bb94	-0.01103105
171	0x3b2befcc	0.002623546
172	0x3e1360e2	0.14392427
173	0xbd3871ff	-0.04503059
174	0x3e83f35e	0.25771612
175	0xbe514060	-0.20434713
176	0x3dcdd11f	0.10049652
177	0x3e8610d0	0.26184702
178	0x3e2348dd	0.15945764
179	0x3b13389e	0.0022464166
180	0xbceac6a3	-0.02865917
181	0xbd617cf7	-0.055050816
182	0xbd879737	-0.06620639
183	0x3ddd9d02	0.108209625
184	0xbdbb57d1	-0.09147609
185	0xbd2eee92	-0.042707987
186	0x3eb12b01	0.34603122
187	0xbeb89113	-0.36048183
188	0x3e70895a	0.23489895
189	0xbec3d3b1	-0.38247445
190	0x3f9374d9	1.1520034
191	0xbed0150f	-0.40641066
192	0x3f2dacdc	0.6784189
193	0x3e8483f7	0.2588193
194	0x3c9f58bb	0.01945149
195	0xbf076d23	-0.52900904
196	0x3e0eb231	0.13935162
197	0x3e3cae53	0.18425874
198	0xbf1ff962	-0.624899
199	0xbda399ca	-0.07988317
200	0x3a5fad8e	0.00085326366
201	0x3e192555	0.14955647
202	0x3d9c858a	0.07642658
203	0xbdab7e84	-0.0837374
204	0xbe8dac8c	-0.27670705
205	0x3e9d287f	0.3069496
206	0x3e546841	0.20742895
207	0xbe8abb40	-0.27095985
208	0xbe7388f1	-0.23782708
209	0xbeb0ec04	-0.34555066
210	0x3d64a955	0.05582555
211	0x3b5bcaa6	0.0033537536
212	0xbc97bb68	-0.01852198
213	0xbe89fbd5	-0.26949945
214	0xbd3f91e0	-0.046769977
215	0x3e24f335	0.16108401
216	0x3e627853	0.22116213
217	0x3d53f11c	0.05174361
218	0x3d821cee	0.06353174
219	0xbeaa9cb6	-0.33322686
220	0xbd1139da	-0.035455562
221	0xbb98d481	-0.0046640043
222	0xbcf9c357	-0.030488653
223	0xbe5b53d4	-0.21418697
224	0x3dcecfea	0.1009825
225	0x3e955614	0.29167235
226	0x3da92fcf	0.08261072
227	0xbcb5a682	-0.022174124
228	0x3eb588d1	0.35455945
229	0x3e47213b	0.1944627
230	0x3e1b7de4	0.15184742
231	0x3e8c9d15	0.27463594
232	0xbd6d5bd2	-0.057948895
233	0xbe2d2188	-0.16907322
234	0x3f14e198	0.5815673
235	0xbeb5e89a	-0.35529023
236	0xbc854454	-0.016267933
237	0xbf925b95	-1.1434199
238	0xbdff4d12	-0.12465872
239	0x3e1dd956	0.15414938
240	0xbec3f313	-0.38271388
241	0x3f257aaa	0.64640296
242	0xbe033eb7	-0.12816893
243	0xbd16b45e	-0.036793105
244	0xbf2adb0c	-0.6674049
245	0x3c091d2a	0.00836877
246	0x3e9bdb71	0.30440858
247	0xbf08aa7c	-0.5338514
248	0x3e5821d0	0.21106648
249	0xbe401c80	-0.18760872
250	0x3f161487	0.5862507
251	0xbd93b424	-0.072120935
252	0x3e1da3a1	0.1539445
253	0xbe45f94b	-0.19333379
254	0x3e8d6f41	0.27623942
255	0xbe1abaf8	-0.15110385

block2.gcn.conv1.bias f4 [32]
0	0x3db64491	0.08899797
1	0xbda2d151	-0.0795008
2	0xbe30a77a	-0.17251387
3	0xbdc0086c	-0.09376606
4	0xbdb00f66	-0.08596687
5	0xbb0d5f27	-0.0021571608
6	0xbe8126b2	-0.25224835
7	0xbcdc5104	-0.0268941
8	0x3e073d58	0.13206995
9	0xbd410868	-0.047127157
10	0xbdda2105	-0.10650829
11	0x3e1112de	0.14167354
12	0x3dfcb825	0.1233981
13	0xbd9c0c8f	-0.07619583
14	0xbe932088	-0.28735757
15	0xbc9e9b99	-0.019361304
16	0xbede99a4	-0.43476593
17	0x3e93f31c	0.28896415
18	0x3e3d0820	0.1846013
19	0x3d92353c	0.0713906
20	0xbe357d24	-0.17723519
21	0xbe591444	-0.21199137
22	0xbe38001f	-0.17968796
23	0xbd8c456c	-0.06849179
24	0xbe4b075a	-0.19827023
25	0x3e26081f	0.16214035
26	0x3d7385d5	0.059453804
27	0xbe216003	-0.15759282
28	0xbd46e17a	-0.048554875
29	0x3e233902	0.15939716
30	0x3d8e175e	0.06938051
31	0x3d480c8d	0.048840094

block2.conv2.weight f4 [64, 32, 1, 3]
0	0xbe0502c6	-0.12989339
1	0xbca5f870	-0.020260066
2	0xbdb934fc	-0.09043309
3	0x3af18d4d	0.0018428952
4	0xbd3bc20f	-0.045839366
5	0x3cd814f4	0.026377179
6	0x3dc8b739	0.09800572
7	0x3d1bbfb1	0.038024608
8	0xbc99a700	-0.01875639
9	0xbd94cf1c	-0.072660655
10	0xbc44af78	-0.012004726
11	0x3d995644	0.07487157
12	0x3e61db63	0.22056346
13	0x3e02b10c	0.1276285
14	0x3da9a251	0.082829125
15	0xbe427967	-0.18991624
16	0x3cde9e73	0.027175164
17	0xbdab9a0a	-0.0837899
18	0xbdce3050	-0.10067809
19	0x3e0f15a0	0.13973093
20	0xbd8a44c1	-0.06751395
21	0xbd407b68	-0.04699269
22	0xbde033d3	-0.10947385
23	0x3dcda761	0.100416906
24	0xbd1515b8	-0.036397666
25	0x3ce19649	0.027537482
26	0xbe0d56f9	-0.13802709
27	0xbda9a246	-0.08282904
28	0x3e11bfe7	0.14233361
29	0x3d8e60bf	0.069520466
30	0xbe048ad7	-0.12943588
31	0x3d93a66e	0.07209478
32	0x3d884992	0.066546574
33	0x3d92db6c	0.07170758
34	0x3c8b13e5	0.01697726
35	0xbd4ef7ec	-0.050529405
36	0xbe07efdf	-0.13275097
37	0xbdcf185d	-0.10112069
38	0xbe3456e6	-0.17611274
39	0x3e50e7ff	0.20401
40	0xbdb2f02c	-0.087372154
41	0xbbdc9ee7	-0.00673281
42	0x3dea1425	0.114296235
43	0x3eb0e948	0.3455298
44	0x3ec14313	0.37746486
45	0x3e89c060	0.26904583
46	0x3e3523fc	0.17689508
47	0x3d8f03ad	0.06983123
48	0xbeec9576	-0.4620778
49	0x3d89fd98	0.06737822
50	0xbe2fc588	-0.17165196
51	0xbd416b71	-0.047221605
52	0xbd5c0148	-0.05371216
53	0x3d2ed6d6	0.042685352
54	0xbe51cd78	-0.20488536
55	0xbe2eba52	-0.17063263
56	0xbdf9e166	-0.122011945
57	0xbc5d116b	-0.013492922
58	0xbe378318	-0.17921102
59	0xbe6e539f	-0.23274086
60	0x3e64f149	0.22357668
61	0x3e221992	0.15830067
62	0x3dedb181	0.11606122
63	0x3d55dda0	0.05221331
64	0x3e2d8c65	0.16948088
65	0x3e4976ee	0.19674274
66	0x3da3e918	0.080034435
67	0x3bcbe08d	0.006221837
68	0x3d6e358e	0.058156542
69	0x3da7d88b	0.08195599
70	0x3df19f11	0.11797918
71	0xbccd37c3	-0.025051003
72	0xbe9c102c	-0.30481088
73	0x3d10f467	0.03538933
74	0xbec23da9	-0.37937668
75	0xbd621347	-0.055194166
76	0x3e44bcd4	0.19212657
77	0x3d4a8d90	0.04945141
78	0x3acd5cfd	0.0015667971
79	0x3b4ddc72	0.0031411913
80	0x3e01d963	0.12680583
81	0xbedf7f62	-0.43651873
82	0xbdc24c37	-0.09487193
83	0x3dde2826	0.108475015
84	0x3df85fd5	0.121276535
85	0x3e4909e2	0.19632676
86	0x3f2388da	0.63880694
87	0x3da5b8c1	0.0809188
88	0x3d7c10e2	0.06153954
89	0x3dcdecb6	0.10054915
90	0xbe5d6d14	-0.21623641
91	0xbcbbe388	-0.022935644
92	0x3b2c5b14	0.0026299404
93	0xbd091893	-0.0334707
94	0xbdf25ce4	-0.11834124
95	0xbe10889f	-0.14114617
96	0x3d9faf1a	0.0779707
97	0x3c58ac35	0.013224651
98	0xbdaa84c1	-0.08326102
99	0xbeba7c7c	-0.364231
100	0xbe4f0537	-0.20216833
101	0x3e8679fe	0.26264948
102	0x3dd3f15f	0.10348772
103	0x3d903f89	0.07043368
104	0x3de1239e	0.109931216
105	0xbe3c4454	-0.1838544
106	0xbec88af1	-0.39168504
107	0xbec61228	-0.38685727
108	0x3cc97180	0.024590254
109	0xbe17bbda	-0.14817753
110	0x3e4bd80e	0.19906637
111	0xbe7a0ed3	-0.24419717
112	0xbd528160	-0.051392913
113	0xbece1567	-0.40250704
114	0xbce583cf	-0.028016953
115	0x3f0c3125	0.5476249
116	0x3eb3760c	0.35051
117	0xbe01991c	-0.12656063
118	0xbe3c9b8f	-0.18418716
119	0x3dca6960	0.0988338
120	0x3d7f8394	0.062381342
121	0x3cd29529	0.02570589
122	0x3e209aa1	0.15683986
123	0x3de1a1ec	0.11017212
124	0x3e154a72	0.1457918
125	0xbd5971ed	-0.053087164
126	0xbc83e635	-0.016100982
127	0xbbdc853c	-0.00672975
128	0xbeb37e75	-0.35057417
129	0x3e6e0abe	0.23246285
130	0x3ea65ea2	0.32494074
131	0x3e112383	0.14173703
132	0x3e08e208	0.13367474
133	0x3e12cd64	0.14336163
134	0xbd13a1fa	-0.036043145
135	0xbd63bd36	-0.055600367
136	0xbd97b4df	-0.07407545
137	0xbd98f671	-0.0746888
138	0x3e31fa50	0.17380643
139	0xbd2e1931	-0.042504493
140	0xbda4c3d0	-0.08045161
141	0x3e38b1f5	0.18036635
142	0xbe5b3a18	-0.2140888
143	0x3dc5bbab	0.096549354
144	0x3eeba366	0.460231
145	0x3e29b927	0.16574536
146	0xbfb962f0	-1.4483318
147	0x3d26818f	0.0406509
148	0x3cff459f	0.031161128
149	0xbb9d3fb1	-0.0047988524
150	0xbd6dc4b8	-0.058048934
151	0x3c1b277a	0.009469861
152	0x3ded1ad5	0.115773834
153	0x3d09e24a	0.03366307
154	0xbcb1cffc	-0.02170562
155	0x3c1e4842	0.009660782
156	0xbe2bee66	-0.1679016
157	0x3d8f7b8d	0.07005987
158	0xbca3cab9	-0.019994127
159	0xbe225540	-0.15852833
160	0x3e0e7f99	0.13915862
161	0xbd3fd43f	-0.046833273
162	0xbd239ade	-0.039942615
163	0x3cc1b109	0.023643987
164	0xbbd2a5d7	-0.006428461
165	0xbcf9b54a	-0.030481953
166	0x3bd2358e	0.0064150756
167	0x3e1d4fd9	0.1536249
168	0xbbf44f33	-0.0074557303
169	0xbd0a46e7	-0.033759024
170	0xbf30651a	-0.6890427
171	0x3e24477b	0.16042893
172	0x3cee0fef	0.029060332
173	0x3eaf17be	0.341978
174	0xb799e84d	-1.8347195e-05
175	0x3d2b0283	0.041750442
176	0x3e3f39e1	0.18674423
177	0xbe4e8f4a	-0.20171848
178	0xbbcd1617	-0.006258737
179	0xbddd3d8b	-0.10802754
180	0x3db8fa19	0.09032077
181	0xbd926cfc	-0.07149693
182	0xbea85764	-0.32879174
183	0xbcaae074	-0.02085898
184	0x3dbaa961	0.09114338
185	0x3d151bec	0.03640358
186	0x3d1e19c1	0.03859878
187	0x3e7e86bd	0.24856086
188	0x3dd9239a	0.106024936
189	0x3e89ad77	0.26890156
190	0x3cb1820d	0.021668458
191	0xbe692fdc	-0.22772163
192	0x3ebd4b2a	0.36971408
193	0x3e90e7b0	0.28301764
194	0x3ee0eed6	0.43932217
195	0x3ddd24a3	0.107980035
196	0x3d5375b2	0.051625915
197	0x3e66cafa	0.22538367
198	0x3e818f0a	0.25304443
199	0x3edf4d18	0.43613505
200	0x3f5141f7	0.8174128
201	0xbd3cd342	-0.04609991
202	0x3ed09d39	0.4074495
203	0xbc828334	-0.015931703
204	0xbdbbb0ff	-0.09164619
205	0x3eb248db	0.3482121
206	0x3c88e907	0.016712679
207	0x3ee66ef0	0.45006514
208	0x3f0f477e	0.55968463
209	0x3eaa7307	0.33290884
210	0x3eb7bfbd	0.35888472
211	0xbe1d6302	-0.153698
212	0x38823985	6.209597e-05
213	0x3dc72b48	0.09725052
214	0xbe221ba6	-0.1583086
215	0xbf52fcf3	-0.8241722
216	0x3e994b25	0.29940143
217	0x3e8e88f0	0.2783885
218	0x3f0aa3be	0.541561
219	0x3e2ac9fb	0.16678612
220	0x3df78d74	0.12087527
221	0x3e80c451	0.25149778
222	0x3e3aea65	0.18253477
223	0x3e868eda	0.26280862
224	0x3f167c5e	0.5878352
225	0x3e9b4cc8	0.30332017
226	0x3e820020	0.2539072
227	0x3ee77138	0.45203567
228	0x3e1920f6	0.1495398
229	0x3e8ec9fd	0.2788848
230	0x3f1a54c3	0.60285586
231	0x3e955db3	0.2917305
232	0x3ea64321	0.3247309
233	0xbddad81f	-0.10685753
234	0x3db70fec	0.08938584
235	0x3e465c5b	0.19371168
236	0xbe4efda0	-0.20213938
237	0x3d67465f	0.056463595
238	0x3cfe05f0	0.03100869
239	0x3c09c80d	0.008409512
240	0xbf008ff2	-0.50219643
241	0xbf0b9efe	-0.5453948
242	0x3f4d2903	0.80140704
243	0x3ea7b2ba	0.32753545
244	0x3ec3efaa	0.38268787
245	0x3ebb5a50	0.3659234
246	0x3e7ae1aa	0.24500147
247	0xbd09a601	-0.03360558
248	0xbe6a8e31	-0.22905804
249	0x3e53f285	0.20697983
250	0x3ec0476f	0.375545
251	0x3ef52fac	0.47887933
252	0x3e5b5ea2	0.21422818
253	0x3e9c0fab	0.30480704
254	0x3f1126a1	0.5669957
255	0x3ebf95dd	0.37419024

block2.conv2.bias f4 [64]
0	0xbe8bbd3b	-0.2729281
1	0xbd620ed5	-0.055189926
2	0x3ea068f7	0.31330082
3	0xbe3f605e	-0.18689105
4	0x3e6387cf	0.22219776
5	0xbea42d80	-0.32065964
6	0x3e3ed6d1	0.18636633
7	0xbe8e62b6	-0.27809685
8	0x3ec64427	0.3872387
9	0x3d96be18	0.07360476
10	0x3e442466	0.1915451
11	0xbe944bd7	-0.2896411
12	0xbe4cae4d	-0.19988365
13	0x3d6614f6	0.056172334
14	0xbed1dcda	-0.4098881
15	0xbebb395a	-0.36567193
16	0xbe97118e	-0.2950558
17	0xbeb743ac	-0.35793817
18	0xbe22f9fa	-0.15915671
19	0x3eb93473	0.36172828
20	0x3e97d781	0.29656604
21	0x3e5b02aa	0.21387735
22	0x3e7bb036	0.24578938
23	0x3e54d8d2	0.20785835
24	0xbe74b2ee	-0.23896381
25	0x3ef2993e	0.4738254
26	0xbdcdee64	-0.10055235
27	0x3e6eb9de	0.2331309
28	0xbd82c421	-0.06385065
29	0x3e91ebd7	0.28500244
30	0x3eb0d0eb	0.34534392
31	0xbebaace6	-0.36460036
32	0x3f20d51c	0.6282518
33	0x3edb0552	0.42777497
34	0x3e0f028f	0.1396582
35	0x3f14ecac	0.5817363
36	0x3ed2b99e	0.4115724
37	0x3da0e7ba	0.07856698
38	0x3ea9c36e	0.33156914
39	0x3f05937f	0.52178186
40	0x3f2d2880	0.67639923
41	0x3dd1c7f5	0.10243217
42	0x3dca7157	0.09884899
43	0x3f21a9de	0.6314982
44	0x3f293b70	0.6610632
45	0x3eee54f3	0.46549186
46	0x3f1c9631	0.61166674
47	0x3f0337b6	0.51256883
48	0x3f36837c	0.7129438
49	0x3eaba587	0.33524725
50	0x3f40996a	0.7523409
51	0x3efae623	0.49003705
52	0x3f443eff	0.76658624
53	0x3ee96c3b	0.45590386
54	0x3f356524	0.70857453
55	0x3f19bfb6	0.6005815
56	0x3efff537	0.49991772
57	0x3e334154	0.1750539
58	0x3f222cc8	0.6334958
59	0x3ebc1a53	0.36738834
60	0x3ed524b7	0.41629574
61	0x3f12dd47	0.5736889
62	0x3f32c06b	0.69824857
63	0x3fa4109e	1.2817571
