Model Training and Evaluation Results/PEMS08/OGCRNN/OGCRNN_best_18.44.pth (torch, 188335 bytes, 5 tensors)

h f4 [170, 170]
0	0xbdba1ef6	-0.090879366
1	0xbf20d05f	-0.6281795
2	0x3d8d2e16	0.06893556
3	0x3e59d18f	0.21271347
4	0x3e086c9a	0.13322678
5	0x3d330a57	0.043711033
6	0x3de1b19b	0.11020204
7	0xbd87a059	-0.06622381
8	0xbe8166dd	-0.2527379
9	0x3e100c43	0.14067177
10	0x3d61b8bc	0.055107817
11	0xbd98aef3	-0.07455244
12	0x3d6a2d69	0.057172213
13	0x3f37e208	0.7182927
14	0x3e801d95	0.2502257
15	0x3e60532b	0.21906726
16	0xbd1f2037	-0.03884908
17	0x3de810b7	0.11331313
18	0x3e0a6dd8	0.13518465
19	0x3de75c92	0.11296953
20	0x3ea2b711	0.31780294
21	0x3e683e75	0.22680075
22	0x3e2ffc99	0.17186202
23	0xbc7fd7d7	-0.015615425
24	0xbe2e3d33	-0.17015533
25	0x3c4ed834	0.012624789
26	0x3e1c96ca	0.15291896
27	0x3d4249ff	0.04743385
28	0x3db353b4	0.087561995
29	0x3e005c24	0.12535149
30	0xbd803440	-0.06259966
31	0x3dc5c4d1	0.096566804
32	0x3df7b65a	0.12095328
33	0xbd74578c	-0.059653804
34	0xbda9f41e	-0.08298515
35	0x3e0a8a4c	0.13529319
36	0xbdbf4c6c	-0.09340748
37	0xbe7ff5c0	-0.2499609
38	0xbe187e71	-0.14891984
39	0x3e79c106	0.24390039
40	0x3d4e1244	0.05031039
41	0x3e954b9a	0.29159242
42	0xbc8b3751	-0.01699415
43	0x3e0810d1	0.13287665
44	0x3dce1629	0.100628205
45	0x3bcde8f6	0.0062838746
46	0x3daf22ac	0.08551535
47	0xbe0a0cac	-0.13481396
48	0x3e1858f5	0.14877684
49	0x3d8725bd	0.06598995
50	0xbdece525	-0.11567143
51	0xbc5f5681	-0.013631464
52	0x3e036005	0.12829597
53	0xbc922b96	-0.017843049
54	0x3e8301f5	0.2558743
55	0x3dab9136	0.08377306
56	0x3f1631f2	0.5866996
57	0x3eee0628	0.46489072
58	0xbdd0f043	-0.10202076
59	0xbe5c21e0	-0.21497297
60	0x3db68623	0.08912303
61	0x3e0ae1c0	0.1356268
62	0xbe4c86a4	-0.19973236
63	0x3e76af34	0.24090272
64	0x3e1b8a53	0.15189485
65	0xbcdd0399	-0.026979255
66	0xbe039345	-0.12849148
67	0xbdeaba40	-0.114613056
68	0x3cba96ed	0.022777045
69	0x3e0291ea	0.12750974
70	0x3b93d369	0.004511286
71	0x3e0629fc	0.13101953
72	0xbc6562d3	-0.014000612
73	0x3e19c5e2	0.15016893
74	0xbd9e77f5	-0.07737724
75	0xbe1f9d3f	-0.15587328
76	0xbc464dc3	-0.012103501
77	0x3db71d5c	0.08941147
78	0x3d059d02	0.032620437
79	0xbe0b3d72	-0.13597658
80	0x3d845ab8	0.06462616
81	0x3d2bdd08	0.04195884
82	0x3dfb8cd4	0.1228272
83	0x3cfe1bcf	0.03101912
84	0x3ddaba9e	0.10680126
85	0xbb830c30	-0.0039992556
86	0x3ddf3537	0.10898822
87	0xbd5d0f09	-0.053969417
88	0xbe15d3f7	-0.1463164
89	0xbdfc957b	-0.12333199
90	0xbc01e024	-0.007926974
91	0xbd6fe9d2	-0.058572598
92	0xbe85d7a5	-0.26141086
93	0xbb4f50ca	-0.0031633847
94	0x3d610780	0.054938793
95	0xbcecd066	-0.028907966
96	0xbe6f31d6	-0.23358855
97	0x3efdf576	0.49601334
98	0xbdc8df69	-0.09808237
99	0x3dfc97dc	0.123336524
100	0xbe925de8	-0.2858727
101	0x3ee17e48	0.44041657
102	0xbe4cdd64	-0.20006329
103	0xbdf2c497	-0.11853903
104	0xbdbea0a2	-0.09307982
105	0xbe309479	-0.17244138
106	0x3da5f976	0.081042215
107	0xbe5e9e98	-0.21740186
108	0xbe92ab89	-0.28646496
109	0xbe7cea08	-0.24698651
110	0xbed5e425	-0.41775623
111	0x3d22251d	0.039586175
112	0xbe03122d	-0.12799902
113	0x3d24274c	0.04007654
114	0xbe16c632	-0.14724043
115	0xbd94d730	-0.07267606
116	0xbd003ec8	-0.031309873
117	0x3e212997	0.15738522
118	0x3c80774b	0.015681883
119	0xbc9cd556	-0.019144695
120	0xbbf9ab50	-0.007619299
121	0x3e349f89	0.17638983
122	0x3dbcd936	0.09221117
123	0x3e0538ed	0.13009997
124	0x3e258ff0	0.16168189
125	0x3e4725ad	0.19447966
126	0xbc4687bd	-0.012117323
127	0x3e02c2d1	0.12769629
128	0x3c3196a7	0.010839141
129	0x3c9cc9d9	0.019139217
130	0xbe177632	-0.14791182
131	0xbcd5647f	-0.026048897
132	0xbe036474	-0.12831289
133	0xbd521e2e	-0.051298313
134	0xbd7d885c	-0.06189762
135	0x3c753ccd	0.014968109
136	0x3df66855	0.120316185
137	0x3f1b0312	0.6055156
138	0x3de9e7f9	0.114211984
139	0xbe4a6707	-0.19765864
140	0xbe85aec6	-0.26109904
141	0x3dd7afcd	0.10531578
142	0x3e0bd262	0.13654473
143	0x3e041120	0.12897158
144	0xbc0f6ac3	-0.008753481
145	0xbe017ada	-0.1264452
146	0xbea3dca1	-0.32004264
147	0xbd8c854b	-0.06861361
148	0xbdaa4efb	-0.083158456
149	0xbe523e97	-0.20531689
150	0x3d2a8592	0.04163129
151	0xbc85614e	-0.01628175
152	0x3e5d943b	0.21638577
153	0x3c92d716	0.017924827
154	0xbd9dc350	-0.077032685
155	0xbd03ce95	-0.032179434
156	0xbd69f4b2	-0.057118125
157	0x3e51c3a1	0.20484783
158	0x3d2c7091	0.04209954
159	0x3e26beda	0.16283742
160	0x3e83b427	0.25723383
161	0x3e6ea909	0.2330667
162	0xbe8ad349	-0.27114323
163	0x3e72f9d3	0.23728113
164	0x3e74b4a3	0.23897032
165	0xbe656016	-0.22399935
166	0xbd93e4ef	-0.072214
167	0x3d9a88fe	0.075456604
168	0x3f23c6fa	0.6397549
169	0xbe528ab5	-0.20560725
170	0x3e48e05a	0.19616833
171	0xbe9b0b7f	-0.30282208
172	0xbdeafe9a	-0.11474343
173	0xbf454915	-0.7706464
174	0x3ea06c85	0.31332794
175	0x3e3b1163	0.18268351
176	0x3e99ac5c	0.30014312
177	0xbd895687	-0.06705957
178	0xbe650df3	-0.22368602
179	0x3ea39890	0.31952333
180	0xbd8ca0ea	-0.068666294
181	0x3dde70c1	0.1086135
182	0x3df7d31b	0.12100812
183	0x3de0dded	0.10979829
184	0x3ea5c172	0.3237415
185	0x3d9925d3	0.074779175
186	0xbe66a512	-0.22523907
187	0x3dd197de	0.102340445
188	0x3e4e4dcf	0.20146869
189	0x3d2a7951	0.041619603
190	0xbd3e6f0e	-0.04649263
191	0x3eb8b969	0.36078957
192	0x3e95ee65	0.29283443
193	0x3ed1215f	0.40845773
194	0xbe7f54ff	-0.24934767
195	0x3eb26338	0.34841323
196	0x3e32e1b1	0.17468907
197	0x3e78084a	0.24221912
198	0x3e39b505	0.1813546
199	0x3d1b0990	0.037850916
200	0x3caac357	0.020845098
201	0xbd92402a	-0.071411446
202	0x3d9e6c17	0.0773546
203	0xbda952d6	-0.08267753
204	0x3dbb0c13	0.09133162
205	0x3d72ab4c	0.059245393
206	0x3e36a0bb	0.17834751
207	0xbe09945b	-0.134355
208	0xbc89c8c5	-0.016819367
209	0x3dfece30	0.12441671
210	0xbdeb39fc	-0.11485669
211	0x3ebf011e	0.3730554
212	0x3eb6ef94	0.3572966
213	0x3e8624d9	0.26199988
214	0x3d076583	0.033055793
215	0x3ece267d	0.4026374
216	0x3e075f57	0.13219963
217	0x3e0f878a	0.14016548
218	0x3e76a284	0.24085432
219	0x3d885fa9	0.06658871
220	0x3d3aa711	0.045569483
221	0x3d28e768	0.04123631
222	0x3e8730e8	0.264045
223	0x3e0674f4	0.13130552
224	0x3d3e16a6	0.046408318
225	0x3dd9231c	0.106024
226	0x3dad060d	0.0844842
227	0xbc79d6a5	-0.015248929
228	0xbd263a62	-0.040583022
229	0xbdeeeaa4	-0.11665848
230	0xbd802006	-0.06256108
231	0x3e903818	0.28167796
232	0xbeb5afbd	-0.3548564
233	0x3e8caa7f	0.27473828
234	0x3dae4599	0.085093684
235	0xbe71ef8d	-0.23626538
236	0xbcd1b81a	-0.025600482
237	0xbdc295d7	-0.09501236
238	0xbe0e9a2a	-0.13925996
239	0x3e848888	0.25885415
240	0x3db6b7c1	0.08921767
241	0xbd3aa457	-0.045566883
242	0xbe939235	-0.28822485
243	0xbd967a4b	-0.07347544
244	0x3dc00078	0.093750894
245	0x3d88bdc7	0.06676822
246	0xbd024627	-0.031805184
247	0x3cfb4122	0.030670706
248	0xbd8b158f	-0.06791221
249	0xbe7ecdb4	-0.24883157
250	0x3e70626b	0.23475043
251	0x3d591da2	0.053006776
252	0x3e49194c	0.19638556
253	0xbc986cef	-0.018606631
254	0x3df290d8	0.11844033
255	0xbdb56e80	-0.08858967

block1.gcn_conv.conv1.weight f4 [128, 99, 1]
0	0xbec1be19	-0.37840346
1	0xbe75f902	-0.2402077
2	0x3e85278b	0.2600673
3	0xbf8a0da2	-1.078541
4	0xbf464330	-0.7744627
5	0xbefc55c6	-0.4928419
6	0x3fe567bf	1.7922286
7	0x3e7b8f6e	0.24566433
8	0xbe1db063	-0.15399317
9	0x3fc93d94	1.5721917
10	0x3eda8547	0.42679808
11	0x3d7e052e	0.06201666
12	0x3f76dad2	0.96427643
13	0xbd3bd17b	-0.045854073
14	0xbe2e676f	-0.17031644
15	0x3e62394a	0.22092167
16	0x3e06ecf9	0.13176335
17	0x3ca7a951	0.020466479
18	0xbe9b3419	-0.30313185
19	0xbe59160f	-0.21199821
20	0xbe02777e	-0.12740895
21	0xbc483f05	-0.012222056
22	0x3e900584	0.28129208
23	0x3e049580	0.12947655
24	0xbfb79dd7	-1.4345044
25	0xbed5a3c2	-0.417265
26	0xbdd09a24	-0.1018565
27	0xbfae1345	-1.359963
28	0xbf3ccb4e	-0.7374772
29	0xbe69a692	-0.22817448
30	0x3e77fa94	0.24216682
31	0x3dc52ca8	0.09627658
32	0x3e0dd06a	0.13849035
33	0xbe6c15d6	-0.23055205
34	0x3c280f88	0.010257609
35	0x3cc9934b	0.024606368
36	0xbd721e64	-0.059111014
37	0xbd730fcd	-0.05934124
38	0xbc726747	-0.014795131
39	0x3f82586b	1.0183233
40	0x3dfdbd57	0.12389629
41	0xbcd0e09b	-0.025497725
42	0x3ce97ee5	0.02850289
43	0x3e5f24e1	0.21791412
44	0x3e3a9e0f	0.18224357
45	0x3ee8dd38	0.45481277
46	0x3e682566	0.22670516
47	0x3ea4f13a	0.3221529
48	0xbed8e13d	-0.42359343
49	0x3cf3e69a	0.029773045
50	0x3c9bd58f	0.019022731
51	0x3f84d762	1.037823
52	0x3f390b5c	0.7228296
53	0x3edd1a26	0.43184012
54	0xbf4c9df2	-0.79928505
55	0xbef1aede	-0.47203726
56	0xbec16600	-0.37773132
57	0x3ceb8700	0.028750896
58	0xbe7ec769	-0.24880756
59	0xbf0485fb	-0.5176694
60	0x3f14c218	0.58108664
61	0xbcebb107	-0.028770937
62	0xbea21a56	-0.31660718
63	0x3dc841ba	0.09778161
64	0x3eda4e8e	0.42638057
65	0x3f2c3f7d	0.67284375
66	0x3c93891c	0.018009715
67	0x3eb292a1	0.34877494
68	0x3e64d99d	0.22348638
69	0x3e328a33	0.17435531
70	0xbdbde57c	-0.09272286
71	0xbef66dd2	-0.4813066
72	0x3ec433b5	0.383207
73	0xbdf5ff6b	-0.12011608
74	0xbeb89f30	-0.3605895
75	0xbec8711e	-0.39148802
76	0x3e62c2e0	0.22144651
77	0x3eb49539	0.35270098
78	0x3f26b2cf	0.6511659
79	0x3ea5001d	0.3222665
80	0x3dd3d6f7	0.10343736
81	0xbe8dfd2a	-0.2773221
82	0x3e148ffb	0.14508049
83	0x3ec5dd7b	0.3864554
84	0x3f1b812f	0.60743994
85	0xbe9533f7	-0.2914121
86	0xbe987e58	-0.29783893
87	0x3e761ac7	0.24033652
88	0xbe40a8b8	-0.18814361
89	0xbea54b8e	-0.32284206
90	0xbeb9b969	-0.3627427
91	0x3d7a5609	0.061117206
92	0x3e7cf46f	0.24702619
93	0xbf54e447	-0.83160824
94	0xbd9966ab	-0.074902855
95	0x3e1fe2de	0.15613887
96	0xbf24ad09	-0.6432653
97	0xbd4fe1ec	-0.050752565
98	0xbd949184	-0.072543174
99	0x3e955179	0.2916372
100	0x3edd8669	0.4326661
101	0x3e5b0736	0.2138947
102	0xbeb242eb	-0.3481668
103	0xbe3b7d47	-0.18309508
104	0xbed588bb	-0.4170588
105	0x3eba4a32	0.36384732
106	0x3e3c0d61	0.18364479
107	0xbe28f2f0	-0.16498923
108	0x3eaf1897	0.34198448
109	0x3e167bc0	0.14695644
110	0x3d884cd9	0.066552825
111	0x3e9eb95e	0.310008
112	0xbb92473a	-0.0044640573
113	0xbe5b2068	-0.21399081
114	0xbf29c914	-0.66322446
115	0x3d851410	0.06497967
116	0x3c663f39	0.014053159
117	0x3d9a1db7	0.07525199
118	0xbc95d420	-0.018289626
119	0xbdae4aa9	-0.08510334
120	0xbe431162	-0.190496
121	0x3de1d0d3	0.11026158
122	0x3d208c51	0.039196316
123	0xbd96e779	-0.07368369
124	0x3c71ea53	0.01476534
125	0xbe1caa71	-0.15299393
126	0xbea5dc53	-0.32394657
127	0xbec76f0e	-0.38951916
128	0xbe9811b8	-0.29701018
129	0xbe32d8e7	-0.17465554
130	0x3dd0a5c5	0.10187868
131	0x3e1516b5	0.14559443
132	0x3d7d0e1e	0.06178104
133	0xbdba0320	-0.09082627
134	0x3e26f0f2	0.16302851
135	0x3d1e1e2f	0.038603004
136	0xbdb33b18	-0.087515056
137	0x3d47f3d9	0.048816536
138	0xbeabb5f1	-0.33537248
139	0xbd14b337	-0.036303725
140	0x3dfc81a1	0.12329412
141	0x3f148596	0.58016336
142	0xbb51bfe0	-0.0032005236
143	0xbee48868	-0.4463532
144	0x3ea7b6b7	0.32756588
145	0x3e8aee77	0.2713506
146	0x3ec3403d	0.38134947
147	0x3d9df14b	0.077120386
148	0x3e32b2cf	0.17451023
149	0x3be29932	0.006915235
150	0x3eba8174	0.3642689
151	0x3ea9b8bc	0.33148754
152	0x3ea3167e	0.31853098
153	0xbdffbbc8	-0.12486988
154	0xbe18a7e6	-0.14907798
155	0xbe8d96dd	-0.27654162
156	0x3d1c4d9d	0.038159955
157	0x3a290165	0.0006447046
158	0xbe4a3a84	-0.19748884
159	0x3d693fe1	0.056945685
160	0xbd9fa872	-0.077958
161	0x3b105a22	0.002202638
162	0xbdcf3e06	-0.10119252
163	0x3df7a6ac	0.12092337
164	0x3e862790	0.2620206
165	0x3ce25996	0.027630609
166	0x3d9a1a05	0.07524494
167	0x3e96808b	0.29394946
168	0xbd265de7	-0.040616896
169	0xbdf1a44a	-0.11798914
170	0xbdbeceed	-0.09316812
171	0x3ec062c6	0.37575358
172	0x3dfefb05	0.12450222
173	0xbd87cd8a	-0.06631
174	0xbd87ed67	-0.06637078
175	0x3d124567	0.03571072
176	0x3e56652b	0.2093703
177	0x3bb73824	0.0055914093
178	0xbdaa4f6f	-0.08315932
179	0x3e3d6f40	0.1849947
180	0xbf1eed4b	-0.6208083
181	0xbe3edc04	-0.18638617
182	0x3e80a9e8	0.25129628
183	0xbea46817	-0.32110664
184	0xbe9180de	-0.2841863
185	0x3d3436ad	0.043997455
186	0xbdf444f0	-0.11927211
187	0xbe09d415	-0.13459809
188	0xbe2e184a	-0.17001453
189	0xbdf7df7e	-0.121031746
190	0x3d40b0fc	0.047043785
191	0xbe4e657e	-0.20155904
192	0xbe24a786	-0.1607953
193	0xba5ba1ca	-0.00083782955
194	0x3c16238d	0.009163749
195	0xbdc1a22a	-0.094547585
196	0x3df355de	0.11881612
197	0x3cb62428	0.022234038
198	0xbe2b10a0	-0.1670556
199	0x3d3e9d3a	0.04653666
200	0x3e489fea	0.19592252
201	0xbf2d2133	-0.67628783
202	0xbdadc375	-0.08484546
203	0xbd5f382c	-0.05449693
204	0x3ef34bc5	0.47518745
205	0x3f01ebf5	0.50750667
206	0x3d4e869c	0.050421342
207	0x3ea25295	0.3170363
208	0x3e4f49f4	0.20243055
209	0x3da0faf2	0.07860364
210	0x3f92b8ea	1.1462681
211	0x3e90ef52	0.28307587
212	0xbc09e43e	-0.008416234
213	0xbf24fa3d	-0.64444333
214	0x3ee71890	0.45135927
215	0x3e47a2bd	0.19495673
216	0xbe8de355	-0.27712503
217	0xbd9c5324	-0.07633045
218	0xbcee9138	-0.02912198
219	0xbe9e901d	-0.30969325
220	0x3f04d3ee	0.5188588
221	0x3eb96d6d	0.36216298
222	0xbf095792	-0.53649247
223	0xbed1c89c	-0.40973365
224	0x3c7f0ccb	0.015567015
225	0xbf948dbb	-1.1605753
226	0xbe874f99	-0.26427916
227	0x3ecf428a	0.40480453
228	0xbeb0f3e3	-0.3456107
229	0x3e0637df	0.1310725
230	0xbe5c10db	-0.21490805
231	0x3f2893fc	0.65850806
232	0xbde47fc8	-0.11157185
233	0xbd308aa2	-0.04310096
234	0x3ef84228	0.48487973
235	0x3f4b3070	0.79370785
236	0x3f0179e9	0.50576645
237	0x3f97a1c2	1.184624
238	0x3f0349c7	0.5128445
239	0x3e16d785	0.14730652
240	0xbf948686	-1.1603553
241	0xbe99eae3	-0.30062017
242	0xbd753b82	-0.059871204
243	0x3e8a1fe3	0.26977453
244	0xbe1275e5	-0.14302786
245	0x3c312c29	0.010813751
246	0xbf7abf3a	-0.9794804
247	0xbf1c24ef	-0.60993856
248	0xbeebac99	-0.4603012
249	0x3f2d59e5	0.67715293
250	0x3e907a3c	0.28218257
251	0x3e375d5c	0.17906708
252	0xbfade08f	-1.3584155
253	0xbe2fb312	-0.17158154
254	0xbe8fc53e	-0.2808017
255	0xbf1818de	-0.59412944

block1.gcn_conv.conv1.bias f4 [128]
0	0x3f4d6a90	0.80240726
1	0x3ded29d9	0.115802474
2	0xbccbafba	-0.024864066
3	0x3ecba512	0.39774376
4	0x3e593d86	0.21214876
5	0x3e0c1c1c	0.13682598
6	0xbc509e8c	-0.012733113
7	0x3f178735	0.59190685
8	0x3f2b4863	0.6690733
9	0x3de95d64	0.11394766
10	0xbc868529	-0.016420918
11	0x3d8352f1	0.06412304
12	0x3fb0521b	1.3775057
13	0x3e324e1b	0.17412607
14	0x3f41effc	0.7575681
15	0x3f2e5f9a	0.68114626
16	0x3ed7804c	0.4209007
17	0x3e9413c0	0.28921318
18	0x3e489b00	0.19590378
19	0x3dd38cb5	0.10329572
20	0xbef29f65	-0.47387233
21	0xbf466686	-0.7750019
22	0x3f2024a9	0.6255594
23	0xbdd7dad2	-0.105397835
24	0xbe51c804	-0.20486456
25	0x3ecde227	0.40211603
26	0x3e8d9ad8	0.276572
27	0x3fbda39e	1.4815557
28	0x3f16906d	0.58814126
29	0x3f143c6d	0.579047
30	0x3ea3945d	0.3194913
31	0x3f777160	0.9665737
32	0xbf52ad87	-0.8229603
33	0x3db87058	0.09005803
34	0x3d32aae1	0.043619994
35	0x3ecc9ced	0.39963475
36	0x3e44030e	0.1914179
37	0x3d72c9b4	0.05927439
38	0x3e274e90	0.16338563
39	0xbf5a52e7	-0.8528275
40	0xbf2b64c5	-0.6695064
41	0x3e4cd9a4	0.20004898
42	0xbcbdfe7f	-0.023192642
43	0x3e0b178b	0.135832
44	0x3faa5a30	1.3308773
45	0xbf2db9eb	-0.67861813
46	0xbed91542	-0.4239903
47	0xbf11b6d2	-0.56919587
48	0x3ed4f752	0.4159494
49	0xbee02137	-0.4377534
50	0x3ebfe663	0.3748046
51	0x3eb8c1c6	0.36085337
52	0xbeeddc95	-0.46457353
53	0xbe5e20d3	-0.21692209
54	0x3f12a2e8	0.57279825
55	0x3eb38749	0.35064152
56	0x3e1a29e8	0.15055048
57	0x3f148218	0.5801101
58	0xbe858da6	-0.26084632
59	0x3f964730	1.1740475
60	0x3f06c81f	0.5264911
61	0xbe3ad225	-0.18244226
62	0xbf05359d	-0.5203493
63	0xbf169c41	-0.58832175
64	0x3f6219fd	0.88320905
65	0x3f88bd7c	1.0682826
66	0x3f04ca5c	0.51871276
67	0x3d850c0a	0.06496437
68	0x3d47d337	0.048785415
69	0x3e32fb6d	0.17478724
70	0x3cd1ced2	0.025611315
71	0x3e7de1ff	0.24793242
72	0x3ecd6375	0.40114942
73	0x3ea2078b	0.3164638
74	0xbe56ac4e	-0.20964167
75	0x3bd44f90	0.006479211
76	0x3e1f9dd8	0.15587556
77	0xbe5954f4	-0.21223813
78	0x3e94861c	0.29008567
79	0x3e97d053	0.29651126
80	0x3f1bfde3	0.60934275
81	0x3f511c5f	0.81683916
82	0x3e05411b	0.13013117
83	0x3f32ea54	0.69888806
84	0x3e250042	0.1611338
85	0xbe2c26de	-0.16811702
86	0x3d7d11d5	0.061784584
87	0xbcbef7e0	-0.023311555
88	0x3e565c52	0.20933655
89	0x3e0bcb90	0.13651872
90	0x3e8d738b	0.27627215
91	0x3e35276e	0.17690822
92	0x3e708ee9	0.23492016
93	0x3e779b80	0.24180412
94	0x3e979e67	0.2961304
95	0x3ee52a1f	0.44758698
96	0x3f430be0	0.76189995
97	0x3f2a22c5	0.66459304
98	0x3e9b83a0	0.3037386
99	0x3e762ce3	0.2404056
100	0x3e3550dd	0.17706628
101	0x3ef1e8e5	0.47247997
102	0x3e2f47e9	0.17117275
103	0x3ebca7e7	0.3684685
104	0x3f1228d1	0.5709353
105	0x3e464b40	0.19364643
106	0x3e8fe0cf	0.28101203
107	0x3ca44b9e	0.020055588
108	0x3eca6e96	0.39537495
109	0x3e1859c2	0.1487799
110	0x3efd9668	0.49528813
111	0x3f305f89	0.68895775
112	0x3f066e35	0.5251191
113	0x3f112e81	0.56711584
114	0x3e982310	0.2971425
115	0x3f2c97c8	0.674191
116	0x3ed30192	0.41212136
117	0xbe1d7e83	-0.15380292
118	0x3f1bc7d1	0.6085177
119	0x3e75b223	0.23993735
120	0x3d5e598a	0.05428461
121	0x3ee43eec	0.44579256
122	0xbdabc4d0	-0.083871484
123	0x3efc1567	0.4923508
124	0x3ea3d75d	0.32000247
125	0x3f060c31	0.5236235
126	0x3ee6903b	0.45031914
127	0x3f272f16	0.6530622

conv1.weight f4 [12, 32, 1, 12]
0	0xc0358830	-2.8364372
1	0xbfeac3e5	-1.8341032
2	0xbfb96f8d	-1.4487168
3	0xbfaf196b	-1.3679632
4	0xbfaa4248	-1.3301477
5	0xbfc32156	-1.5244548
6	0xbfd78070	-1.6836071
7	0xbfda8f44	-1.7074971
8	0xbfdb0707	-1.711152
9	0xbfc1f9c9	-1.5154353
10	0xbfb5ccdf	-1.4203147
11	0xbfae9039	-1.3637763
12	0x4048477f	3.1293638
13	0x4004fdf3	2.0779998
14	0x3fb3d3d9	1.4049026
15	0x3f91782d	1.13648
16	0x3fb255be	1.3932416
17	0x3fe351d9	1.7759353
18	0x4009c873	2.1528594
19	0x40152cfe	2.330871
20	0x401afa69	2.4215338
21	0x40180659	2.3753874
22	0x401855a4	2.380227
23	0x4024db1d	2.5758736
24	0x403e7d56	2.9764
25	0x3ffe42b6	1.9864109
26	0x3fd2b220	1.646061
27	0x3fc42ef0	1.5326824
28	0x3fdb2042	1.7119219
29	0x4002cbf8	2.0436993
30	0x40107f58	2.2577724
31	0x4017d919	2.3726256
32	0x40234e32	2.5516477
33	0x40232e3d	2.5496972
34	0x40206b95	2.5065663
35	0x4029df31	2.6542475
36	0x404de84c	3.2173033
37	0x40120429	2.281504
38	0x3fde090b	1.734651
39	0x3fbade55	1.45991
40	0x3fc15e98	1.5106993
41	0x3fa5e640	1.2960892
42	0x3f9f8008	1.2460947
43	0x3f83fd03	1.0311588
44	0x3f57dc74	0.8432076
45	0x3f3a91e3	0.72878855
46	0x3f2878e8	0.6580949
47	0x3eee5bd4	0.46554434
48	0x401de0ba	2.4668412
49	0x3fc6fec1	1.5546495
50	0x3f38a3ba	0.72124827
51	0x3ede045d	0.43362704
52	0x3f60aaeb	0.877608
53	0x3fc9a027	1.5752
54	0x3ff077e2	1.8786585
55	0x40121f30	2.2831535
56	0x401c557b	2.4427173
57	0x401f1c2d	2.4860947
58	0x400ff406	2.249269
59	0x4010db40	2.263382
60	0x402c198d	2.6890595
61	0x400eb665	2.2298825
62	0x40040d0e	2.0632968
63	0x3ff2228b	1.8916792
64	0x4000b9af	2.0113332
65	0x3ff855e0	1.9401207
66	0x3ffc3d50	1.9706211
67	0x3ff5d7d3	1.9206489
68	0x3fd53c37	1.6659001
69	0x3fc4ce20	1.5375404
70	0x3fb5a7e6	1.4191864
71	0x3fc075c1	1.5035936
72	0x4039188c	2.8921232
73	0x4024795c	2.5699072
74	0x4017fe9a	2.3749146
75	0x3fcd425f	1.603588
76	0x3f3e05a5	0.7422736
77	0x3fa159b6	1.2605503
78	0x3fd270d5	1.6440684
79	0x3fe976da	1.8239396
80	0x3fe68f4f	1.8012484
81	0x3fcbf35d	1.5933644
82	0x3fc28468	1.5196657
83	0x40008efa	2.0087266
84	0xc029291e	-2.6431346
85	0xbff5bbcb	-1.9197935
86	0xbfae670a	-1.3625195
87	0xbfa19c6b	-1.262586
88	0xbfaa1bfa	-1.3289788
89	0xbfc0252b	-1.5011343
90	0xbfd8dfe2	-1.6943324
91	0xbfe476be	-1.7848737
92	0xbfebacfa	-1.8412163
93	0xbfd2e856	-1.6477153
94	0xbfddaf16	-1.7319057
95	0xbff53b43	-1.915871
96	0xc03304d6	-2.7971702
97	0xbffc4caf	-1.9710902
98	0xbfd6a052	-1.6767676
99	0xbfb6f06e	-1.4292123
100	0xbfb1f9e0	-1.3904381
101	0xbfa25980	-1.2683563
102	0xbfb08fd5	-1.3793894
103	0xbf9a3719	-1.2048064
104	0xbf8b2bc5	-1.0872732
105	0xbf92dc9f	-1.1473578
106	0xbfc43a32	-1.533026
107	0xc00133b1	-2.01878
108	0x402b35b0	2.6751518
109	0x400f100e	2.235355
110	0x3fd1efcb	1.6401304
111	0x3fe1b7fc	1.7634273
112	0x3fede9cc	1.8586974
113	0x3ffa5cdd	1.955959
114	0x40059f24	2.0878382
115	0x400f7825	2.241708
116	0x401b2fbf	2.4247892
117	0x401e74ab	2.4758708
118	0x402cc074	2.6992464
119	0x4042bc77	3.042753
120	0xc024f3c6	-2.5773787
121	0xbfdbfe4a	-1.7186978
122	0xbf827f01	-1.0195009
123	0xbf22a17e	-0.6352767
124	0xbf23edae	-0.64034545
125	0xbf9cee76	-1.2260273
126	0xbfd41d76	-1.6571491
127	0xc00d4298	-2.2071896
128	0xc01d6b2f	-2.459667
129	0xc0471209	-3.1104758
130	0xc0634394	-3.5509996
131	0xc0cf66f7	-6.481319
132	0xc019ab3f	-2.401077
133	0xc041074e	-3.0160708
134	0xc024a793	-2.572728
135	0xc01bba04	-2.4332285
136	0xc00e71ea	-2.2257028
137	0xc01d99d7	-2.4625146
138	0xc041492b	-3.0200908
139	0xc07094d5	-3.759084
140	0xc0a37070	-5.1074753
141	0xc0af94a3	-5.486894
142	0xc0a939ab	-5.2882895
143	0xc0fb6478	-7.8560143
144	0x401e48f1	2.473202
145	0x400c0ed9	2.1884062
146	0x4015c099	2.3398802
147	0x4046e1f2	3.1075406
148	0x4084795c	4.1398144
149	0x40673c8a	3.61307
150	0x40185676	2.3802772
151	0x3ff7be42	1.9354937
152	0x4032d785	2.7944043
153	0x4038c39b	2.8869388
154	0x403bd5a7	2.9349153
155	0x406e36f1	3.7221034
156	0x4038bc3f	2.8864896
157	0x3ff15fe6	1.8857391
158	0x3f8c03ce	1.0938661
159	0x3fea6411	1.8311788
160	0x3fb7449f	1.4317816
161	0x3fb9389e	1.4470403
162	0x3f7d4fbf	0.9894981
163	0x3f68894e	0.9083451
164	0x3f5f0fe2	0.8713361
165	0x3f85bdb4	1.0448518
166	0x3fe39165	1.7778746
167	0x40aa20ca	5.3165026
168	0xc035b040	-2.8388824
169	0xc010d713	-2.263127
170	0xbff8d899	-1.94411
171	0xbfe2a31f	-1.7706031
172	0xbfe2096f	-1.7659129
173	0xbfd1157b	-1.633468
174	0xbfc35cdb	-1.5262712
175	0xbfbd8fec	-1.4809546
176	0xbfcf3801	-1.6188966
177	0xbfd8ce63	-1.6937984
178	0xbfdecc6a	-1.7406132
179	0xbfc849c9	-1.5647517
180	0xc020ef6b	-2.514613
181	0xc0056971	-2.0845606
182	0xbff3226d	-1.8994881
183	0xbfe22986	-1.7668922
184	0xbfc35481	-1.5260164
185	0xbfbcf22d	-1.4761406
186	0xbfb11d34	-1.3837037
187	0xbfb65cdb	-1.4247087
188	0xbfa6f825	-1.3044478
189	0xbfa468b6	-1.2844455
190	0xbf8f5298	-1.1197081
191	0xbf90cbae	-1.1312158
192	0x404aea38	3.1705456
193	0x3ff98875	1.9494768
194	0x3fc8fac4	1.5701528
195	0x3fc874dd	1.5660664
196	0x3fb9be63	1.4511226
197	0x3faeed79	1.3666221
198	0x3fad94cd	1.3561035
199	0x3fa7a5eb	1.3097509
200	0x3fb3ad6a	1.4037297
201	0x3fca7c1e	1.5819128
202	0x3fd908f3	1.6955856
203	0x3fd3eb9f	1.6556281
204	0xc03605f3	-2.844113
205	0xbfff2ec6	-1.9936149
206	0xbfd70013	-1.6796898
207	0xbfd0a7fc	-1.6301265
208	0xbfc71f74	-1.5556474
209	0xbfce809d	-1.6133
210	0xbfccfa07	-1.6013802
211	0xbfc4ae0e	-1.5365617
212	0xbfced17d	-1.6157681
213	0xbfd52a27	-1.6653489
214	0xbfd6a8b5	-1.6770235
215	0xbfdfa0bc	-1.7470927
216	0x3ffaf0c0	1.9604721
217	0x3fde24c9	1.7354976
218	0x3fa966a9	1.3234454
219	0x3f82e121	1.0224954
220	0x3f820ff6	1.0161121
221	0x3f90bba7	1.1307267
222	0x3f8c2611	1.0949117
223	0x3f9529c5	1.1653372
224	0x3fb1855a	1.3868821
225	0x3fa8372d	1.3141838
226	0x3f8b8384	1.089951
227	0x3f7471d1	0.9548617
228	0x4034a39b	2.8224857
229	0x3ff68263	1.9258541
230	0x3fd5f1ab	1.6714376
231	0x3fce6aa3	1.6126293
232	0x3fd40146	1.6562889
233	0x3fe1f0c3	1.76516
234	0x3fe8f343	1.8199238
235	0x3ff138cf	1.8845462
236	0x3fed06f8	1.8517752
237	0x3ff0aab9	1.88021
238	0x3fe3223f	1.7744826
239	0x3fe0cae5	1.7561918
240	0xc0339226	-2.8057952
241	0xc0212edf	-2.5184858
242	0xbfc1d6df	-1.5143698
243	0xbfb65145	-1.4243551
244	0xbfb15f05	-1.3857123
245	0xbfa56adb	-1.2923235
246	0xbfa51d3a	-1.2899544
247	0xbfb8547b	-1.4400781
248	0xbfdee7ea	-1.7414525
249	0xbfeb5022	-1.838383
250	0xbff6a08c	-1.9267745
251	0xbfff7e7d	-1.9960476
252	0xc04a3ad4	-3.1598406
253	0xc02dd812	-2.716313
254	0xc00b9f80	-2.18161
255	0xbff6b6b8	-1.9274511

conv1.bias f4 [12]
0	0x3fa9407b	1.3222803
1	0x3fa7584a	1.3073819
2	0x3fa3674a	1.2765896
3	0x3fa41c31	1.2821103
4	0x3fa2dc53	1.2723488
5	0x3f9d504c	1.229013
6	0x3fa23fc6	1.2675712
7	0x3fa4384b	1.2829679
8	0x3fa2c63d	1.2716748
9	0x3fa83b9a	1.3143189
10	0x3fb23308	1.3921824
11	0x3fac410a	1.3457348
