Model Training and Evaluation Results/PEMS08/GRU/GRU_best_22.06.pth (torch, 33671 bytes, 6 tensors)

gru.weight_ih_l0 f4 [96, 1]
0	0x3f671b1d	0.90275747
1	0xbc4246b4	-0.011857677
2	0x3e723ad3	0.23655252
3	0x3e569cb5	0.20958216
4	0xbc16bfa8	-0.009200968
5	0x3dda9733	0.1067337
6	0xbc538b14	-0.012911577
7	0x3e1a14b7	0.15046965
8	0x3d96b233	0.073582076
9	0xbc9fab87	-0.01949097
10	0x3dc550c4	0.096345454
11	0x3e4f5ee8	0.20251048
12	0x3e092aa9	0.1339518
13	0x3dc78091	0.09741319
14	0x3dd53ef3	0.10412397
15	0x3e9942a0	0.29933643
16	0x3dacd62e	0.08439289
17	0x3d868ee9	0.06570227
18	0x3df05c2a	0.11736329
19	0x3f079b01	0.5297089
20	0xbc527439	-0.012845092
21	0xb99368df	-0.0002811616
22	0xbdd7a07f	-0.10528659
23	0xbcb15447	-0.021646632
24	0x3f0fa98e	0.56118095
25	0x3d21a639	0.039465163
26	0x3d8f6b16	0.07002847
27	0x3f08b962	0.5340787
28	0xbd02dbc4	-0.031947866
29	0x3f7a9573	0.9788429
30	0x3e5c0c04	0.21488959
31	0x3edf8e12	0.4366308
32	0xbd3df847	-0.046379354
33	0xbd30ad1f	-0.04313385
34	0xbc45b866	-0.01206789
35	0xbc6f6562	-0.014611574
36	0xbd51af78	-0.05119273
37	0xbd6a16c4	-0.057150617
38	0xbdc07c45	-0.093987025
39	0xbd8d6532	-0.06904067
40	0xbe643a84	-0.22287947
41	0xbd360964	-0.04444255
42	0xbf208927	-0.6270928
43	0xbd8b2bf5	-0.067954935
44	0xbd37eb51	-0.04490215
45	0xbcbf095a	-0.023319889
46	0xbc55e3f4	-0.013054837
47	0xbe03b9a1	-0.1286378
48	0xbc29dbbc	-0.01036733
49	0xbc213f53	-0.009841758
50	0xbc099f6b	-0.008399825
51	0xbd0e34a3	-0.034718167
52	0xbcc47959	-0.023983644
53	0xbc36d407	-0.01115895
54	0xbdeee48b	-0.11664685
55	0xbe858654	-0.26079047
56	0xbbb6bb36	-0.0055765165
57	0xbc36824e	-0.0111394655
58	0xbd147c90	-0.036251605
59	0xbc20318c	-0.009777438
60	0xbd2f3e38	-0.042783946
61	0xbd977f3c	-0.07397315
62	0xbcca148d	-0.024668003
63	0xbe3a4d30	-0.18193507
64	0xbd1cfdc1	-0.038327936
65	0xbcddc20c	-0.027070068
66	0xbcda012a	-0.026611883
67	0x3b77a805	0.0037789356
68	0xbc9eab34	-0.019368745
69	0xbcf36732	-0.029712293
70	0x3d0083f5	0.031375844
71	0xbca7593e	-0.020428296
72	0x3d073bf0	0.033016145
73	0x3d02e363	0.031955134
74	0x3d0f1fd8	0.034942478
75	0x3d835f6f	0.06414687
76	0x3cdab45a	0.026697326
77	0x3cbb02a1	0.022828402
78	0xbc5e6395	-0.013573547
79	0x3e93d917	0.28876564
80	0xbc481d37	-0.012213997
81	0x3b147d41	0.0022657665
82	0x3c8445b1	0.016146513
83	0xbd2941cc	-0.041322514
84	0x3ce228b6	0.027607303
85	0xbd59ed1c	-0.05320464
86	0xbe29afea	-0.16571012
87	0x3cd9b9ce	0.026577856
88	0xbc1e1e6d	-0.009650809
89	0x3cc9b162	0.024620716
90	0x3cd0b9b0	0.025479168
91	0xbd1f7bd5	-0.038936455
92	0x3d0df5b9	0.034658168
93	0x3d0dffce	0.034667782
94	0xbcea8f31	-0.028632732
95	0xbce8092d	-0.028324688

gru.weight_hh_l0 f4 [96, 32]
0	0x3f026b47	0.5094494
1	0x3cf110c6	0.029426944
2	0x3ed4ac4e	0.41537708
3	0xbf20ab56	-0.6276144
4	0x3f30b215	0.6902173
5	0x3ee074d9	0.43839148
6	0xbdce9914	-0.10087791
7	0xbf24837f	-0.6426315
8	0xbeb26915	-0.34845796
9	0xbf7f6faa	-0.9977976
10	0xbe3cfa65	-0.18454893
11	0xbeddba06	-0.43305987
12	0x3ede3e31	0.43406823
13	0x3ef01f5d	0.46898928
14	0xbca43d37	-0.02004872
15	0xbe8540c3	-0.26025972
16	0xbf4cc21b	-0.7998368
17	0x3e914af2	0.2837749
18	0xbfd8bbc2	-1.6932299
19	0x3ea9a966	0.33137053
20	0xbf8878c8	-1.066186
21	0x3e1888dc	0.14895958
22	0xbe7a68d6	-0.24454054
23	0xbe91684b	-0.28399882
24	0x3fb4324c	1.4077849
25	0xbf9ca3d0	-1.2237492
26	0xbd989911	-0.0745107
27	0x3f6716dd	0.9026926
28	0x3c23a0bb	0.009987052
29	0xbe83ff07	-0.25780508
30	0x3eb02748	0.3440497
31	0xbdd0ca85	-0.101948775
32	0xbe5bbd3d	-0.21458907
33	0xbe911f8f	-0.2834439
34	0xbf1006c8	-0.5626035
35	0x3f6179b5	0.88076335
36	0x3f81b9b6	1.01348
37	0x3da12d4c	0.07869968
38	0xbf161053	-0.5861866
39	0x3e8bc9c3	0.2730237
40	0x3d7b85e8	0.061407
41	0x3ed051f2	0.4068752
42	0xbe76cbb8	-0.2410115
43	0x3e2721cc	0.16321486
44	0xbe3b123c	-0.18268675
45	0xbd3c7ca6	-0.04601731
46	0x3ec2fac2	0.38081938
47	0x3ec039d4	0.3754412
48	0x3f8e137a	1.1099694
49	0xbf843160	-1.0327568
50	0x3f4291d4	0.76003766
51	0xbe94aecc	-0.2903961
52	0x3e0835dc	0.13301796
53	0xbf194f4c	-0.5988662
54	0xbecb2c3d	-0.3968219
55	0xbd600144	-0.054688707
56	0xbf8ea95f	-1.1145438
57	0x3f9c6851	1.2219335
58	0xbcc19636	-0.023631196
59	0xbed4e25c	-0.41578948
60	0x3ebe8e33	0.37217864
61	0x3d8f0b52	0.06984581
62	0x3e42c4db	0.19020407
63	0xbebef410	-0.3729558
64	0xbacaceac	-0.001547297
65	0xbf289d6c	-0.65865207
66	0xbe5724ef	-0.21010183
67	0x3eb1b5b8	0.34708953
68	0x3e0078e8	0.12546122
69	0x3eb5fe9a	0.35545808
70	0x3d4b1604	0.049581543
71	0xbca16789	-0.01970269
72	0x3e21a4af	0.15785478
73	0xbe2fb181	-0.17157556
74	0xbf07318a	-0.52809966
75	0x3da909e8	0.082538426
76	0x3d9e2a5d	0.07722924
77	0xbf295ece	-0.66160285
78	0x3f33f7e4	0.70300126
79	0x3e5df636	0.21675953
80	0x3f4c4f16	0.79808176
81	0xbe3ded27	-0.18547498
82	0x3e26f92f	0.16305993
83	0x3e330a63	0.17484431
84	0xbddd4088	-0.10803324
85	0x3da48846	0.080338046
86	0xbe240ce5	-0.16020544
87	0xbf03dd46	-0.5150951
88	0xbeb3b80d	-0.35101357
89	0x3efd9c73	0.49533424
90	0xbca9d817	-0.020732922
91	0xbf0272f9	-0.50956684
92	0xbdf9a7c7	-0.12190204
93	0x3d684fe1	0.056716803
94	0x3de2d848	0.110764086
95	0x3d5f1076	0.054459058
96	0xbd71fcf2	-0.059079118
97	0xbeaef6ed	-0.34172764
98	0x3d808436	0.06275217
99	0x3dd9d7b0	0.10636842
100	0xbf30b809	-0.69030815
101	0x3e873fe3	0.2641593
102	0x3e99ad4e	0.30015033
103	0x3dfac5e0	0.12244773
104	0xbf22c60d	-0.6358345
105	0xbf09858e	-0.53719413
106	0x3f8e3efa	1.1112969
107	0xbeadd8dc	-0.33954513
108	0x3e542bc2	0.20719817
109	0xbf22d308	-0.6360326
110	0x3f089dd6	0.5336584
111	0xbe679e2b	-0.2261893
112	0x3f2d5299	0.6770416
113	0xbe1a7e99	-0.15087356
114	0xbfa03793	-1.251696
115	0x3e48dcdd	0.19615503
116	0xbda0445c	-0.078255385
117	0x3e4c916c	0.19977349
118	0x3efbe430	0.4919753
119	0x3d08d9dd	0.033410896
120	0x3e08336d	0.13300867
121	0x3d990808	0.07472235
122	0x3d032d67	0.03202572
123	0xbe17ba98	-0.14817274
124	0xbeaac2ea	-0.33351833
125	0x3ddbb131	0.10727156
126	0x3e0a90aa	0.13531747
127	0x3e2a9063	0.16656642
128	0xbe4cc832	-0.19998243
129	0xbe3689c5	-0.17825992
130	0xbf07eb41	-0.53093344
131	0x3f8d16a4	1.1022534
132	0x3d263c5e	0.040584914
133	0x3d9dfd72	0.077143565
134	0xbcb6c91d	-0.022312695
135	0xbd907dab	-0.07055219
136	0x3e793263	0.24335627
137	0x3e9f4408	0.3110659
138	0xbc0acdc5	-0.008471911
139	0x3ebd8b3b	0.37020287
140	0xbbb8aec2	-0.005636067
141	0x3d8a20b7	0.06744521
142	0xbe45b8ed	-0.19308825
143	0x3e242668	0.16030276
144	0xbdf69069	-0.12039263
145	0xbfa61268	-1.2974367
146	0x3f103581	0.5633164
147	0xbebc0a5f	-0.36726663
148	0x3c09637c	0.008385535
149	0xbedcc3d2	-0.4311815
150	0xbee60b1d	-0.44930354
151	0xbe05708f	-0.13031219
152	0xbf4f8d97	-0.81075424
153	0x3f8565f7	1.0421742
154	0x3deae128	0.114687264
155	0xbe7328ca	-0.23746029
156	0x3ee2d076	0.44299668
157	0x3d7fad5b	0.062421184
158	0xbdb927fd	-0.0904083
159	0xbebc606c	-0.36792314
160	0x3d9dfae7	0.077138714
161	0xbd54ee7e	-0.051985256
162	0xbdb56043	-0.08856251
163	0x3e0bc107	0.13647853
164	0xbf88b5b4	-1.0680451
165	0x3ed59305	0.4171373
166	0x3e591a88	0.21201527
167	0x3ea23afe	0.31685632
168	0xbe76e42d	-0.2411048
169	0xbeb2ec4d	-0.34945908
170	0x3f6405f3	0.8907158
171	0xbe8c46a0	-0.27397633
172	0x3e8c9e56	0.2746455
173	0xbef9100e	-0.4864506
174	0x3f417510	0.7556925
175	0xbd988f70	-0.074492335
176	0x3ede0846	0.43365687
177	0x3c53c13c	0.012924489
178	0xbf0afb75	-0.5428994
179	0x3d037040	0.03208947
180	0xbb913421	-0.004431263
181	0x3d9885dd	0.074474074
182	0x3d81217a	0.06305213
183	0x3e2d7712	0.16939953
184	0xbde7345a	-0.11289282
185	0x3e25bf03	0.16186146
186	0x3e6aff9e	0.22949073
187	0xbf186bd2	-0.5953952
188	0xbe62c0ea	-0.22143903
189	0x3e2b5444	0.16731364
190	0xbe515234	-0.20441514
191	0x3e358e9c	0.17730182
192	0xbeda7c7f	-0.42673108
193	0xbe5a4045	-0.2131358
194	0xbf50102f	-0.81274694
195	0x3edc7836	0.43060464
196	0x3f6fa65d	0.93613225
197	0xbe2e477a	-0.17019454
198	0x3d9afcbf	0.07567739
199	0xbd8dfade	-0.06932615
200	0x3dfc8dfa	0.123317674
201	0x3ef5361a	0.4789284
202	0x3e88f723	0.2675105
203	0x3eae046f	0.33987758
204	0xbdcf7a22	-0.10130717
205	0x3d1e611e	0.038666837
206	0xbc058407	-0.008149154
207	0x3eba4b90	0.36385775
208	0x3cd202c5	0.025636086
209	0xbf84549c	-1.0338321
210	0x3f26c324	0.6514151
211	0xbe82901f	-0.2550058
212	0xbd5864b3	-0.05283041
213	0xbf2ba26b	-0.67044705
214	0xbee2974e	-0.4425606
215	0xbe3a3495	-0.18184121
216	0xbf812525	-1.0089461
217	0x3fa62eca	1.2983029
218	0x3ee647c3	0.44976625
219	0xbeef1823	-0.46698102
220	0x3ef6ef54	0.48229468
221	0xbd7ddfde	-0.061981075
222	0x3e7753e6	0.24153098
223	0xbeb4ac7d	-0.35287848
224	0x3c9ac273	0.018891549
225	0xbe629fb4	-0.22131234
226	0x3cf02d82	0.029318575
227	0xbd8a380e	-0.06748973
228	0x3ed55dc5	0.41673103
229	0xbfb1a285	-1.3877722
230	0x3dcaa4f0	0.098947406
231	0xbee0ca6b	-0.43904433
232	0x3f4ef17f	0.80837244
233	0xbd115404	-0.035480514
234	0xbe4de443	-0.20106606
235	0x3db6feee	0.08935343
236	0x3e1a655e	0.15077731
237	0x3eda909a	0.42688447
238	0xbefc2350	-0.4924569
239	0xbc9be1ff	-0.019028662
240	0xbf8cfad8	-1.1014051
241	0xbdfa9b86	-0.12236695
242	0x3e6c6beb	0.23088042
243	0x3c9134b3	0.017725324
244	0x3eed7078	0.4637487
245	0xbcfc0921	-0.030766072
246	0xbe075ff7	-0.13220201
247	0x3f886d3f	1.0658339
248	0xbe552be8	-0.2081753
249	0xbe1725f3	-0.1476057
250	0x3cad85e9	0.021182017
251	0x3e9d3795	0.30706468
252	0xbe03cb66	-0.12870559
253	0x3f281bde	0.6566752
254	0xbf7bdf76	-0.9838785
255	0xbdee4aa4	-0.1163533

gru.bias_ih_l0 f4 [96]
0	0x3c9a516c	0.018837653
1	0x3e680819	0.22659339
2	0x3ca671d2	0.020317946
3	0xbeb7ba6a	-0.3588441
4	0x3e69d226	0.22834072
5	0xbe1830e1	-0.14862396
6	0x3e9042dd	0.28176013
7	0x3d8e2a85	0.06941704
8	0xbeac688e	-0.3367352
9	0xbd15dd58	-0.036588043
10	0x3c6d3062	0.014476867
11	0x3eaf72c2	0.3426724
12	0xbec2779d	-0.37981883
13	0x3eadfbc5	0.33981147
14	0x3b9e57a4	0.004832225
15	0x3d0e7475	0.03477903
16	0xbc8ac876	-0.01694129
17	0xbdee9674	-0.116497904
18	0x3e2a566d	0.16634531
19	0x3e5c95bc	0.21541494
20	0x3d9973f3	0.07492819
21	0x3edb6a42	0.42854506
22	0x3f209402	0.6272584
23	0x3eeaaf59	0.45836905
24	0x3e27e82a	0.16397157
25	0x3e861738	0.2618959
26	0xbed3c142	-0.41358382
27	0xbd8f3fef	-0.06994616
28	0x3e2b815c	0.16748565
29	0xbde49e1a	-0.11162968
30	0xbe90d1bf	-0.28285024
31	0x3e1b3cb3	0.15159874
32	0xbeadaf2d	-0.3392271
33	0x3e774f71	0.24151398
34	0x3f31aa07	0.69400066
35	0x3c1bb1e1	0.009502859
36	0x3c636cbd	0.013880906
37	0x3e7c4035	0.24633868
38	0x3e515d3f	0.20445727
39	0x3e8fb13e	0.28064913
40	0xbe86cb8c	-0.2632717
41	0x3f052900	0.52015686
42	0xbe521f71	-0.20519806
43	0x3dd2eb63	0.10298803
44	0x3e38ce7a	0.18047515
45	0xbe39e8fe	-0.18155286
46	0x3e81a7b8	0.25323272
47	0xbe6f8dd2	-0.23393944
48	0x3e6f45ac	0.23366421
49	0xbd390515	-0.045170862
50	0x3f7793c5	0.96709853
51	0x3efbff7c	0.49218357
52	0x3e0c5fb0	0.13708377
53	0x3f4372a2	0.7634679
54	0xbf6f937b	-0.9358441
55	0x3eb1e9f3	0.34748802
56	0x3ec835d9	0.39103583
57	0x3fa1a38c	1.2628036
58	0x3dc726ea	0.09724219
59	0x3d777bf6	0.060420953
60	0x3ef4f116	0.47840184
61	0xbec41d41	-0.3830357
62	0x3d932f6f	0.071867816
63	0xbe78bf98	-0.24291837
64	0x3e40c046	0.18823346
65	0x3d9450d8	0.07241982
66	0xbc97a47c	-0.01851105
67	0xbf611eff	-0.8793792
68	0x3e176a64	0.14786679
69	0xbd4d5794	-0.05013235
70	0xbdc1fc81	-0.094719894
71	0xbe4363a6	-0.19080982
72	0x3d339995	0.04384764
73	0x3db881c7	0.09009128
74	0x3d9a061c	0.075206965
75	0x3ea00df3	0.31260642
76	0xbcc839ad	-0.024441564
77	0xbded9aae	-0.116017684
78	0x3c2ef93c	0.010679539
79	0x3f0dafdd	0.5534647
80	0xbc854be3	-0.016271537
81	0x3f363e61	0.7118893
82	0xbd0808e8	-0.03321162
83	0xbe9cb113	-0.30603847
84	0xbec83451	-0.39102414
85	0xbd39ca39	-0.04535887
86	0xbf70951d	-0.9397753
87	0xbc33e5c6	-0.010980075
88	0x3f1a3c98	0.6024871
89	0xbeb509b3	-0.35358962
90	0xbe691d70	-0.22765136
91	0x3e5ef53c	0.21773237
92	0xbe1f3ea3	-0.15551238
93	0xbe289a2b	-0.1646506
94	0x3e96bf4d	0.29442826
95	0xbe8de9c0	-0.277174

gru.bias_hh_l0 f4 [96]
0	0x3ea76d2f	0.32700488
1	0x3e02988d	0.12753506
2	0xbddd374d	-0.108015634
3	0xbed7b87f	-0.42132947
4	0x3ebf3811	0.37347463
5	0xbea47e53	-0.32127628
6	0x3ea1e5c6	0.31620616
7	0xbda8a198	-0.082339466
8	0xbe6e288b	-0.23257653
9	0xbeb0506d	-0.3443636
10	0xbdc3a1db	-0.09552356
11	0x3e9a13d1	0.30093244
12	0xbdc47295	-0.09592167
13	0x3e888e23	0.26670942
14	0xbc55b8d9	-0.013044559
15	0x3e94b743	0.29046068
16	0xbd0772d0	-0.033068478
17	0x3d0b516e	0.034013204
18	0x3e796d84	0.24358183
19	0x3db4a79f	0.08821034
20	0x3ea8e429	0.32986572
21	0x3f11d83b	0.56970567
22	0x3f452622	0.7701131
23	0x3e9c416f	0.30518672
24	0x3db0a873	0.08625879
25	0x3eda1f93	0.42602214
26	0xbee104e2	-0.43949038
27	0xbdff2d37	-0.12459796
28	0x3e55ebc5	0.2089072
29	0xbe8a7771	-0.27044252
30	0xbf0a936d	-0.54131204
31	0x3d305e1e	0.043058507
32	0xbe82b197	-0.25526115
33	0x3a211990	0.00061454717
34	0x3edd4f46	0.43224543
35	0x3e00d5dc	0.12581581
36	0x3d046e94	0.032332018
37	0x3eba29dd	0.36360064
38	0xbc85c3a1	-0.016328635
39	0x3e8c8128	0.27442288
40	0xbdc02b2c	-0.093832344
41	0x3e844376	0.2583272
42	0xbdca8b7e	-0.09889887
43	0x3c1e3472	0.009656059
44	0x3e94db55	0.29073587
45	0xbbfbab8e	-0.007680363
46	0x3df37839	0.11888165
47	0xbe59fd30	-0.2128799
48	0x3ef12af0	0.4710307
49	0xbd829bfc	-0.06377408
50	0x3f57df31	0.8432494
51	0x3f182303	0.59428424
52	0x3dbae443	0.09125569
53	0x3f3e5812	0.74353135
54	0xbf6b2b0f	-0.9186258
55	0x3eae2573	0.34012946
56	0x3e99e1b6	0.30055016
57	0x3f9ba8e5	1.2160918
58	0xbc2e6b48	-0.010645695
59	0x3d118275	0.035524804
60	0x3f0378db	0.51356286
61	0xbeb3bda1	-0.35105613
62	0x3d57d0bc	0.0526893
63	0xbe94671b	-0.28984913
64	0x3df00d0c	0.117212385
65	0x3ebe9eb0	0.37230444
66	0xbe4430cf	-0.19159244
67	0xbf50292a	-0.8131281
68	0x3edd3360	0.4320326
69	0xbca16490	-0.019701272
70	0xbedd70b5	-0.4325005
71	0xbd9aa04a	-0.07550104
72	0xbdfb3f29	-0.12267906
73	0x3df28c24	0.11843136
74	0xbeaa4c56	-0.33261365
75	0x3e263e4c	0.16234702
76	0x3c111a07	0.008856303
77	0xbe990764	-0.2988845
78	0x3e4a99d6	0.19785246
79	0x3eafc19a	0.34327394
80	0x3e358901	0.17728044
81	0x3f4859bf	0.7826194
82	0x3d0a691f	0.033791658
83	0xbdfa5b80	-0.122244835
84	0xbe83eec1	-0.25768092
85	0x3d25cf71	0.040481035
86	0xbf87c7fc	-1.0607905
87	0xbeb78c46	-0.35849208
88	0x3f4af2aa	0.79276526
89	0xbef9db67	-0.48800203
90	0xbe9562fb	-0.2917708
91	0x3e69e80f	0.2284243
92	0xbd4b3563	-0.04961146
93	0xbcdc102c	-0.02686318
94	0x3e98a86c	0.29815996
95	0xbea364a6	-0.31912726

conv1.weight f4 [12, 32, 1, 12]
0	0xbfdf78d6	-1.7458751
1	0xbfe18271	-1.7617933
2	0xbfe8823a	-1.8164742
3	0xbfd830d3	-1.68899
4	0xbfdcaad4	-1.7239633
5	0xbfee0fd0	-1.8598576
6	0xbff036bb	-1.8766702
7	0xbfec0c8d	-1.844133
8	0xbff2a86b	-1.8957647
9	0xbfec476b	-1.8459295
10	0xbff4c5db	-1.9122881
11	0xbff30983	-1.8987278
12	0xbfbbdac3	-1.4676136
13	0xbfa432a3	-1.2827953
14	0xbf02967f	-0.5101089
15	0xbf86983a	-1.0515206
16	0xbfa6b931	-1.3025266
17	0xbfb77c1a	-1.4334748
18	0xbfcdd8a1	-1.6081735
19	0xbfcf3a8e	-1.6189744
20	0xbfc1a48d	-1.5128342
21	0xbfedbe11	-1.8573629
22	0xc020579d	-2.5053475
23	0xc08a16f4	-4.315302
24	0xbff32c11	-1.8997823
25	0xbff2ce3c	-1.8969188
26	0xbfde5203	-1.7368778
27	0xbfe43bac	-1.783071
28	0xbfdcab17	-1.7239712
29	0xbfdf2f31	-1.7436277
30	0xbfd2aa4f	-1.6458224
31	0xbfbffbe5	-1.4998747
32	0xbfb90833	-1.4455627
33	0xbfabd471	-1.3424207
34	0xbfb88f95	-1.4418818
35	0xbfb657b6	-1.4245517
36	0x4036bae1	2.8551562
37	0x403cfa74	2.9527864
38	0x4037cbc2	2.8718114
39	0x40305869	2.7553961
40	0x40257d7e	2.5857844
41	0x40262315	2.5958912
42	0x401d9fca	2.4628778
43	0x401c8736	2.4457526
44	0x401bab2d	2.4323227
45	0x401816c5	2.3763897
46	0x401a4f9c	2.411109
47	0x40203c82	2.503693
48	0xbfdaf419	-1.7105743
49	0xbfd55981	-1.666794
50	0xbfe5d848	-1.7956629
51	0xbfc3ddf6	-1.5302112
52	0xbfa983ce	-1.3243349
53	0xbf91d9ee	-1.1394632
54	0xbf839d6c	-1.0282416
55	0xbf8fd7a7	-1.1237687
56	0xbfe4575b	-1.7839159
57	0xc024e47a	-2.576445
58	0xc033c6be	-2.8090053
59	0xc08e2cd8	-4.442974
60	0xbfb0e77f	-1.3820647
61	0xbfad7fdc	-1.3554645
62	0xbfbad865	-1.4597288
63	0xbfc310c2	-1.5239489
64	0xbfb82135	-1.4385134
65	0xbfa05f79	-1.2529136
66	0xbf751057	-0.9572806
67	0xbf818a02	-1.0120242
68	0xbfa56eb9	-1.2924415
69	0xbfc70d67	-1.5550965
70	0xbfefb5ab	-1.8727316
71	0xbfd934e0	-1.6969261
72	0x3fd86138	1.6904669
73	0x3ffd72d1	1.9800664
74	0x3ff5c4bd	1.9200665
75	0x3ffe2a83	1.9856724
76	0x3fe618d1	1.7976323
77	0x3fc8b58e	1.5680406
78	0x3f9e65aa	1.2374775
79	0x3f8192f5	1.0122973
80	0x3fa4e263	1.2881588
81	0x4019f313	2.405461
82	0x406684fa	3.6018662
83	0x408a0c1e	4.313979
84	0xbfb56009	-1.4169933
85	0xbfab563e	-1.3385694
86	0xbf1c35e6	-0.6101974
87	0xbfba58e3	-1.4558376
88	0xbfb8e030	-1.4443417
89	0xbfa0ceac	-1.2563071
90	0xbf7dee5b	-0.99191827
91	0xbf477dc7	-0.77926296
92	0xbf1e1c1b	-0.61761636
93	0xbf7f5322	-0.99736226
94	0xbfccc2ed	-1.5996987
95	0xbfb505d2	-1.4142401
96	0x3fde469d	1.73653
97	0x3fe333d2	1.7750189
98	0x3fcd4bd4	1.6038766
99	0x3fd2c0d6	1.6465099
100	0x3fcd25d1	1.6027166
101	0x3fcd4f55	1.6039835
102	0x3fc92973	1.5715774
103	0x3fd8f8fc	1.6950984
104	0x3fc7550a	1.5572827
105	0x3fafaf2d	1.3725334
106	0x3f9c48b1	1.2209684
107	0x3f6d6023	0.9272482
108	0x3fc3420d	1.5254532
109	0x3fbd7b0d	1.4803177
110	0x3fbb58ea	1.463651
111	0x3fbc2b8b	1.4700788
112	0x3fbdace0	1.4818382
113	0x3fbc7ad0	1.4724979
114	0x3fb8ca00	1.4436646
115	0x3fc4f690	1.5387745
116	0x3fc3d2fc	1.5298762
117	0x3fc4c16e	1.537153
118	0x3fcfb3ea	1.622678
119	0x3fcfd115	1.6235682
120	0x3fd59a31	1.668768
121	0x4023df83	2.560517
122	0x4000c4bb	2.0120075
123	0x3fce30e8	1.6108675
124	0x3fef897c	1.8713832
125	0x400311b6	2.047956
126	0x4013bd2c	2.3084211
127	0x401a3727	2.4096162
128	0x4031419c	2.7696295
129	0x404be7cf	3.1860235
130	0x405f5ec2	3.4901586
131	0x4087dcb7	4.2456927
132	0x3fce04e3	1.6095241
133	0x3fccbfe6	1.5996063
134	0x3fc7aaf9	1.5599052
135	0x3fcde28c	1.6084762
136	0x3fc78e4d	1.5590302
137	0x3fc9c9a9	1.5764667
138	0x3fce0e45	1.6098105
139	0x3fd0d36b	1.631452
140	0x3fd0ab9e	1.6302373
141	0x3fc58297	1.5430478
142	0x3fc7a11d	1.5596043
143	0x3fcded3d	1.6088024
144	0x3fb47bcc	1.410028
145	0x3faf69b9	1.3704139
146	0x3fac20aa	1.3447468
147	0x3facc7ae	1.3498437
148	0x3f93ee7b	1.1557153
149	0x3f42c62f	0.76083654
150	0x3f52b254	0.8230336
151	0x3f68ff91	0.91014963
152	0x3f87075d	1.0549122
153	0x3fa40a90	1.2815723
154	0x3fc07cd5	1.5038096
155	0x3f6473c2	0.8923913
156	0x3fe57a0c	1.7927871
157	0x3fe70d62	1.8050959
158	0x3fa3352c	1.2750602
159	0x3ed96fab	0.42468008
160	0x3d65d13f	0.056107756
161	0x3f38518d	0.71999437
162	0x3fa98985	1.3245093
163	0x3fdd5f9e	1.7294805
164	0x400db76a	2.2143197
165	0x40330584	2.7972116
166	0x40574481	3.3635561
167	0x408e36e1	4.444199
168	0xbfd2b1e1	-1.6460534
169	0xbfc68b99	-1.5511352
170	0xbfc4a8d9	-1.5364028
171	0xbfb9af9b	-1.4506716
172	0xbf5936df	-0.8484935
173	0x3e3d1aff	0.1846733
174	0x3e8b5214	0.27211058
175	0xbeeb3646	-0.45939845
176	0xbf7f51e1	-0.9973431
177	0xbfafbf7a	-1.3730309
178	0xbfdf9df7	-1.7470082
179	0xc02021ef	-2.5020711
180	0x3fee1915	1.8601404
181	0x3ff3d3ec	1.9049048
182	0x3fefbff2	1.8730452
183	0x3fef7016	1.8706081
184	0x3fe771d4	1.8081613
185	0x3fe92b8e	1.8216417
186	0x3fe88011	1.8164083
187	0x3ff32d3d	1.8998181
188	0x3fea33b4	1.8297029
189	0x3ff2ac37	1.8958806
190	0x3ff29228	1.8950853
191	0x3fe806ac	1.8127036
192	0xbfe47597	-1.7848386
193	0xbfddf88b	-1.7341474
194	0xbfbefd0a	-1.4920971
195	0xbf969db2	-1.1766875
196	0xbf9bf06e	-1.2182748
197	0xbfa58d26	-1.29337
198	0xbfb05a64	-1.3777585
199	0xbfb22490	-1.3917408
200	0xbfaf6ec6	-1.370568
201	0xbfb60d7d	-1.4222866
202	0xbfdb48a0	-1.7131538
203	0xc0157396	-2.3351798
204	0xbf581051	-0.84399897
205	0xc01de672	-2.4671903
206	0xc00607fb	-2.094237
207	0xc0051e16	-2.0799613
208	0xc0025720	-2.0365677
209	0xc0003d47	-2.00374
210	0xc002a595	-2.0413563
211	0xc0023663	-2.0345695
212	0xc0066903	-2.1001594
213	0xc00cfe08	-2.2030048
214	0xc0101a35	-2.2515996
215	0xc01f3083	-2.487336
216	0x3fee42a4	1.8614087
217	0x3fefd978	1.8738241
218	0x3fea8344	1.8321309
219	0x3fea4e75	1.8305193
220	0x3fe77679	1.808303
221	0x3fee02c2	1.8594592
222	0x3fe51aec	1.7898841
223	0x3fe40a40	1.7815628
224	0x3fdec5c9	1.7404109
225	0x3fe041a1	1.7520028
226	0x3fe49c94	1.7860284
227	0x3fe761d0	1.8076725
228	0xbfba5389	-1.4556743
229	0xbfc06b4d	-1.5032746
230	0xbfc6ed9d	-1.5541264
231	0xbfc58fad	-1.5434471
232	0xbfd0be17	-1.6308011
233	0xbfcfebc9	-1.6243831
234	0xbfcfa09a	-1.6220887
235	0xbfd08154	-1.6289468
236	0xbfd5a742	-1.6691668
237	0xbfd32df9	-1.6498405
238	0xbfd12e03	-1.6342167
239	0xbfd42a60	-1.6575432
240	0x3fde7a9a	1.7381165
241	0x3fe78072	1.8086073
242	0x3fd66b57	1.6751508
243	0x3fad5887	1.3542641
244	0x3f948cf0	1.1605511
245	0x3f6b96bd	0.92026883
246	0x3f592eb4	0.8483689
247	0x3f93b773	1.1540359
248	0x3fdae540	1.7101212
249	0x400a71a1	2.1631854
250	0x401f1027	2.4853609
251	0x405b1f4e	3.4237857
252	0xbffcb1bf	-1.9741744
253	0xc00510ef	-2.0791585
254	0xc008129d	-2.126136
255	0xc005dbf6	-2.0915504

conv1.bias f4 [12]
0	0x3fd54e94	1.6664605
1	0x3fd1c05a	1.6386826
2	0x3fc93687	1.5719765
3	0x3fcfe9d0	1.6243229
4	0x3fcba97c	1.5911098
5	0x3fc350f5	1.5259081
6	0x3fc9f7f2	1.5778792
7	0x3fc00797	1.5002316
8	0x3fbacc0b	1.4593519
9	0x3fc43a15	1.5330225
10	0x3fc0e832	1.507086
11	0x3fbbabc8	1.4661798
