Model Training and Evaluation Results/PEMS07/GCRN/GRCN_best_27.77.pth (torch, 171959 bytes, 6 tensors)

block1.gcn_conv.conv1.weight f4 [128, 99, 1]
0	0x3f00dbad	0.503352
1	0x3e85342c	0.26016366
2	0x3ea1263f	0.31474492
3	0xbeb3ac42	-0.3509236
4	0xbe0a93f0	-0.13532996
5	0xbda36edb	-0.079801284
6	0x3e6bc72a	0.23025194
7	0x3cd66e69	0.026175695
8	0x3dec2bc8	0.11531788
9	0xbaa3927a	-0.0012479567
10	0x3deab3ef	0.11460101
11	0x3bfedb83	0.0077776327
12	0x3e2ecadd	0.17069574
13	0xbbd95b59	-0.006633204
14	0xbda734e5	-0.08164386
15	0xbe8be5b7	-0.27323696
16	0xbbfef0dc	-0.0077801775
17	0x3e2ad07c	0.16681093
18	0x3f4c4e02	0.7980653
19	0x3e4d8c21	0.20072986
20	0xbccb548b	-0.024820587
21	0x3ddddd96	0.1083328
22	0xbe319cb8	-0.1734494
23	0xbe6eb3c7	-0.23310767
24	0x3e2fd63b	0.17171566
25	0x3dce2821	0.10066248
26	0x3d30d39e	0.043170564
27	0xbd4dd9b4	-0.050256446
28	0xbe8fc542	-0.28080183
29	0xbe47371b	-0.19454615
30	0xbbdc9f11	-0.0067328294
31	0xbd446cb1	-0.04795522
32	0x3d4d2fc8	0.050094396
33	0x3dd11227	0.102085404
34	0xbdbe4f4d	-0.09292469
35	0x3d0569fb	0.032571774
36	0x3e143e51	0.14476897
37	0x3e0bc4d5	0.13649304
38	0x3dacb084	0.08432105
39	0x3e58f787	0.21188174
40	0x3e390061	0.18066551
41	0xbe67dd55	-0.22643025
42	0x3e097ad6	0.13425764
43	0x3eb16bbb	0.34652504
44	0x3d8b2026	0.06793241
45	0xbd0702ae	-0.03296154
46	0xbe09ff92	-0.13476399
47	0xbe380e37	-0.17974173
48	0xbce309c7	-0.027714623
49	0xbe020251	-0.12696196
50	0x3b5b7c0e	0.003349069
51	0x3ded9cf7	0.11602204
52	0x3c1bcf6f	0.009509905
53	0xbe098401	-0.13429262
54	0x3db15143	0.086580776
55	0x3eb650f3	0.35608634
56	0x3ca3186e	0.01990911
57	0x3c7d91ce	0.015476657
58	0x3e037952	0.12839249
59	0x3cb7ee63	0.022452539
60	0xbee79084	-0.45227444
61	0xbe10fc37	-0.14158712
62	0x3e3ef04c	0.18646353
63	0x3dc6480a	0.09681709
64	0xbd2aaf04	-0.041670814
65	0x3d8fee78	0.07027906
66	0xbd64cda7	-0.055860188
67	0x3e531522	0.2061353
68	0x3ddaaf8e	0.10678016
69	0xbcbe6fc5	-0.023246655
70	0xbe8926ef	-0.26787516
71	0x3d9172d9	0.071019836
72	0xbebce5f1	-0.3689418
73	0xbed441d0	-0.4145646
74	0xbe2d65f2	-0.1693342
75	0xbdced579	-0.100993104
76	0xbcaa7bb3	-0.020810938
77	0xbe23a475	-0.15980704
78	0xbd695919	-0.056969736
79	0xbcd2666c	-0.025683604
80	0xbdf5871e	-0.11988662
81	0xbcbe45ee	-0.023226704
82	0x3e08562b	0.1331412
83	0xbe787250	-0.24262357
84	0xbd69f28f	-0.057116088
85	0x3e283ac9	0.16428675
86	0x3dd8c764	0.10584906
87	0x3d056297	0.032564726
88	0xbe08ccf8	-0.1335944
89	0x3e3a1d47	0.18175231
90	0xbc8ceab8	-0.017201766
91	0xbda75262	-0.0817001
92	0xbc97e7e6	-0.018543195
93	0x3d5a2815	0.05326088
94	0x3d14e922	0.036355145
95	0x3dd3d958	0.103441894
96	0x3f8b525c	1.0884509
97	0x3ef9176d	0.48650685
98	0x3e3b0dd1	0.1826699
99	0x3d85f9a3	0.06541755
100	0xbe851b13	-0.25997218
101	0xbec9db82	-0.39425284
102	0x3d95d499	0.073159404
103	0x3f1cfa1e	0.6131915
104	0xbeb22976	-0.34797257
105	0x3c854e6e	0.01627275
106	0xbe6fd8d3	-0.23422556
107	0x3eb0a10b	0.34497866
108	0x3f0f156f	0.5589208
109	0xbdc1713b	-0.09445425
110	0xbf01d816	-0.50720346
111	0x3e6b9e4a	0.23009601
112	0x3e6fa450	0.23402524
113	0xbf853330	-1.0406246
114	0x3d28e62e	0.04123514
115	0x3e13b847	0.14425765
116	0x3f48e8e0	0.7848034
117	0xbc13b6d1	-0.009015755
118	0xbe3671ec	-0.17816895
119	0xbdac226d	-0.08405004
120	0xbcd4fec5	-0.02600039
121	0xbdfd4e81	-0.12368489
122	0x3a59d04d	0.00083089323
123	0x3f1c433c	0.6104009
124	0x3dcd5edf	0.10027861
125	0x3f758dfa	0.95919764
126	0x3e04e8eb	0.12979476
127	0x3ea26dd6	0.31724423
128	0x3ec6bfd1	0.3881822
129	0x3dec222b	0.115299545
130	0xbdde4738	-0.10853428
131	0x3bda1b27	0.006656069
132	0x3e59f45e	0.21284625
133	0x3f00db85	0.5033496
134	0x3eb905f2	0.36137348
135	0x3e9ca16f	0.30591914
136	0x3e4b373b	0.19845288
137	0x3ea4d955	0.3219706
138	0xbe410b5a	-0.18851987
139	0xbe826282	-0.2546578
140	0xbd87bbf7	-0.06627648
141	0x3e131d55	0.14366658
142	0xbe3e7d02	-0.18602374
143	0xbf5bb6b4	-0.8582566
144	0x3e384d2d	0.1799819
145	0xbd976aee	-0.07393442
146	0xbf249d18	-0.64302206
147	0xbd843231	-0.06454886
148	0xbcc1e4b1	-0.023668619
149	0x3e108ef3	0.14117031
150	0xbdcbdba4	-0.099540025
151	0xbeaa9d19	-0.3332298
152	0x3e9f7916	0.3114707
153	0x3d00b2f0	0.031420648
154	0xbd8c6ec4	-0.06857064
155	0xbeb748c6	-0.3579771
156	0xbdacb730	-0.08433378
157	0x3df7909a	0.120881274
158	0xbf85de0c	-1.0458388
159	0xbe4ec691	-0.20192935
160	0xbe6a8968	-0.22903979
161	0xbf1cc1c1	-0.61233145
162	0xbe8da89a	-0.27667695
163	0xbe5fa86d	-0.21841593
164	0xbec2643d	-0.379671
165	0xbe47dc35	-0.19517596
166	0xbeeabbc5	-0.45846382
167	0x3e8b1378	0.2716329
168	0xbe891120	-0.26770878
169	0x3f3a0ab2	0.7267257
170	0xbd50e94d	-0.051003743
171	0xbd156a0e	-0.036478095
172	0xbe42114a	-0.18951908
173	0xbea15f7c	-0.3151816
174	0x3e534f79	0.20635785
175	0x3e490b2d	0.1963317
176	0x3dfd6cc2	0.123742595
177	0xbd757257	-0.059923496
178	0xbe11dd36	-0.14244542
179	0x3eac9bb1	0.33712533
180	0xbe1be61f	-0.15224503
181	0xbe5a37a9	-0.21310295
182	0x3c4961d1	0.012291388
183	0xbd4eedc0	-0.050519705
184	0xbdea9667	-0.11454468
185	0xbea51ce9	-0.3224862
186	0xbdfd0ad0	-0.12355578
187	0x3cc5a5c4	0.024126895
188	0x3ebda050	0.3703637
189	0xbebf3455	-0.37344614
190	0xbe09fb8e	-0.13474867
191	0x3e49e98e	0.19718
192	0xbcb78869	-0.022403913
193	0x3e176a1c	0.14786571
194	0x3f97bd7d	1.1854702
195	0x3dd386db	0.10328456
196	0x3e28f88c	0.16501063
197	0x3e831e64	0.25609124
198	0xbe75c3b5	-0.24000438
199	0x3e94f7cb	0.290953
200	0x3ea69629	0.32536438
201	0xbe53988d	-0.20663662
202	0x3dbc49a4	0.09193733
203	0x3e284259	0.1643156
204	0x3e88c6db	0.26714215
205	0x3e281d47	0.16417418
206	0x3d3a754a	0.04552201
207	0x3dba05a2	0.090831056
208	0x3e0df9cf	0.13864826
209	0xbd9f0f49	-0.07766587
210	0xbdeeddd0	-0.11663401
211	0xbd91c0b7	-0.071168356
212	0x3f0266f5	0.5093835
213	0x3e3943e2	0.18092301
214	0x3e1aad2c	0.15105122
215	0xbec6c4cb	-0.38822016
216	0x3e390aae	0.1807048
217	0xbd61df01	-0.055144314
218	0x3f641a25	0.89102393
219	0x3f07e489	0.5308309
220	0x3d5e6944	0.054299608
221	0x3e8323b2	0.2561317
222	0xbe1eed77	-0.15520273
223	0xbe76553a	-0.24055949
224	0x3ea7edd9	0.3279865
225	0xbe8125ef	-0.25224254
226	0xbe4002fd	-0.1875114
227	0x3e985421	0.29751685
228	0x3eb49c5a	0.35275537
229	0x3e849950	0.25898218
230	0x3e649203	0.22321324
231	0xbea678b3	-0.3251396
232	0x3e9651a7	0.2935917
233	0xbd81edcf	-0.063441865
234	0xbd3ba76f	-0.045813974
235	0x3de9a278	0.114079416
236	0xbeba4f51	-0.3638864
237	0x3e1976fa	0.14986792
238	0xbd93f4e7	-0.07224446
239	0xbeddeb9a	-0.43343812
240	0x3d9e6103	0.07733347
241	0xbe0b682b	-0.13613956
242	0x3ee6abdc	0.45052993
243	0x3e50fd7a	0.20409194
244	0x3d0ae8f9	0.033913586
245	0x3d83d1a2	0.06436469
246	0xbe300d2a	-0.17192522
247	0xbdc5b11a	-0.0965292
248	0x3d7f7cda	0.062374927
249	0x3ecfca0d	0.4058384
250	0x3f0a64fd	0.54060346
251	0xbe989d77	-0.29807636
252	0xbe84c98a	-0.25935012
253	0xbe5679b0	-0.20944858
254	0xbdac5c1f	-0.08416008
255	0xbe3b9fea	-0.18322721

block1.gcn_conv.conv1.bias f4 [128]
0	0x3d6383b8	0.05554554
1	0x3ebdbd51	0.370585
2	0x3ebc8d6a	0.3682664
3	0x3c952ea0	0.01821071
4	0x3eeb4cb0	0.45956945
5	0x3d9d82b4	0.07690945
6	0x3e1f442d	0.15553351
7	0x3f1d65cf	0.6148347
8	0x3c1f0365	0.009705399
9	0x3ed54b87	0.41659185
10	0x3f38d65d	0.7220209
11	0x3f148883	0.580208
12	0x3d34a012	0.044097967
13	0x3f0f7176	0.560325
14	0x3e82edb9	0.25571993
15	0xbe5195e1	-0.2046733
16	0x3e9fe5e7	0.3123009
17	0x3eec29ae	0.4612555
18	0x3ded439d	0.11585162
19	0x3f2472b7	0.6423754
20	0x3e3f81ce	0.1870186
21	0x3f808fde	1.0043905
22	0x3e79b7e5	0.24386556
23	0x3e62de03	0.22155003
24	0xbd03677f	-0.032081123
25	0x3eb338bb	0.3500422
26	0x3f296994	0.66176724
27	0x3f0d8e2f	0.5529508
28	0x3ef784b0	0.4834342
29	0x3ee10f71	0.43957093
30	0x3eb98e87	0.36241552
31	0x3eba54fc	0.36392963
32	0xbebd806a	-0.37012035
33	0x3ef8ebf3	0.48617515
34	0x3f03d38d	0.51494676
35	0xbec8dcb6	-0.3923089
36	0x3ee01ed9	0.43773535
37	0x3e93e6a9	0.28886917
38	0x3eedced7	0.4644687
39	0xbf2cb2ca	-0.6746031
40	0xbe967efd	-0.2939376
41	0x3ed6e87c	0.41974247
42	0xbf332eb4	-0.6999314
43	0xbf16b91f	-0.5887622
44	0x3e349165	0.17633589
45	0xbf2b9068	-0.6701722
46	0x3edb7330	0.4286132
47	0xbe0d70eb	-0.13812606
48	0x3eac7d44	0.3368932
49	0xbf26e130	-0.6518736
50	0x3efac4a6	0.48978156
51	0x3f434907	0.76283306
52	0xbee40cb2	-0.44540936
53	0xbf16ef54	-0.58958936
54	0xbf0357ac	-0.5130565
55	0x3ed9bb8b	0.42525896
56	0xbebb1d2d	-0.36545697
57	0x3f35d246	0.71023977
58	0x3f0ef78f	0.55846494
59	0xbf0b5333	-0.54423827
60	0x3ee024ee	0.43778175
61	0x3f09c453	0.5381519
62	0xbf06619e	-0.524927
63	0xbed08bb0	-0.40731573
64	0x3e2e3d7d	0.17015643
65	0x3d8f1429	0.06986267
66	0x3e196aad	0.149821
67	0x3dfb068a	0.122571066
68	0xbdb5367e	-0.08848284
69	0xbe7dfded	-0.24803896
70	0x3db13a78	0.0865373
71	0xbd05d1f3	-0.032670926
72	0x3eb8ce44	0.36094868
73	0xbdba876d	-0.09107862
74	0x3cc22dab	0.023703417
75	0x3dfa9f15	0.12237374
76	0x3e80dc8a	0.25168258
77	0xbe2abf1a	-0.16674462
78	0x3e6d2d84	0.23161894
79	0x3ef947a1	0.4868746
80	0x3e05a399	0.13050689
81	0x3cb65fe6	0.022262525
82	0x3de72b2a	0.1128753
83	0x3d886152	0.066591874
84	0x3e8b80e3	0.2724677
85	0x3e123c84	0.14280897
86	0x3e25a3b9	0.16175736
87	0x3ebdeed5	0.37096277
88	0x3d3e26e0	0.046423793
89	0x3e2e412b	0.17017047
90	0x3e822297	0.25417015
91	0x3db259e6	0.08708553
92	0x3f008ee3	0.5021803
93	0x3e0aa1dd	0.13538308
94	0x3d4fee00	0.050764084
95	0x3f3b7b2e	0.7323483
96	0x3dfc73cc	0.12326774
97	0x3e779aef	0.24180196
98	0x3e9dc02b	0.30810675
99	0x3e8b7328	0.27236295
100	0x3f0e78db	0.5565316
101	0x3e865767	0.26238558
102	0x3e98edcb	0.29868922
103	0x3f0f0a85	0.55875427
104	0x3ddf6a61	0.10908962
105	0x3e9d43a9	0.30715683
106	0x3f254436	0.64557207
107	0x3ee40ed4	0.44542563
108	0x3e3fad06	0.18718347
109	0x3ed19d08	0.40940118
110	0x3e851098	0.25989223
111	0x3ea1c697	0.31596825
112	0x3e867774	0.2626301
113	0x3e9d23b7	0.3069131
114	0x3eb78d07	0.35849783
115	0x3f1ee9fc	0.6207578
116	0x3f096419	0.5366836
117	0x3f28ba2f	0.65909094
118	0x3e296d19	0.16545524
119	0x3e9fb194	0.3119017
120	0x3e188a71	0.14896561
121	0x3f2def2f	0.6794309
122	0x3ed9952f	0.4249663
123	0x3ee9074c	0.4551338
124	0x3eba9377	0.36440632
125	0x3e85ed78	0.26157737
126	0x3eb17b43	0.34664354
127	0x3f7e654c	0.99373317

block2.gcn_conv.conv1.weight f4 [128, 192, 1]
0	0xbeacb185	-0.33729187
1	0x3e4436e4	0.19161564
2	0xbdf55aad	-0.11980186
3	0x3e872f2a	0.2640317
4	0x3e345d9a	0.17613831
5	0x3d88f3ba	0.06687112
6	0x3edabaa2	0.42720515
7	0x3e759b94	0.2398513
8	0xbe13d770	-0.14437652
9	0x3e4b1da9	0.19835533
10	0x3e066bb0	0.13127017
11	0xbde8574d	-0.11344776
12	0x3eefc64f	0.46830985
13	0x3e04abbf	0.12956141
14	0xbe9d8dce	-0.3077225
15	0x3f98d3d7	1.1939648
16	0x3e56d911	0.20981242
17	0xbecaa6f7	-0.3958051
18	0x3f87c57e	1.0607145
19	0x3f40e51b	0.7534959
20	0xbdee03db	-0.11621829
21	0xbdb975a5	-0.09055642
22	0xbe26da2c	-0.16294163
23	0xbf08ce90	-0.5344019
24	0xbede02c0	-0.43361473
25	0xbe8dfec4	-0.27733433
26	0xbb94b764	-0.0045384634
27	0xbdf9fa56	-0.12205951
28	0x3e13c02e	0.1442878
29	0x3f2be247	0.67142147
30	0xbdade621	-0.08491159
31	0xbeb1fd1f	-0.3476343
32	0x3ec04993	0.37556133
33	0xbf695a11	-0.91153055
34	0xbec0d2ec	-0.3766092
35	0xbe96978d	-0.294125
36	0xbf0e55f8	-0.5559993
37	0x3f1759f3	0.59121627
38	0x3e5f38ac	0.21798962
39	0xbe8593a8	-0.26089215
40	0xbd4b28cf	-0.049599465
41	0xbeae41dd	-0.34034625
42	0x3ea700c8	0.32617784
43	0x3efa0aef	0.48836467
44	0x3ceddb19	0.029035138
45	0xbe5e338f	-0.21699356
46	0xbec54220	-0.38527012
47	0x3e43c08e	0.19116423
48	0x3ea2929e	0.31752485
49	0x3edb6807	0.42852804
50	0x3f3ce748	0.7379041
51	0xbf423f1d	-0.75877553
52	0xbf4b3993	-0.79384726
53	0xbf0b798a	-0.5448233
54	0x3f1ae5a9	0.60506684
55	0x3f053403	0.5203249
56	0xbe786c32	-0.24260023
57	0x3f478763	0.7794096
58	0x3ef4f23a	0.47841054
59	0xbe9a8039	-0.3017595
60	0xbf229d58	-0.6352134
61	0xbe95fa90	-0.29292727
62	0xbe238195	-0.159674
63	0xbf6dea05	-0.9293521
64	0xbe32027b	-0.17383759
65	0x3f34c42a	0.7061182
66	0x3e4c055f	0.19923924
67	0xbe1441a8	-0.14478171
68	0xbf7d684e	-0.9898728
69	0x3f44d11d	0.7688158
70	0x3ef7bbf3	0.4838558
71	0xbbbb425e	-0.0057146987
72	0xbf1cc30b	-0.6123511
73	0xbf38d439	-0.72198826
74	0x3dc92854	0.09822145
75	0x3f388c6c	0.72089267
76	0x3ee50b96	0.44735402
77	0x3e8c1f29	0.27367523
78	0x3f16648c	0.5874717
79	0x3ecfe4b0	0.40604162
80	0x3db70a4b	0.0893751
81	0xbf504ad5	-0.81364185
82	0xbe945901	-0.28974155
83	0x3e6c3e1d	0.2307057
84	0x3f4e881d	0.8067644
85	0x3f55441f	0.8330707
86	0x3ea3f529	0.3202298
87	0x3efe8fb8	0.49719024
88	0x3ea8d806	0.32977313
89	0x3f625ad7	0.8841986
90	0xbee63712	-0.4496389
91	0xbf20ffed	-0.6289051
92	0xbe3c87dc	-0.18411201
93	0xbee5842f	-0.4482741
94	0xbf1f6d12	-0.62275803
95	0xbe971bd5	-0.29513422
96	0x3d990963	0.074724935
97	0xbe4ac7a1	-0.19802715
98	0x3e74e305	0.23914726
99	0x3dd3ceaa	0.103421524
100	0xbc4b61bc	-0.012413438
101	0x3d05cc02	0.03266526
102	0x3d007e7b	0.03137062
103	0x3c3cbd74	0.0115197785
104	0x3e1328e3	0.14371066
105	0x3eb78232	0.3584152
106	0x3e6b8788	0.2300092
107	0xbe06a0ce	-0.1314728
108	0x3da9b9fe	0.08287428
109	0x3d770aff	0.06031322
110	0xbe171db9	-0.14757432
111	0x3e18cf98	0.1492294
112	0x3da95a60	0.08269191
113	0xbde5ce0e	-0.112209424
114	0xbd64c3c8	-0.055850774
115	0xbdaaf2ac	-0.08347067
116	0xbcd0b40e	-0.025476482
117	0xbbe65088	-0.007028643
118	0x3d47f039	0.04881308
119	0x3d13007a	0.035889126
120	0xbe7bb374	-0.24580175
121	0xbd16688a	-0.03672079
122	0x3e3764a3	0.17909484
123	0x3e363d5b	0.17796843
124	0x3d2973dc	0.041370258
125	0xbd9bceaf	-0.07607781
126	0xbce992b0	-0.028512329
127	0xbd2a3c59	-0.04156146
128	0x3d174906	0.036934875
129	0x3e9db3be	0.30801195
130	0xbddbe7c9	-0.10737569
131	0xbde8c430	-0.11365545
132	0x3e85e03d	0.26147643
133	0x3d830c83	0.06398871
134	0x3d0581a4	0.032594338
135	0xbe104a29	-0.1409079
136	0xbe3b1771	-0.18270661
137	0xbde10b51	-0.109884866
138	0x3eb5d3c7	0.35513136
139	0x3e11e33e	0.14246842
140	0x3d94a433	0.07257881
141	0x3e82249c	0.25418556
142	0x3dc5d608	0.09659964
143	0xbcc8e5b4	-0.024523593
144	0xbdba9283	-0.09109976
145	0xbad615b7	-0.0016333376
146	0xbd306ba1	-0.043071393
147	0xbe2c601b	-0.16833536
148	0x3d0e3791	0.03472096
149	0xbcf9cd9a	-0.030493546
150	0x3c48d376	0.0122574475
151	0xbd84f2e9	-0.06491644
152	0xbe21305c	-0.15741104
153	0xbdc3b24e	-0.09555493
154	0xbc9f7dcf	-0.01946917
155	0xbdce2445	-0.100655116
156	0x3e18422b	0.14868991
157	0x3e808744	0.251032
158	0x3ba34101	0.0049821143
159	0x3e22b4bc	0.15889257
160	0xbda151c1	-0.078769214
161	0xbaf2e392	-0.0018530956
162	0x3e3197ba	0.17343035
163	0x3e340fb8	0.17584121
164	0xbe89aca7	-0.26889536
165	0x3e8c1cc6	0.27365702
166	0xbe6bdc18	-0.23033178
167	0xbde5e9c8	-0.11226231
168	0xbe4692aa	-0.19391885
169	0xbe9b953b	-0.3038729
170	0xbe9b5582	-0.30338675
171	0xbe393fe0	-0.18090773
172	0xbd896f72	-0.0671071
173	0xbe2d042d	-0.16896124
174	0x3e2d4a5d	0.16922899
175	0xbdd66886	-0.10469155
176	0xbe4743fd	-0.19459529
177	0x3e731920	0.23740053
178	0x3d95a475	0.07306758
179	0x3d124e66	0.035719298
180	0xbe2ac666	-0.16677245
181	0x3e590538	0.21193397
182	0xbdc20f68	-0.09475595
183	0x3e04b0b1	0.12958027
184	0x3e32be69	0.17455448
185	0x3e3132f2	0.1730459
186	0x3e4aedef	0.19817327
187	0xbd3df540	-0.046376467
188	0xbd390619	-0.04517183
189	0xbdf61da5	-0.12017373
190	0xbd84bf6b	-0.064818226
191	0xbd95bf07	-0.07311826
192	0xbd808deb	-0.06277069
193	0xbb3be8fc	-0.0028672805
194	0xbf6d0670	-0.9258795
195	0x3f5c4ae7	0.8605179
196	0x3ed07090	0.40710878
197	0xbd7a6e36	-0.06114026
198	0x3ef4b658	0.47795367
199	0x3ee1ddc8	0.44114518
200	0x3ef2d4cb	0.47427973
201	0xbf275776	-0.6536783
202	0xbd0c8484	-0.034306064
203	0x3e961a8b	0.29317126
204	0x3e4f3ef1	0.20238854
205	0x3f336e3c	0.7009008
206	0x3f73a531	0.9517394
207	0xbd22c6c0	-0.039740324
208	0x3eea6efe	0.45787805
209	0x3ed2fc04	0.41207898
210	0x3e6e0693	0.23244695
211	0x3f7c9f2f	0.98680395
212	0x3ed2980b	0.41131625
213	0xbf710f17	-0.9416365
214	0xbf16cd1a	-0.5890671
215	0xbeb59e8d	-0.35472527
216	0xbea19ec4	-0.3156644
217	0xbe8f8248	-0.28029084
218	0x3dabd421	0.0839007
219	0x3fb70396	1.4297969
220	0x3fa423ce	1.2823427
221	0x3ca7fc11	0.020505937
222	0xbf0201f8	-0.50784254
223	0xbbb2b4fe	-0.005453705
224	0x3f143815	0.57898074
225	0xbf512450	-0.81696033
226	0xbf4f8e03	-0.8107607
227	0xbfa204a1	-1.2657663
228	0x3f83ffff	1.0312499
229	0x3f0746bb	0.528423
230	0x3b82e6c7	0.003994796
231	0xbf769f11	-0.96336466
232	0xbf422bfe	-0.75848377
233	0xbe381591	-0.17976977
234	0x3efecca1	0.49765494
235	0x3f1144e2	0.5674573
236	0xbe49397c	-0.19650835
237	0xbe987cdb	-0.29782757
238	0xbe549873	-0.2076128
239	0x3e9f8d49	0.3116248
240	0x3f758be5	0.9591659
241	0x3f27b499	0.65509945
242	0x3ee1f578	0.4413259
243	0xbf7a06ed	-0.9766682
244	0xbf304754	-0.6885884
245	0x3dc86c73	0.0978631
246	0x3ee46b3e	0.4461307
247	0xbea8ddb6	-0.32981652
248	0xbe51d445	-0.2049113
249	0x3ebd8466	0.37015074
250	0x3ed369e1	0.41291717
251	0xbdf73cda	-0.120721534
252	0xbebe0ce7	-0.3711922
253	0xbe84bf06	-0.2592699
254	0xbeb40913	-0.35163173
255	0xbe275a78	-0.16343105

block2.gcn_conv.conv1.bias f4 [128]
0	0x3e86009f	0.2617235
1	0x3f29401d	0.66113454
2	0x3f2624b2	0.6489974
3	0x3f46b1f0	0.7761526
4	0x3f42596e	0.7591771
5	0x3f39fa3f	0.7264747
6	0x3f68a18d	0.90871507
7	0x3ec1832e	0.37795395
8	0x3ed133b0	0.40859747
9	0x3f366baa	0.7125803
10	0x3f17a58b	0.59236974
11	0x3ebb1e22	0.36546427
12	0x3ed5c5d2	0.41752487
13	0x3eca53e7	0.39517137
14	0x3f1d7907	0.615128
15	0x3eca9a4e	0.3957085
16	0x3f28197f	0.65663904
17	0x3f1eca69	0.62027603
18	0x3f45a603	0.7720644
19	0x3ef69c6b	0.48166212
20	0x3f175b68	0.5912385
21	0x3ee8978f	0.4542813
22	0x3e6c67b7	0.23086439
23	0x3ef88dd0	0.48545694
24	0x3ee4d912	0.44696862
25	0x3ea90d88	0.33018136
26	0x3f2a7af9	0.6659389
27	0x3ea41ff9	0.32055643
28	0x3f049bd4	0.51800275
29	0x3e6f43e4	0.23365742
30	0x3f6b7336	0.9197267
31	0x3ef39977	0.47578022
32	0xbe85f245	-0.261614
33	0x3eb580f5	0.3544995
34	0xbe8364c6	-0.25662822
35	0x3e98385a	0.29730493
36	0x3f03fb7f	0.5155563
37	0x3efcef3e	0.49401277
38	0x3f0a5950	0.5404253
39	0xbe44f98b	-0.19235818
40	0x3ea9c774	0.33159983
41	0x3f052306	0.52006567
42	0xbe93e111	-0.2888265
43	0x3eb599dd	0.3546895
44	0x3e90ef4e	0.28307575
45	0xbe88b454	-0.2670008
46	0xbe9733cd	-0.29531708
47	0x3e978533	0.2959381
48	0xbebecfa7	-0.372678
49	0xbf03ed30	-0.51533794
50	0x3eedb570	0.46427488
51	0x3e95b53f	0.29239842
52	0x3ed62687	0.4182627
53	0xbeb4b5cc	-0.3529495
54	0x3e3b70b4	0.18304712
55	0x3ec96b10	0.39339495
56	0xbeaaa460	-0.33328533
57	0xbe7b0d04	-0.24516684
58	0xbf2c8cd6	-0.674024
59	0x3e9e31b4	0.30897295
60	0xbec1b0a3	-0.37830076
61	0x3e84d68a	0.2594493
62	0x3ec8b10d	0.3919758
63	0xbed4d38d	-0.4156765
64	0xbbbcccf3	-0.0057617365
65	0x3e7bb58f	0.24580978
66	0xbdbf8ece	-0.0935341
67	0x3e537d77	0.2065333
68	0x3e5a471e	0.21316192
69	0x3e9f9fe0	0.31176662
70	0x3e7c0f73	0.24615268
71	0x3ea5cfc5	0.32385078
72	0xbda562a4	-0.08075455
73	0x3e851212	0.2599035
74	0x3e51754a	0.20454898
75	0x3cbdf2c6	0.023187052
76	0x3e3430fc	0.17596811
77	0xbc239343	-0.00998384
78	0x3dd012bb	0.101598226
79	0xbde80ecc	-0.11330947
80	0x3e99e2e6	0.30055922
81	0x3e8b9a36	0.2726609
82	0x3e4fd8be	0.20297524
83	0xbd5fa4b4	-0.054600433
84	0x3de98493	0.1140224
85	0x3dd2fa50	0.103016496
86	0x3dbbd60b	0.09171685
87	0xbc43be4c	-0.011947226
88	0xbccfebd9	-0.025381016
89	0xbe1effa0	-0.155272
90	0x3e4bbeaf	0.19896959
91	0xbcc150d5	-0.023598114
92	0x39962ae0	0.00028642174
93	0xbdb66e42	-0.08907749
94	0x3e8224c5	0.25418678
95	0x3ea31dbe	0.3185863
96	0x3eb335bb	0.3500193
97	0x3ee89049	0.4542258
98	0x3f311419	0.6917129
99	0x3f299572	0.6624366
100	0x3f16ba13	0.58877677
101	0x3f3ee792	0.745721
102	0x3f33d364	0.7024443
103	0x3eb49c8a	0.3527568
104	0x3eccd450	0.40005732
105	0x3f0add2f	0.5424375
106	0x3f0366ed	0.5132893
107	0x3efda2b5	0.49538198
108	0x3ec345ff	0.3813934
109	0x3ef4221c	0.47682273
110	0x3ef75cd7	0.4831302
111	0x3ee390ad	0.44446316
112	0x3f00bac8	0.50285006
113	0x3f10e9b7	0.5660662
114	0x3f6219fd	0.88320905
115	0x3f264a99	0.64957577
116	0x3f18f80e	0.597535
117	0x3f1f6e92	0.6227809
118	0x3ee2b320	0.44277287
119	0x3f08d380	0.53447723
120	0x3f17452a	0.5908991
121	0x3eda7cb6	0.42673272
122	0x3f55585e	0.8333796
123	0x3edfe520	0.43729496
124	0x3f0ebe97	0.5575957
125	0x3e9a2279	0.30104426
126	0x3f055f64	0.5209868
127	0x3efa56b0	0.48894262

conv1.weight f4 [12, 32, 1, 12]
0	0xc040f4b5	-3.0149357
1	0xc018b89e	-2.3862681
2	0xc02e4c45	-2.7234051
3	0xc03850bf	-2.8799284
4	0xc04bd24b	-3.1847103
5	0xc0614c00	-3.5202637
6	0xc0687679	-3.632231
7	0xc05ec48c	-3.4807463
8	0xc06dc647	-3.715227
9	0xc0817a18	-4.046154
10	0xc0a63bdf	-5.1948085
11	0xc0c2b75f	-6.084884
12	0x4039a0b7	2.9004343
13	0x400c3b8f	2.1911352
14	0x4002926e	2.0401874
15	0x3ff97298	1.9488096
16	0x400b3463	2.1750724
17	0x4001886e	2.023952
18	0x3fe11954	1.7585855
19	0x3fd6b8fd	1.6775204
20	0x3fdc90e0	1.7231712
21	0x3fdc0b29	1.7190906
22	0x3fdc4d38	1.7211065
23	0x3fd88c2c	1.6917777
24	0xc045a217	-3.0880182
25	0xc03bc6de	-2.934013
26	0xc03a4360	-2.9103622
27	0xc02b0966	-2.6724486
28	0xbffaa8b0	-1.9582729
29	0xbfb2aecc	-1.3959594
30	0xbfb870fd	-1.4409481
31	0xbfb38f79	-1.4028159
32	0xbfc517fb	-1.5397943
33	0xbffc5c82	-1.9715731
34	0xc0720ed4	-3.782155
35	0xc08f7cef	-4.4840007
36	0x402d2d72	2.7058988
37	0x400ea20c	2.2286406
38	0x40004afa	2.0045762
39	0x3fd04e2a	1.6273854
40	0x3fa4bd2e	1.2870233
41	0x3f75a30d	0.9595192
42	0x3f860d23	1.0472759
43	0x3f9588bf	1.1682357
44	0x3fbdaceb	1.4818395
45	0x3ff9ae47	1.950631
46	0x40226f84	2.5380564
47	0x40550b92	3.3288312
48	0x4031b5e6	2.7767272
49	0x400fdb8a	2.2477746
50	0x3ffdd5bd	1.9830853
51	0x3ffb4d6a	1.9633
52	0x40013605	2.018922
53	0x3ff4f0b4	1.9135957
54	0x3fe96732	1.8234618
55	0x3fe4e7b7	1.7883214
56	0x3fe981c6	1.8242729
57	0x3ff4af8b	1.9116071
58	0x3feefc3b	1.8670725
59	0x3fee0603	1.8595585
60	0x402c476d	2.6918595
61	0x400defde	2.2177653
62	0x4003dda1	2.0604022
63	0x40000922	2.0005574
64	0x3ff8d49c	1.9439883
65	0x3ff2df01	1.8974305
66	0x3ff2ab96	1.8958614
67	0x3ff549cf	1.916315
68	0x3feeec9a	1.8665955
69	0x3ff3ce6b	1.9047369
70	0x3ff1b049	1.8881923
71	0x3ff91bc0	1.9461594
72	0x402ebcbd	2.7302697
73	0x400da51a	2.213202
74	0x4003b031	2.0576289
75	0x3ff6931b	1.9263643
76	0x3ff2aff9	1.8959953
77	0x3ff07515	1.8785731
78	0x3fea6ff5	1.8315417
79	0x3fee3734	1.8610597
80	0x3fe1961c	1.7623935
81	0x3fe2fa51	1.773264
82	0x3fe451c3	1.7837452
83	0x3fedb362	1.8570368
84	0xc03f2390	-2.9865456
85	0xc0182197	-2.3770502
86	0xc007acc5	-2.11992
87	0xc001911c	-2.0244818
88	0xc00d30d1	-2.2061045
89	0xbfd5667c	-1.6671901
90	0xbf68065e	-0.90634716
91	0xbeed6149	-0.46363285
92	0xbf260c97	-0.6486296
93	0xbf76e256	-0.9643911
94	0xbf9add74	-1.2098832
95	0xbf7adf6a	-0.9799715
96	0x4048ebc6	3.1393905
97	0x40572bd2	3.3620496
98	0x403ba9dd	2.9322426
99	0x40294aef	2.6451986
100	0x4008c277	2.1368692
101	0x3ff13c90	1.8846607
102	0x402f7d46	2.742021
103	0x4060baf7	3.5114114
104	0x40751fc7	3.8300645
105	0x4076f3f9	3.858641
106	0x40825587	4.0729403
107	0x408d1285	4.4085107
108	0x403502a1	2.8282855
109	0x401061eb	2.2559764
110	0x4006094c	2.0943174
111	0x3fff8f2c	1.9965568
112	0x400f3d1f	2.2381055
113	0x400271f8	2.038206
114	0x3fdfe0a9	1.7490436
115	0x3fd95583	1.6979221
116	0x3fd9c29b	1.7012514
117	0x3fd826aa	1.6886799
118	0x3fd836a6	1.6891677
119	0x3fdf73b1	1.7457181
120	0xc03269e6	-2.7877135
121	0xc00cb5be	-2.1985927
122	0xc0064e68	-2.0985355
123	0xc002b0db	-2.0420444
124	0xc00b6c10	-2.1784706
125	0xc00140de	-2.0195842
126	0xbfe97d48	-1.8241358
127	0xbfd5433f	-1.6661147
128	0xbfd86352	-1.690531
129	0xbfde3bb5	-1.7361971
130	0xbff01684	-1.8756871
131	0xbff31c14	-1.8992944
132	0x403d02d2	2.9532971
133	0x401529f0	2.3306847
134	0x40010397	2.015844
135	0x401b9754	2.4311113
136	0x401d3b16	2.4567313
137	0x3fd1f1dd	1.6401936
138	0x3f9c7bea	1.2225316
139	0x3f90bec7	1.1308221
140	0x3fbf9fa9	1.49706
141	0x3fdada61	1.7097894
142	0x3fddf7d0	1.7341251
143	0x3fbfd6fa	1.4987481
144	0x403ff375	2.9992344
145	0x40137d4e	2.304523
146	0x3ff5a445	1.9190756
147	0x4007f207	2.1241472
148	0x3fdfa6c1	1.7472764
149	0x3f5557ef	0.833373
150	0x3f6f698e	0.9352044
151	0x3fa8c465	1.3184935
152	0x3fe2e6fe	1.7726743
153	0x4008604b	2.1308773
154	0x402879bd	2.6324303
155	0x4026cb6d	2.6061661
156	0xc03cbd7c	-2.9490652
157	0xc0166ee4	-2.3505182
158	0xc00c8e85	-2.1961987
159	0xc015977d	-2.337371
160	0xbfe38f1a	-1.7778046
161	0xbfa313d1	-1.2740422
162	0xbfaac80a	-1.3342297
163	0xbfde007d	-1.7343899
164	0xc010592d	-2.2554429
165	0xc0287acd	-2.6324952
166	0xc049d181	-3.153412
167	0xc07ff1f0	-3.9991417
168	0xc03b9bca	-2.9313836
169	0xc01161fe	-2.271606
170	0xc006660a	-2.099978
171	0xc010b9c1	-2.2613375
172	0xc013f006	-2.3115249
173	0xbfe43ffe	-1.7832029
174	0xbfca6cf4	-1.58145
175	0xbfc4bd4b	-1.5370268
176	0xbfe02b3e	-1.7513196
177	0xbff0b494	-1.8805108
178	0xc01a2208	-2.408327
179	0xc028befd	-2.636657
180	0x4042a7b0	3.0414848
181	0x40196983	2.397065
182	0x401b23fa	2.4240708
183	0x40369b04	2.8532114
184	0x4039f754	2.9057207
185	0x40604185	3.503999
186	0x4052fca7	3.2966707
187	0x404870ac	3.131877
188	0x404c80d1	3.1953623
189	0x4064b3e6	3.5734801
190	0x4091f5c3	4.56125
191	0x40b6d3cd	5.7133546
192	0xc03831fc	-2.8780508
193	0xc00f0970	-2.234951
194	0xc00273f1	-2.0383265
195	0xc00fde37	-2.247938
196	0xc019d93f	-2.4038846
197	0xc00d0b93	-2.2038314
198	0xbfedeb05	-1.8587347
199	0xbfda1706	-1.7038276
200	0xbfe9c986	-1.8264625
201	0xbfebc3b8	-1.8419104
202	0xbffb7732	-1.964575
203	0xbff34e95	-1.9008356
204	0xc032a4d4	-2.7913103
205	0xc0097dbd	-2.1482995
206	0xc001ab60	-2.026085
207	0xbffaa7f8	-1.958251
208	0xbff6334f	-1.9234408
209	0xc00149ad	-2.0201218
210	0xbfe98087	-1.8242348
211	0xbfe096f9	-1.7546073
212	0xbfd9da8c	-1.701982
213	0xbfd42b87	-1.6575783
214	0xbfd5bad0	-1.6697636
215	0xbfcf70fd	-1.6206356
216	0x402f9c3a	2.7439103
217	0x400eef8d	2.233371
218	0x40058aea	2.0866036
219	0x3ff9043c	1.9454417
220	0x3ffdd450	1.9830418
221	0x400027e3	2.0024345
222	0x3ff36887	1.9016274
223	0x3fe551ad	1.791555
224	0x3fcf00ab	1.6172079
225	0x3fc6ed12	1.5541098
226	0x3fc5e7a3	1.5461315
227	0x3fca33ff	1.5797118
228	0x403b918d	2.9307587
229	0x40138a44	2.305314
230	0x3ff1fc99	1.8905212
231	0x4002fd96	2.0467277
232	0x3f8b10b0	1.0864468
233	0x3f82caf7	1.021819
234	0x3fad95e1	1.3561364
235	0x3fcb398c	1.5876937
236	0x3ffe93a0	1.9888802
237	0x401dac18	2.4636288
238	0x4053b2e5	3.3077939
239	0x4055d564	3.3411493
240	0x40372535	2.861646
241	0x400c2b64	2.1901484
242	0x40069413	2.1027877
243	0x4000b923	2.0112998
244	0x3ff614ed	1.9225136
245	0x3ff9f933	1.9529175
246	0x3fdde1b6	1.7334507
247	0x3fc7f197	1.5620602
248	0x3fc056f5	1.5026537
249	0x3fc64d3d	1.5492321
250	0x3fc8668e	1.5656297
251	0x3fb7e095	1.4365412
252	0xc037b752	-2.870564
253	0xc014ad47	-2.323076
254	0xc0116444	-2.2717447
255	0xc012ba6f	-2.292629

conv1.bias f4 [12]
0	0x3ff1a2b1	1.8877774
1	0x3feb553f	1.838539
2	0x3fedc908	1.8576975
3	0x3fe33a96	1.7752254
4	0x3fe91f70	1.8212719
5	0x3fe81104	1.8130193
6	0x3fe5e768	1.7961245
7	0x3fe32bae	1.7747705
8	0x3fe6e2a6	1.8037918
9	0x3fef0765	1.8674132
10	0x3fecbd80	1.8495331
11	0x3fe9e1f5	1.8272082
