Model Training and Evaluation Results/PEMS07/GRU/GRU_best_29.29.pth (torch, 33671 bytes, 6 tensors)

gru.weight_ih_l0 f4 [96, 1]
000000 83 03 15 3f cb 97 00 3e 58 bc 85 3f 7a 11 0e 3f
       0.58208483 0.12557904 1.0448103 0.5549542
000010 3e ed 56 b9 e7 19 22 3e 4e d4 4e 3b 0a fb 03 3f
       -0.0002049701 0.15830193 0.003155965 0.5155493
000020 9a 1e 93 3d 8f 85 f4 3c b4 2a a5 3e 16 33 88 3d
       0.07183571 0.029848842 0.32259142 0.06650369
000030 0d d8 31 3e f6 0b 4b 3e 9f cd ed 3d 13 a0 0e 3f
       0.17367573 0.19828781 0.11611485 0.55713004
000040 fc d3 26 3e d9 b6 33 3f 09 20 1c be fa 70 31 3e
       0.16291803 0.7020088 -0.15246595 0.17328253
000050 13 db 94 3d 03 3b 79 bc bc f8 9e be e3 44 49 bc
       0.072683476 -0.015211823 -0.31049144 -0.01228449
000060 86 5d 0b 3f 2b e1 31 3e fb 00 87 3f 48 03 60 3f
       0.5443958 0.17371051 1.0547174 0.87505007
000070 06 ec 48 3e 77 49 ce 3e 2c 1e b7 3d f0 ed 93 3e
       0.19621286 0.40290424 0.08941302 0.2889247
000080 52 7c 3c be dd 17 11 be 76 2b 0c be ad 14 11 bc
       -0.184068 -0.1416926 -0.13688454 -0.008855027
000090 92 56 48 bd 24 d8 79 bd 11 2f 8d be 9b aa 40 bd
       -0.048910685 -0.060997143 -0.2757497 -0.047037702
0000a0 a4 c0 83 bc 2b 80 ad bd 32 7e e2 be b6 20 a2 bc
       -0.01608307 -0.08471712 -0.44236904 -0.019790988
0000b0 ce b4 a5 be a6 05 58 bc 29 bc 5d bc 6f ad cc bc
       -0.32364506 -0.01318494 -0.01353363 -0.024985043
0000c0 cd 3a b6 bd 77 9f 08 bc 9d 0f 2b bd bc 98 79 bd
       -0.08897934 -0.008338801 -0.041762937 -0.060936674
0000d0 9b 18 33 bc f8 58 95 bc 70 d7 23 be e3 20 5b bd
       -0.010931159 -0.0182309 -0.16000152 -0.05349816
0000e0 9c 8a dd bb c4 e8 3c bb 14 e6 19 be f7 e7 16 bd
       -0.0067609083 -0.0028825263 -0.15029174 -0.036842313
0000f0 1e 7c 62 be de 6b 94 bd d2 35 8d 3b e4 b5 3e be
       -0.2211766 -0.072471365 0.0043093944 -0.18624073
000100 fd fb 03 be 20 f5 da be 34 94 c0 bc 76 d5 85 ba
       -0.12889095 -0.4276514 -0.023508169 -0.0010210711
000110 ee 96 7b bc bf ff 1d bd af ea 15 3d 8c 89 e1 bc
       -0.015355809 -0.038573977 0.036600765 -0.027531408
000120 71 d7 a3 3c 24 98 ec 3c a8 d9 87 3e a4 17 02 3d
       0.020000191 0.02888114 0.26533246 0.031760827
000130 3a e6 04 3d e0 58 52 3c e5 56 6f bc 36 8d ef 3c
       0.032446124 0.012838572 -0.01460812 0.02924214
000140 7b 7c 86 bc a3 6c 2a bd b4 f0 82 3d 08 50 71 bc
       -0.016416779 -0.04160751 0.06393567 -0.014728554
000150 0b 9e 4f 3c c2 74 30 bc dc 63 c6 bd 70 35 fd 3c
       0.012671958 -0.010770025 -0.096870154 0.03090927
000160 33 94 3a bc b1 b0 80 bb 42 a8 c1 3c dc ae 74 bd
       -0.0113878725 -0.0039273133 0.023639802 -0.05973707
000170 9d 3e 69 3e bc 7f 1b 3d 31 0a bd bc d6 e5 02 bd
       0.22777791 0.037963614 -0.023076149 -0.03195747

gru.weight_hh_l0 f4 [96, 32]
000000 51 4c 5e bf 5b 9b 48 3e ee d0 43 3f eb 1c e2 be
       -0.868352 0.19590513 0.76490676 -0.44162688
000010 f2 4f ed be f2 b0 20 3f 9a 08 b3 bd 2f 5b 8d 3e
       -0.46350056 0.6277 -0.08741875 0.2760863
000020 48 95 d2 bd c1 1f 0d bf 75 d5 40 3f 20 d1 c4 bb
       -0.102823794 -0.5512658 0.7532571 -0.006006375
000030 85 9f 46 be 12 bd 23 40 61 d2 03 3e d9 ce 17 bf
       -0.1939679 2.558415 0.12873222 -0.593
000040 45 03 2c bf 75 6c be 3f bf ab 76 bf 2b 9a 65 bd
       -0.6719249 1.4876848 -0.96355814 -0.05605523
000050 b0 7e c1 3f 52 d6 9c 3d ce 2b d0 be dc b5 81 bd
       1.5116787 0.07658066 -0.4065842 -0.06333515
000060 c7 11 ab 3f 1b 2d 13 c0 36 d7 08 bf 47 18 8f 3e
       1.33648 -2.299628 -0.53453386 0.2794821
000070 9a 29 a3 3e f7 78 8a be dc 26 9f be 5a 75 10 3d
       0.31867677 -0.27045414 -0.31084335 0.035268165
000080 f1 0b cc be 36 53 8f be 30 8b 62 be b9 b5 ff 3c
       -0.3985286 -0.27993172 -0.22123408 0.031214582
000090 73 eb 82 3e 73 b4 39 be df 28 15 3e e3 9b 42 3d
       0.25570258 -0.18135242 0.14566372 0.047511946
0000a0 7b 9e 2c ba e5 0b 5d 3e 33 f5 6c 3e 2b ad 2d 3f
       -0.0006584895 0.21586569 0.23140411 0.6784236
0000b0 a8 a2 d9 bc f4 ec 91 3e c8 f2 ba be e9 03 09 3e
       -0.026566818 0.28501093 -0.36513352 0.13380398
0000c0 5b ce 21 3f 96 ca 8e be 70 85 d8 3e 66 ef e5 3c
       0.632055 -0.27888936 0.42289305 0.028068256
0000d0 ba 15 22 be 43 ab 9d be 9c cf 45 be e7 40 39 3d
       -0.158286 -0.30794725 -0.19317478 0.04522791
0000e0 5f c8 51 be 11 2f 70 3d 23 89 fe bd c7 5f 5f be
       -0.20486592 0.058638636 -0.124285005 -0.2181388
0000f0 91 19 1a 3c ca 14 86 be f7 ce d0 3e 31 19 cf 3e
       0.00940551 -0.26187736 0.40782902 0.40448907
000100 39 41 21 3e 6a e2 81 bd b9 b7 d7 3d d7 51 d3 3e
       0.15747537 -0.06342013 0.10533089 0.41273376
000110 bf 38 f6 3d 53 1c fe bd 59 b3 4a 3e 33 c7 0d bf
       0.12022542 -0.12407746 0.19794978 -0.5538208
000120 45 e4 7f 3e 45 8b 9b be 4e 7c ae be f2 42 27 3e
       0.24989422 -0.30379692 -0.34079212 0.16334131
000130 b8 aa 0b be dc 10 f4 be 85 2b 4d bf d8 11 ac be
       -0.13639343 -0.47669113 -0.8014453 -0.33607364
000140 1c 4b 89 be c3 e8 dd 3e f5 2b 19 bf 16 7b d9 bc
       -0.26815116 0.43341646 -0.598327 -0.02654795
000150 59 61 f6 3e d4 9d c3 be 35 21 01 bc cf c9 13 3f
       0.48121145 -0.3820635 -0.007881452 0.5772981
000160 a6 e1 1b be e6 28 b8 3e ef e0 8b 3f ad 5c 4c 3f
       -0.15222797 0.35968703 1.0928019 0.7982891
000170 50 21 14 bd dc b9 1e 3f 06 36 f6 be 09 7c 89 bf
       -0.03616458 0.6200235 -0.48088092 -1.0740978
000180 d9 f7 1b be 7d f8 5b 3e 88 d8 15 3f 72 f6 08 bc
       -0.15231265 0.2148151 0.58533525 -0.008359538
000190 06 9e 96 3d 4d 02 ee 3d 24 e1 4f 3e dd d7 29 3d
       0.07354359 0.116215326 0.20300728 0.04146563
0001a0 1d 3f 3a bc a8 e7 94 be ba b3 3e 3d 1a 89 0d 3f
       -0.011367586 -0.2908299 0.04655812 0.55287325
0001b0 92 f5 34 3e 83 b9 07 bf 2a 9a 91 3e 3c e2 a4 3f
       0.17671803 -0.53017443 0.2843793 1.2881541
0001c0 c7 c5 d1 3e 5a 3c b3 be b7 36 dd 3f a0 ea 87 be
       0.40971205 -0.35006982 1.7282323 -0.26546192
0001d0 0c 5d bb bd f7 97 ab be a4 c5 aa 3e ab 8a 55 be
       -0.09148607 -0.33514377 0.33353913 -0.20853679
0001e0 7d cc ab 3b 39 c0 b9 ba b0 46 4f be e7 d8 b1 be
       0.0052428828 -0.0014171667 -0.20241809 -0.34735796
0001f0 17 a0 a1 be d3 57 07 bf f7 c6 e0 3d 46 47 2a bd
       -0.3156745 -0.52868384 0.109754495 -0.041571878
000200 d5 af 2c be 30 5a c7 be e2 0c 80 be 68 31 fa 3f
       -0.1686395 -0.38935995 -0.2500983 1.9546328
000210 f1 c5 83 3f dd d5 bf bd 3e eb 1d 3e 52 20 2b bd
       1.0294782 -0.09366963 0.15421769 -0.04177887
000220 44 0c 3a be df 57 45 3e f9 1c 68 3e 66 93 b7 be
       -0.18168741 0.19271801 0.22667302 -0.35854644
000230 60 ed 17 be 5e c5 16 be 81 a9 f0 3e 32 dc 28 3d
       -0.14836645 -0.14723727 0.4700432 0.04122562
000240 d1 0a eb 3e ce bd e3 be 55 52 d7 3e ee e7 f6 3c
       0.4590669 -0.44480747 0.42055002 0.03013989
000250 b4 34 10 bf 7e 50 16 3e fe b1 dd be 6e bd 98 be
       -0.5633042 0.14679143 -0.4329986 -0.29832023
000260 66 76 53 bf 8d 35 ac 3f 8c 3e 2a 3e 2f 12 82 be
       -0.82602537 1.3453842 0.16625422 -0.25404498
000270 77 18 96 3e 06 bd 01 3e e0 f5 08 3e 6e 4f c6 3d
       0.2931554 0.12669763 0.13375044 0.09683119
000280 80 d8 21 3e fa f0 0e 3e 99 85 15 bf a7 51 8b bd
       0.15805244 0.13959113 -0.5840698 -0.06802683
000290 ac f7 bc be 78 0b 77 be d2 bf 68 3f c4 ab b0 3e
       -0.3690771 -0.24125469 0.90917695 0.34506047
0002a0 de c8 9c 3e d1 b0 d7 3d 15 0a 13 3e 5e b1 ae 3e
       0.30622 0.10531772 0.14359315 0.34119695
0002b0 d0 18 8e 3e 7d a7 66 3f 5c 50 d9 be bc 23 9a 3e
       0.27753305 0.90099317 -0.42444122 0.30105388
0002c0 34 69 6a bf 56 44 a8 3f 84 61 38 bf 7a fc 03 c0
       -0.9156678 1.3145854 -0.720238 -2.062285
0002d0 36 5c 53 3f a1 ec de 3d 42 c7 25 be 78 c9 06 3f
       0.8256258 0.10884977 -0.16189292 0.52651167
0002e0 8e 14 2e 3e 13 c4 78 be ea f7 84 3d da 40 cc 3e
       0.17000028 -0.24293546 0.06492598 0.39893228
0002f0 05 f4 9f 3d 1e 39 d2 3e dc 57 c7 bf f3 a5 8e be
       0.07810215 0.41059202 -1.5573688 -0.27860984
000300 57 8f a4 be b3 03 90 be 6a ac dc bd 25 ff 15 bd
       -0.3214061 -0.28127822 -0.10775073 -0.036620278
000310 a7 6a 6a 3f ce da a6 3d b6 68 56 3e d5 3b 2d bf
       0.9156899 0.081472024 0.20938382 -0.6766942
000320 3d 8a 68 bf 72 a1 ad 3e 4f 58 68 3e a5 69 a4 3e
       -0.90835935 0.33912235 0.22689937 0.3211185
000330 74 dc a1 3e 25 f0 8d be e9 ef 93 3f ca 5a c2 3e
       0.31613505 -0.27722278 1.155759 0.37959892
000340 5f a5 55 3e fd e0 05 bf 91 a1 8f 3e 38 e1 46 3e
       0.20863865 -0.5229643 0.28052953 0.19421852
000350 42 a8 eb be 60 bd 7a 3e 7c 4d b5 be d5 b2 98 be
       -0.46026808 0.24486303 -0.35410678 -0.29823938
000360 d8 3f c9 be c3 65 d7 3f 9b c4 60 3e a1 c3 e9 be
       -0.3930652 1.682793 0.21949999 -0.45657066
000370 bb d8 80 3e 2a e4 e3 3e b5 7a 5f 3f ea e3 f7 3e
       0.25165352 0.44510013 0.8729661 0.48416072
000380 07 b3 a4 bd 13 84 7f 3c 09 9d a8 bf 9a eb 35 3c
       -0.08041959 0.015595454 -1.3172923 0.011103535
000390 81 c3 11 3f 8b 74 02 bf 4b 2f 9b bd 60 ea b4 be
       0.5693894 -0.5095908 -0.0757738 -0.35335064
0003a0 80 d5 3f be e1 70 31 3c a5 19 16 3e 44 46 0e bf
       -0.18733788 0.010830135 0.1465822 -0.55575967
0003b0 f9 8b bb bc 41 c5 56 3e 2e 6c 1e bf 1d 27 25 bf
       -0.022893893 0.20973684 -0.6188382 -0.6451281
0003c0 84 92 d2 bf 57 1a 1d be e8 d2 7c bf 54 36 4d bf
       -1.6450963 -0.15342079 -0.9875932 -0.80161023
0003d0 52 5e d0 3e e3 3f e8 3e d8 04 1e be 56 37 11 3f
       0.4069696 0.45361242 -0.15431535 0.5672506
0003e0 cb 20 d4 bd 9c d0 d5 3d 1e c4 5a 3d 72 76 27 3e
       -0.10357817 0.1044018 0.05340969 0.16353777
0003f0 c9 f5 1c be 03 25 85 3f ff cb 4a bd a7 9a ff bd
       -0.15328135 1.040192 -0.049510952 -0.124806695

gru.bias_ih_l0 f4 [96]
000000 a3 f9 0b 3e 27 9a 42 3e b9 eb 73 3f d5 59 87 be
       0.13669448 0.19004117 0.9528156 -0.26435724
000010 cc a5 4d 3e 07 37 3c 3e 77 94 20 3e 33 6a c0 3d
       0.20082778 0.18380366 0.15681635 0.09395256
000020 56 6d e9 be 10 c4 80 3f 44 72 3a 3e dd df c2 3e
       -0.4559123 1.0059834 0.18207651 0.3806142
000030 4b c6 ac be f4 2a e6 3b 87 de 4f 3c 6f 75 fe bd
       -0.33745036 0.0070241634 0.012687332 -0.124247424
000040 e6 13 1b bf 6d 44 4f bd b1 9a d8 3e a0 06 3c 3e
       -0.6057724 -0.050602365 0.4230552 0.18361902
000050 96 f1 da be bd 1e 1f 3f cc 12 ec 3e 3e db 23 3f
       -0.4276244 0.6215628 0.4610809 0.6400641
000060 ed 35 af 3e 2e f8 00 3f c0 0d 8d be 22 7c 05 3f
       0.3422083 0.5037869 -0.27549553 0.52142537
000070 71 7f 93 3f e2 dd 90 bd 8c 07 77 bd 66 1d 5d be
       1.1523267 -0.07073571 -0.06030993 -0.21593246
000080 03 fc 56 bd c0 37 95 bd e6 e6 2f be c4 87 58 be
       -0.05248643 -0.07286024 -0.17177925 -0.2114554
000090 71 d7 4a be 72 c6 b6 be 3a cd d5 3e 9c 2c d8 3e
       -0.19808747 -0.35698277 0.41758138 0.42221534
0000a0 92 11 8b 3e d9 c1 91 be aa 19 ff be b9 a9 eb 3d
       0.27161843 -0.28468207 -0.49824268 0.115069814
0000b0 c1 0b 50 3f 2e 5a a5 be 9a 75 85 3f c8 3f d1 3e
       0.81267935 -0.32295364 1.0426514 0.40868974
0000c0 2f 92 80 3f 88 b3 69 3f 8e e0 65 3f 13 7c 66 be
       1.0044612 0.9128957 0.8979577 -0.22508268
0000d0 34 85 8f be 99 eb 9f bd 2a e7 a0 be 59 dc 72 3e
       -0.28031313 -0.078086086 -0.31426364 0.23716868
0000e0 29 e8 3b 3f 1a f2 91 3e ca 3b 95 be b6 05 13 3e
       0.73401123 0.2850502 -0.29147178 0.14357647
0000f0 27 d8 83 bf 00 d3 9b be 3e 58 ee 3e 5b 64 97 3f
       -1.030034 -0.30434418 0.46551698 1.1827501
000100 c9 3f 6b be 19 a6 8e be 4c 57 d5 bd 12 15 80 bf
       -0.22973551 -0.27861097 -0.10417041 -1.000643
000110 3f d3 9a 3e 84 6c 29 3e be 6b 2b be f3 80 e2 3b
       0.30239293 0.16545302 -0.16740319 0.0069123446
000120 e4 30 96 bd 5e 6c e3 3e 8a 48 1f 3e ce 32 80 39
       -0.07333544 0.44418615 0.15555015 0.00024451915
000130 18 33 21 be 5a f9 91 be 91 c0 91 3c f2 21 46 bd
       -0.15742147 -0.28510553 0.017792018 -0.048372217
000140 db bb 70 3e ca 85 1c 3f 4d 0f 2e be 43 40 b4 be
       0.23509161 0.61141646 -0.16998024 -0.35205278
000150 2f ee 26 bf d1 d9 18 be 74 cb f1 be e6 eb 1f be
       -0.6520719 -0.1492684 -0.47225535 -0.15617332
000160 3b ca 4a 3f 4c 3b 6c bf 13 49 65 3d ea e5 93 3e
       0.7921483 -0.9227798 0.055977892 0.28886348
000170 7b 03 8a 3f ea a3 3e bd 29 54 9d 3e ad 91 0f 3f
       1.0782312 -0.04654304 0.30728272 0.5608166

gru.bias_hh_l0 f4 [96]
000000 a1 c4 e3 3e d0 54 ba 3d 31 11 53 3f b6 57 a7 be
       0.44485953 0.09098208 0.82448107 -0.32684106
000010 13 22 b1 3e c6 b8 36 3c 29 da 43 3e fe c1 6c bd
       0.3459631 0.011152452 0.1912619 -0.057802193
000020 09 19 b4 be 8c bd 32 3f 8d 9b 93 3d 95 80 ad 3e
       -0.3517535 0.69820476 0.07207403 0.33887163
000030 b1 57 5b bd 52 54 87 bd c2 0f aa bb 3d 97 06 3e
       -0.053550426 -0.0660788 -0.0051898668 0.1314363
000040 bb 34 1f bf 66 9d cc 3d f4 12 00 3f dc 10 67 3d
       -0.62189835 0.09990959 0.5002892 0.056412563
000050 ca d5 30 be f7 41 43 3f d5 9b 1a 3f 1c 49 f9 3e
       -0.17269054 0.7627253 0.6039403 0.4868859
000060 00 6c 87 3e 1d fc 2a 3f 53 51 9a be 38 fd ee 3e
       0.26449585 0.66790944 -0.3014017 0.46677566
000070 c8 cc 98 3f 61 0f 6b be 06 36 a3 be 6e 21 a6 be
       1.1937494 -0.22955085 -0.31877154 -0.3244738
000080 1b ef 00 3d 21 a5 a0 be d3 f7 dd be 7e da c2 bd
       0.03147803 -0.31375983 -0.43353137 -0.0951433
000090 c8 f2 37 be 10 79 75 be 27 84 49 3e 86 fc d4 3e
       -0.17963707 -0.23971963 0.19679318 0.4159891
0000a0 c9 d1 e1 3e 45 e8 0b bf 7d ac c8 be af 16 b2 3c
       0.44105366 -0.5465129 -0.39194098 0.021739332
0000b0 d7 45 6c 3f 57 a9 18 be 9d 86 68 3f 04 08 dc 3e
       0.9229407 -0.14908348 0.90830404 0.42974865
0000c0 a9 f4 9e 3f 75 f0 64 3f e7 2b 46 3f da df fb bd
       1.2418414 0.8942941 0.7741074 -0.12298556
0000d0 d4 fb a6 be dd c0 c8 bd 83 16 98 be 48 53 6b 3e
       -0.32614005 -0.09802411 -0.29704675 0.22980988
0000e0 1d be 24 3f 3d 0f 74 3e b0 78 cc be c1 0e f3 3d
       0.6435259 0.23833938 -0.39935827 0.118680485
0000f0 1b b0 7e bf cd 72 8b be 95 86 e4 3e 82 62 91 3f
       -0.99487466 -0.27236024 0.44633928 1.1358187
000100 79 7f 15 be d7 02 75 be cf 5e 09 bf 8d 64 6a bf
       -0.14599408 -0.23926865 -0.5366029 -0.9155968
000110 34 e7 f2 3e 42 6d 0c bc 91 3f 9d be 96 d7 1b 3e
       0.4744202 -0.008570971 -0.3071256 0.15218958
000120 7f a1 04 bf db bd e6 3e 46 d1 b6 3c 44 cd b9 be
       -0.51808923 0.45066723 0.022316586 -0.36289418
000130 9a f6 56 be 73 ef ec be 73 f8 a2 3e 31 05 53 be
       -0.20992509 -0.46276435 0.31830177 -0.20607449
000140 8a 99 c3 3e 8e 3b 2c 3f b3 fd 06 bf 37 19 8e be
       0.38203079 0.67278373 -0.52730864 -0.27753612
000150 be 55 23 be 33 03 03 be f1 08 1d bf 6c 8f 4c bf
       -0.15950677 -0.12794189 -0.6134177 -0.79906344
000160 98 f5 71 3f 89 6b 86 bf 61 92 67 3d 9c 03 ab 3e
       0.9451537 -1.0501567 0.056536082 0.3340119
000170 d8 6d 9c 3f a5 b9 47 bc 7f 44 f1 3e dc af f9 3e
       1.2221022 -0.012190257 0.4712257 0.48766983

conv1.weight f4 [12, 32, 1, 12]
000000 b3 2d 14 c0 42 f5 1a c0 57 dd 1b c0 e0 21 17 c0
       -2.3152893 -2.4212193 -2.4353845 -2.3614426
000010 fd 84 16 c0 83 ec 1b c0 0b ef 1a c0 a4 52 17 c0
       -2.351867 -2.4363105 -2.42084 -2.364419
000020 76 8f 19 c0 73 58 15 c0 d9 f4 19 c0 57 93 19 c0
       -2.3993812 -2.3335235 -2.4055693 -2.399618
000030 fc 38 01 c0 84 2c 00 c0 c5 32 fa bf 8c c0 ff bf
       -2.019103 -2.002717 -1.9546744 -1.9980636
000040 a5 65 02 c0 2b 3b fb bf b9 46 01 c0 e5 0f fd bf
       -2.037454 -1.9627432 -2.0199416 -1.9770476
000050 c5 ca f8 bf 16 66 fc bf 71 31 fa bf 39 61 02 c0
       -1.943688 -1.9718654 -1.9546338 -2.037184
000060 6d 1a 04 c0 8f 3d 05 c0 5d e5 fc bf b4 2c 02 c0
       -2.064113 -2.0818822 -1.9757496 -2.0339785
000070 9a 5d f1 bf 52 23 e1 bf a1 e6 d0 bf e8 cc d8 bf
       -1.885669 -1.7588904 -1.6320382 -1.6937532
000080 e1 e0 e5 bf 9b 2b d7 bf 0b df de bf bc a3 ab bf
       -1.7959253 -1.6810182 -1.7411817 -1.3409343
000090 28 34 8d 3f 9f 18 5c 40 a7 47 65 40 ea ee 5d 40
       1.1031542 3.4390028 3.5824983 3.4677072
0000a0 2c d2 53 40 94 f7 55 40 a5 45 52 40 c4 93 57 40
       3.3097029 3.343236 3.2855008 3.368394
0000b0 c6 e6 61 40 9b c4 6a 40 60 15 72 40 37 a7 79 40
       3.5297103 3.6682498 3.7825546 3.900831
0000c0 0b 85 14 c0 6d 3b 1d c0 b0 04 9d be ab 76 95 bf
       -2.3206203 -2.456752 -0.3066764 -1.167684
0000d0 97 cd d7 bf c6 9b e3 bf 8f 04 2d c0 aa 75 3f c0
       -1.6859616 -1.7781913 -2.7034032 -2.9915566
0000e0 f6 d1 4f c0 d6 0a 67 c0 b5 15 5d c0 ab b7 ce c0
       -3.24719 -3.6100364 -3.45445 -6.4599204
0000f0 77 36 eb bf ff 7a da bf ce ff 00 c0 a8 20 cc bf
       -1.8375996 -1.7068785 -2.015613 -1.5947466
000100 ef 5e b4 bf d9 fb 91 bf f1 11 47 bf 48 bd b5 bf
       -1.4091471 -1.1404983 -0.7776175 -1.4198389
000110 2b 27 bc bf 7b 89 ad bf 13 ec cf bf 7e 49 24 bf
       -1.4699453 -1.3557581 -1.6243919 -0.6417464
000120 45 f6 0e 40 d1 1f 07 40 2f 82 d5 3f 31 3d 1d 3f
       2.233781 2.111317 1.6680354 0.61421496
000130 cd e0 a0 3f 7c 32 be 3f 38 b8 c8 3f 60 5f fc 3f
       1.2568604 1.4859157 1.5681219 1.9716606
000140 fe fd 04 40 f5 ec 1f 40 0d ad 8d 40 61 04 4b 40
       2.0780025 2.4988377 4.4273744 3.1721423
000150 c7 19 ee bf 1a 74 ea bf 02 ed f4 bf 31 eb f6 bf
       -1.8601617 -1.8316681 -1.9134829 -1.9290525
000160 ba 69 dc bf e5 07 8e bf fa 65 c1 bf 33 18 a4 bf
       -1.7219765 -1.1096159 -1.5109246 -1.2819885
000170 02 90 af bf 95 43 00 c0 0b ed 19 c0 ed a4 07 c0
       -1.3715823 -2.0041249 -2.405093 -2.1194413
000180 c0 bb 17 40 2a 42 37 40 79 26 37 40 ba 9d 08 40
       2.3708344 2.8634133 2.8617232 2.1346269
000190 b9 f4 d3 3f ce 2b f1 3f 73 eb 08 40 0c 85 2e 40
       1.6559058 1.8841493 2.1393707 2.7268705
0001a0 d6 38 36 40 e9 45 7c 40 f5 20 a5 40 01 94 ba 40
       2.847219 3.941767 5.160273 5.830567
0001b0 a4 0d 01 40 78 7c 00 40 21 03 00 40 68 e3 00 40
       2.0164576 2.007597 2.000191 2.0138798
0001c0 41 c2 01 40 e7 cd 00 40 c2 f6 fc 3f 3d dc 08 40
       2.0274813 2.0125673 1.9762805 2.1384423
0001d0 de 42 1a 40 91 ba 13 40 ad 2d 06 40 b1 1c 00 40
       2.4103312 2.308262 2.0965378 2.0017512
0001e0 b4 34 11 40 92 86 16 40 3f 57 18 40 04 13 1d 40
       2.2688417 2.3519635 2.380325 2.4542856
0001f0 f4 3a 19 40 bb 20 1e 40 d8 f9 18 40 fc 5e 1b 40
       2.3942232 2.4707477 2.3902493 2.4276724
000200 1d 1e 19 40 3e 48 19 40 1b ae 18 40 ea 83 19 40
       2.392463 2.3950343 2.3856266 2.3986764
000210 3d 93 ff 3f 7f 22 ee 3f fd 65 14 40 12 37 ee 3f
       1.9966809 1.8604277 2.3187249 1.8610556
000220 f1 51 55 3f 07 28 d9 3f 09 51 07 40 fd d3 3a 40
       0.8332816 1.696534 2.114321 2.9191887
000230 8d 48 3e 40 38 b5 64 40 fe 17 8e 40 b0 a3 a4 40
       2.9731781 3.5735607 4.4404287 5.1449814
000240 12 c6 f1 3f 81 f4 13 40 e2 a5 04 40 3c 5f ea 3f
       1.8888571 2.3117983 2.0726247 1.8310313
000250 5e 83 e5 3f 5c 00 b5 3f ae f9 ce 3f 50 db aa 3f
       1.7930715 1.4140735 1.6169946 1.3348179
000260 ab eb d4 3f 78 cd f9 3f 36 a5 35 40 e6 bb 17 40
       1.663442 1.9515829 2.8382087 2.3708434
000270 48 58 1e 40 e6 e9 19 40 a8 0d ff 3f 44 8d 6f 3f
       2.4741383 2.404901 1.9926043 0.9357493
000280 aa e0 64 3f e3 6d ab 3f 50 a7 e1 3f 67 d8 03 40
       0.8940531 1.339291 1.7629185 2.0600832
000290 0b 47 11 40 8c 6b 1a 40 c8 17 3a 40 d0 8a 92 40
       2.269961 2.4128141 2.9077015 4.579445
0002a0 17 61 14 c0 09 ad 0e c0 7e f9 1e c0 a7 cd 15 c0
       -2.318426 -2.2293112 -2.4839778 -2.340677
0002b0 d5 ae cd bf 1c 16 00 bf 02 e3 90 bf 80 e0 cb bf
       -1.606898 -0.50033736 -1.1319277 -1.5927887
0002c0 46 c5 03 c0 df 24 25 c0 65 fd 42 c0 93 11 87 c0
       -2.0589156 -2.5803754 -3.046716 -4.2208953
0002d0 d8 d3 25 40 06 06 2e 40 18 6f 20 40 1a 0e 1d 40
       2.591055 2.7191176 2.5067806 2.4539857
0002e0 da eb 15 40 de 24 14 40 45 c6 11 40 11 47 15 40
       2.3425202 2.3147502 2.2777264 2.3324625
0002f0 f9 06 0f 40 37 c3 11 40 e8 34 10 40 33 70 09 40
       2.2348006 2.27754 2.2532291 2.147473
000300 7a 84 f8 bf ed 3a 10 c0 d1 c5 b2 bf 8f f1 1a be
       -1.9415429 -2.2535965 -1.3966619 -0.1513121
000310 35 aa f3 be ae e2 82 bf 42 c3 dd bf 53 52 17 c0
       -0.47590795 -1.0225427 -1.7325213 -2.3643997
000320 b3 e1 2a c0 66 21 71 c0 14 cd a3 c0 93 bc ea c0
       -2.6700256 -3.7676635 -5.118784 -7.3355193
000330 ae 6c 1d c0 9e 5a 18 c0 74 dc 16 c0 42 11 1c c0
       -2.4597583 -2.3805308 -2.3572054 -2.4385533
000340 e0 92 1b c0 34 79 1a c0 20 ee 1b c0 e8 d2 18 c0
       -2.4308395 -2.4136477 -2.436409 -2.3878727
000350 35 81 17 c0 97 7c 18 c0 19 70 17 c0 5c c0 19 c0
       -2.3672612 -2.3826044 -2.366217 -2.4023657
000360 42 d8 fd 3f 10 e8 f9 3f 50 19 f7 3f 7c f9 f9 3f
       1.9831622 1.9523945 1.93046 1.9529262
000370 74 04 fa 3f 89 53 01 40 db a8 fb 3f 4c 8e fc 3f
       1.9532609 2.0207236 1.9660906 1.9730926
000380 bb 58 f8 3f 05 5e fa 3f bb 09 fc 3f 38 dc fa 3f
       1.9402078 1.9559942 1.969047 1.9598455
000390 89 68 f8 bf d5 5c e1 bf 50 9b 00 c0 58 85 d7 bf
       -1.9406902 -1.7606455 -2.0094795 -1.6837568
0003a0 bd 3b 96 bf d2 bd 5e bf 0c 20 87 bf e8 8e 6e bf
       -1.1736981 -0.8700839 -1.0556655 -0.9318681
0003b0 28 7e 90 bf 43 a0 ec bf 5f 93 3d c0 8e 88 e5 bf
       -1.12885 -1.8486408 -2.9621198 -1.7932298
0003c0 e1 a0 1f 40 4f 26 1f 40 00 0d 02 40 45 25 cd 3f
       2.4941943 2.4867132 2.0320435 1.6026999
0003d0 dd b2 61 3f 7a af 4b 3f 7e 87 85 3f 1c 44 bb 3f
       0.8816355 0.7956463 1.0431974 1.463016
0003e0 b6 00 df 3f 55 89 0f 40 7d 78 2e 40 0f d3 8e 40
       1.7422092 2.242757 2.726104 4.463264
0003f0 ff 52 05 c0 12 e1 34 c0 a6 e1 36 c0 a9 2d 22 c0
       -2.0831907 -2.8262372 -2.8575225 -2.5340369

conv1.bias f4 [12]
000000 0e ac 04 40 c3 0c 05 40 b1 33 03 40 e7 af 08 40
       2.0730014 2.078904 2.05003 2.1357362
000010 de ab 08 40 2e 73 04 40 5d 7c 07 40 46 f9 02 40
       2.13549 2.06953 2.1169655 2.0464644
000020 09 c8 00 40 e1 e6 05 40 2b 57 04 40 d0 7f 01 40
       2.0122092 2.0922167 2.0678203 2.023426
