Model Training and Evaluation Results/PEMS08/LSTM/LSTM_best_22.21.pth (torch, 38151 bytes, 6 tensors)

lstm.weight_ih_l0 f4 [128, 1]
00000000: 3c39 bf3d 8484 ac3d bf63 c13d 7bef b93c
00000010: 333f 123f 5062 413d 73e2 de3c 942e 113e
00000020: 3b9e 323d 79e3 aa3c d01c f93b 3018 793c
00000030: 2c8b fc3b b342 ee3e 9c41 963d 0270 283d
00000040: 1095 973e 7948 ba3c 71df 2a3d 40ce ff3c
00000050: cdbc 3e3d e0a5 b43c d430 ff3c 1bbe 5f3e
00000060: 1666 b53c 8d25 b53d dd0f 2e3c 36ab b63c
00000070: fab7 cd3d bc1b ee3c 8e4f 2c3d fe49 803d
00000080: d335 be3d b337 f43c a218 bcbb 178f 3e3d
00000090: 7663 d73d f1f0 29ba f92d 0e3a b78e 1c3d
000000a0: 874f e93b 449b af3e bc41 953d 4ba6 233d
000000b0: 6293 da3c cc7d c63b 6599 da3b 3d02 593c
000000c0: 1ab3 b53d 6585 29bb 8f1a b43d 4470 353d
000000d0: a991 283e 5ae5 353c dafd 0c3c 7cfb bb3e
000000e0: c223 043d c5f4 713b 4c0a 023e 9192 303c
000000f0: e5fc e23b b9ef da3a 5e99 ea3b 5fdd df3b
00000100: bee9 0ebe 7346 b5bd 665b 013d a2fe 9f3c
00000110: 77a9 8dbe b5e7 97bc 246d 043d 280c bbbd
00000120: 5396 a93c fd0e c3bc a9f8 1d3c 3ac8 ed3c
00000130: 9a86 573c 7937 913c 6950 66bd 94a5 703d
00000140: 2e9c 7dbd 9e57 76bc e607 003d ead2 c5bc
00000150: faf1 ce3c d54f 21bd 96f4 edbc dd58 1e3e
00000160: 38cf e8bc 93f3 9c3d a723 d4bb 0d21 81bc
00000170: ac64 89bd deef 9d3c 9f06 cbbc 4032 c1bc
00000180: 1c6f a83e c32d 673d 7e49 8e3d d035 0e3f
00000190: 4a2f dc3e a657 813d f25e 413e 02e7 353d
000001a0: 2a28 7e3d 497a 3a3e 1385 ac3d 68ee 503d
000001b0: e230 e93c 6277 6e3d 315f fe3d d75b 443d
000001c0: 36a2 303d 03a9 7a3d a02f b63d b32f 243e
000001d0: a767 143e 8b93 133d 87e4 803d 230e 393d
000001e0: debe 2f3d 3782 123d 74eb 003e 5392 a43d
000001f0: e73b 1e3d 898d f53c 097b 0f3d 9a33 bd3c
0.093370885 0.08423713 0.09442853 0.022697201 0.57127684 0.0472129 0.027207589 0.14177924
0.04360793 0.02086042 0.0076023117 0.015203521 0.0077070203 0.46535262 0.07336733 0.041122444
0.29605913 0.022739636 0.041716997 0.031226277 0.046566773 0.022051752 0.031151213 0.21849863
0.022143405 0.08845053 0.010623899 0.022298437 0.10044856 0.02906596 0.042068057 0.06264113
0.0928761 0.029811716 -0.005740241 0.04652318 0.105170175 -0.00064827414 0.00054237206 0.03822204
0.007120076 0.34298146 0.072879285 0.03995351 0.026681606 0.0060574766 0.006671118 0.013245163
0.088720515 -0.0025866863 0.08794128 0.044296518 0.16461815 0.011102045 0.008605445 0.36715305
0.032260664 0.0036919576 0.1269924 0.010777132 0.00692712 0.0016703523 0.007159396 0.0068318094
-0.13956353 -0.08851328 0.031581305 0.019530598 -0.27668354 -0.018543104 0.032330647 -0.09133178
0.020701563 -0.023810858 0.009641805 0.02902614 0.01315465 0.017726647 -0.05622903 0.058751658
-0.061916523 -0.015035538 0.031257533 -0.024148423 0.025261868 -0.039382774 -0.029047292 0.15463586
-0.028419122 0.076636456 -0.0064739767 -0.01576283 -0.06708655 0.019279417 -0.02478343 -0.023583531
0.3289727 0.056440126 0.06947611 0.5555086 0.4300483 0.06315546 0.18883875 0.04440976
0.062050022 0.1821071 0.084238194 0.051008612 0.028465692 0.05821932 0.124205 0.047939148
0.043123446 0.06119634 0.088958025 0.16033821 0.14492665 0.03602938 0.06293588 0.045179497
0.042906635 0.035768714 0.12589818 0.08035722 0.038631346 0.029974716 0.035029445 0.023095895

lstm.weight_hh_l0 f4 [128, 32]
00000000: c01f 1b3f 9db1 743f 75ff 8abe 53e7 903e
00000010: 7adf 173f 89c7 1f3f 9edc 8b3e be8e 963e
00000020: ba0f f1be 396f c8be c07f f33e 2bd4 b53e
00000030: 1ab6 80be f98e debe ed42 45be cb79 683e
00000040: 2e46 1d3f 89c9 8a3e 0852 0a3d 1f93 38be
00000050: 56a6 2c3e 0c85 533e 6296 0b3e 510f 8cbe
00000060: a073 db3d d148 363e b09a f63e 493b 093f
00000070: fa6e 013e b4e0 44be be3c b93e ad6c 723d
00000080: 8d88 6dbe 33a6 2d3d 3194 e7be 2529 b03c
00000090: 013d 83be d857 723e 21a3 00be 3d3e 79be
000000a0: 390e cebe 7523 813f 5786 57bf 2010 c4bd
000000b0: 6fc4 8abf 4397 0fbf 46d3 633d 8831 7cbe
000000c0: 467e 173f 2ef0 6f3f 9519 e0be 4422 dc3e
000000d0: 2d20 fc3d 5213 8b3e 48ac f2bd b349 bbbd
000000e0: fc31 553f c59d 353f d9ba 58be b313 d23d
000000f0: f834 633e 490f a5bf b9e4 a83f ff95 4f3f
00000100: 5c7f 923e 56db e53e 0ccd 9fbe 934a c0bd
00000110: 59de 003f 9cbb f93e a009 273e 3df0 85be
00000120: c1af 48be f562 81be 9794 bc3e 1f60 8e3f
00000130: cb97 53bf 0456 223e 8ce9 f93e 5ded ee3d
00000140: d22d 0b3f 1a9b 8cbe 6bf6 b83e 3bb0 63be
00000150: c1ac 7fbe 0a1b 003f 271c cdbd 19f9 73be
00000160: 3133 cf3e 4823 1a3e 10c6 2e3e 9742 a33e
00000170: 523c bebe 2980 f0be 3193 b9be ebb5 5dbe
00000180: 1357 e23e 2170 993e 3512 babe 5487 4bbf
00000190: 7eec 083f 40ad a93c 588e 5d3c 5f67 633e
000001a0: d464 a83e 3d53 123e 412b 9c3e d8eb a73d
000001b0: 62c5 4e3f c03c 6d3f c3ac 0c3f d2d7 cfbe
000001c0: 70f8 4f3d e62c 80be 65d0 83be 8b0d 133f
000001d0: 8fa4 f5be a868 0d3e dba0 23bf dc5d febe
000001e0: 3600 85bd f7e2 b0be 4e85 68ba e2d1 4fbf
000001f0: cd99 043f 9e6e 113f a80d 58bf f316 a6be
00000200: 280c a03d a967 51be c144 99be 1a4f 66be
00000210: 0435 ac3d f0c0 40be a7f2 853d 906a 0ebf
00000220: d929 003f 9de3 f33e bd02 833e 7aab babe
00000230: 2d17 d63e 752e 3e3e b54a c9bd c6a4 ee3d
00000240: 6359 8dbe cd3a 84be 478d 68bd 1f2a b73e
00000250: 3b22 ccbe ce2c 28bd d8c2 0cbf 2809 613e
00000260: ee4d 803d 266d cb3b 4b57 8a3e 3f75 16bf
00000270: e46a d9be d00c 923e 4679 f3be fddf 503b
00000280: 1b0f 973e a518 9f3e d657 85be f2f0 e7be
00000290: 2b1f e33e c833 4a3f 0040 bbbe fbd3 593f
000002a0: e3f1 80be 65a6 943d 1bf5 25be af97 233f
000002b0: 378e a8be 80af 99bd ea67 a43e bb06 cebe
000002c0: bd77 473e 657e 2b3f a74f 28bf be5e 273f
000002d0: 84d3 c3be 6e66 153f 8be0 d33d 0ca7 cabe
000002e0: 429c 343e 61cc ddbe f985 983e aee7 fa3e
000002f0: 82af b43e 049c 77bf 1071 773f c828 2a3f
00000300: e3eb 83bd 193e 043f f394 16be 63df 483f
00000310: ce18 10bc a7e6 e13d 23b5 84be 0143 19bf
00000320: fbc0 37bf 16b3 80be a3cc 1abe f149 d23e
00000330: ecf4 27bf 9f8a 17bf 245d c43d a0ac 1fba
00000340: 2299 f33e b9b9 313e 2b08 853e 7d93 febe
00000350: 7c9e 553e 37bc 22bc 4906 893e 152c 89bd
00000360: e454 023e 3c2b af3e 7e24 993d 641d 893e
00000370: 67ab 5bbf 37aa 08bf 87c2 5f3f 46bf c03e
00000380: 6c2b 843e 0c10 05bf 1f02 7f3f ffc7 dbbe
00000390: 3d81 253f 5d54 48bf 8969 123f 1a18 1840
000003a0: 34d5 a53d d8d2 5fbf 28e6 123f 71e9 4abf
000003b0: 3c2d 233f 138d 343f f13a 46bf 9d3a e13e
000003c0: cbf3 46bf 3dbf 763e 04c4 06bf b795 0f3f
000003d0: 0a56 83be 8bdd 0cbf 0c37 4cbf 7ba9 2abe
000003e0: 8c8f 2dbf 85f9 3fbf 81ef f63e 6875 f9be
000003f0: 27de 853f 6713 0d3f 4678 173f 753e 42bf
0.6059532 0.95583516 -0.27148023 0.28301486 0.59325373 0.6241384 0.27316755 0.2940578
-0.4708231 -0.39147356 0.47558403 0.35513434 -0.25138932 -0.43468454 -0.19263811 0.2270271
0.6143521 0.27106884 0.033769637 -0.18024872 0.16860327 0.20656222 0.13631585 -0.27355435
0.10715413 0.17801215 0.48164892 0.53606087 0.1263999 -0.19226342 0.36179155 0.059185673
-0.23196621 0.042394828 -0.4523025 0.021503994 -0.2563248 0.23666322 -0.12562229 -0.24340148
-0.40245226 1.0088946 -0.8418936 -0.09573388 -1.0841197 -0.5609018 0.055621408 -0.2462827
0.5917705 0.9372586 -0.43769518 0.42994893 0.123108245 0.27163178 -0.11849266 -0.091449164
0.83279395 0.7094386 -0.21165027 0.102576636 0.22188175 -1.289529 1.3194801 0.8108825
0.28612792 0.44893903 -0.31211126 -0.09389224 0.50339276 0.48775947 0.16312265 -0.2615985
-0.19598295 -0.2527081 0.36832115 1.1123084 -0.8265349 0.15853125 0.48810995 0.11666367
0.5436679 -0.27462083 0.36125502 -0.22235195 -0.24968244 0.5004126 -0.10015135 -0.23825492
0.40468743 0.15052521 0.17067742 0.31886742 -0.37155396 -0.46972778 -0.3624511 -0.21651427
0.44207057 0.2996836 -0.36342016 -0.7950337 0.5348586 0.020712495 0.013522707 0.22207402
0.32889426 0.14289565 0.3050175 0.081992805 0.8076993 0.9267082 0.54951113 -0.40594345
0.050774038 -0.25034255 -0.2574493 0.5744254 -0.4797711 0.13809454 -0.6391732 -0.49680984
-0.06494181 -0.3454816 -0.00088699616 -0.8117963 0.5179718 0.56809413 -0.8439584 -0.32439384
0.078148186 -0.204497 -0.29935268 -0.22491112 0.084085494 -0.188236 0.06540423 -0.5563135
0.50063854 0.47634593 0.25588027 -0.3645895 0.41814557 0.1857241 -0.09828702 0.11652522
-0.2760726 -0.2582611 -0.056775358 0.35774323 -0.39869866 -0.041058354 -0.5498481 0.21976149
0.06264864 0.00620808 0.27019724 -0.58772653 -0.42464364 0.285254 -0.47553462 0.0031871789
0.29503712 0.3107349 -0.26043576 -0.45301014 0.44359717 0.7898526 -0.36572266 0.8508908
-0.25184545 0.072583 -0.16206782 0.63903326 -0.32921 -0.07504177 0.3211053 -0.4023951
0.1947927 0.6698974 -0.6574654 0.6537894 -0.3824731 0.5835942 0.103455625 -0.39580572
0.17637733 -0.4331999 0.29789713 0.49004883 0.35290152 -0.96722436 0.96656895 0.6646848
-0.06441476 0.51657254 -0.14705257 0.7846586 -0.008794976 0.110303216 -0.25919446 -0.59867865
-0.7177884 -0.25136632 -0.15117125 0.41072038 -0.65608096 -0.59195894 0.09588078 -0.0006091092
0.4757777 0.17356004 0.25982794 -0.497219 0.20861238 -0.009932569 0.26762608 -0.06697861
0.12727696 0.34212673 0.074776635 0.26780236 -0.85808414 -0.5338473 0.874062 0.3764593
0.25814378 -0.5197761 0.9961261 -0.42926022 0.64650327 -0.7825373 0.57192284 2.376471
0.08097306 -0.874311 0.5738244 -0.79262453 0.637409 0.7052776 -0.7743369 0.4399003
-0.7771575 0.24096389 -0.52642846 0.5608782 -0.2565158 -0.5502555 -0.79771495 -0.16666214
-0.6779716 -0.7499011 0.48229602 -0.48722386 1.045842 0.5510773 0.591679 -0.7587655

lstm.bias_ih_l0 f4 [128]
00000000: 46f1 44bf 01c7 ce3d f9ac 38bf 3c78 56bf
00000010: 4108 dc3e 304e a9be 0700 00be bd7d a5be
00000020: 4e43 02be fac9 a4bf 3a39 a4bf 1b61 4bbe
00000030: 9681 a8bf dbdb b13f ccc6 92be 116e 20bf
00000040: 2b31 203f 9f3d 11bf 5ddd 55bf c825 28bf
00000050: 9c02 19bf c46e 1bbe ac5b 51be 021d 84be
00000060: d2b1 a8bf d563 e13b 1b62 1fbe f4ad a8be
00000070: 68cd 9bbe 81f9 dabe 9ef9 5abf c150 16bf
00000080: 8b6e 903e c51d 123d 8777 043e 2ceb a03e
00000090: 65e8 363c d6c7 8d3e 39b8 cd3d c181 73be
000000a0: 56b7 a73e bb39 3cbd 3ce9 a23d 7a98 2fbd
000000b0: 9fd9 0b3d a109 c73e 5bf2 063e a766 573d
000000c0: 50f7 6b3e f197 833e acfc 103e 8079 aa38
000000d0: 1a88 103f 2570 16be 2596 b0bd 462a af3e
000000e0: 7659 ba3d 549e 873e 0a68 9c3e 733e 89be
000000f0: 2b4f 0f3d 7426 703d 8f7d 6a3d 107d a0be
00000100: f78f 513d 65cf a43e 78f7 26bb 08b8 0abf
00000110: d83b 10be e674 7b3d b792 9cbe 4376 503e
00000120: 2190 e23d 0d3d b33e ec44 e8be 8fac 2ebf
00000130: 5b24 99be 3cf2 50be ed82 013f 039e c2be
00000140: e4ef 25bf fbb5 aa3d 2871 16bf 06ca ed3e
00000150: bf99 7bbe 3b94 2cbb f488 d23e 1be7 9c3d
00000160: 621e 8d3e 06f6 8ebd 47c6 46bf 5d83 013e
00000170: 795b 333e cdcb dfbe 3ddb e93e fc6b 883e
00000180: 45a1 0e3f c774 c7be 642c 3cbe 3380 2f3e
00000190: 2d6a 953e 6997 0abd c6c6 a8be bf07 30be
000001a0: b090 00bd 7161 ca3d 0e1c debe 2d53 db3e
000001b0: f5ec dcbe 448e 67be 6976 1abf 3b2e ffbd
000001c0: 8e35 10bf 9100 bcbd 6bf3 cebe 6838 4e3d
000001d0: 0f53 ee3e b9af 33be b7f3 ebbe 7a3c 853e
000001e0: f379 7cbe 7f9c 30be beb8 01be a0ac 273e
000001f0: 996c b6be 9782 4cbe 5202 51bf 9ae5 cfbe
-0.76930654 0.10096551 -0.72138935 -0.83777213 0.42975047 -0.33067465 -0.1250001 -0.32322493
-0.12720987 -1.2874138 -1.2829964 -0.19861262 -1.3164546 1.389522 -0.28667295 -0.6266795
0.62575024 -0.5673465 -0.835409 -0.6568265 -0.59769607 -0.15178972 -0.20445126 -0.2580338
-1.3179266 0.006878356 -0.15564768 -0.32945216 -0.3043015 -0.4276848 -0.85537136 -0.5871697
0.28209338 0.03567292 0.12936221 0.31429422 0.011163806 0.27691525 0.10044903 -0.23779966
0.32757062 -0.045953494 0.07954642 -0.042870022 0.034143087 0.38874534 0.13178389 0.05258813
0.23043561 0.2570186 0.14158887 8.128863e-05 0.56457675 -0.14691217 -0.08622388 0.3421194
0.090990946 0.26487982 0.30548126 -0.26805457 0.03498761 0.05863042 0.05724865 -0.31345415
0.051162686 0.3218948 -0.0025477093 -0.5418706 -0.14085329 0.06139078 -0.30580685 0.20357613
0.11062647 0.35007516 -0.45365083 -0.68232054 -0.2991055 -0.20404905 0.505904 -0.38011178
-0.6481917 0.08335491 -0.5876641 0.46443194 -0.24570368 -0.002633347 0.41120112 0.07661267
0.27562243 -0.06980519 -0.776463 0.12647767 0.17515363 -0.43710175 0.45675078 0.26644886
0.5571483 -0.38956282 -0.18376309 0.17138748 0.29182568 -0.033835802 -0.32964152 -0.17190455
-0.031387985 0.09881867 -0.4338078 0.42836896 -0.43149534 -0.22612864 -0.6033693 -0.1245999
-0.5633172 -0.091797955 -0.40420088 0.050346762 0.46547744 -0.17547502 -0.46084377 0.26022702
-0.24655895 -0.17247199 -0.1266813 0.16374445 -0.35629728 -0.19971691 -0.81644166 -0.4060486

lstm.bias_hh_l0 f4 [128]
00000000: 0528 0dbf f795 a63c 438e 05bf f26a 4cbf
00000010: 6eda 593e 8f5f 93be 051e b9bd 4380 b2bc
00000020: 95a8 85be 272f bcbf 6079 9ebf 1b0d e9be
00000030: c5c6 98bf 4bde a73f 4ee4 debe e803 18bf
00000040: fd43 383f 4a08 f8be 2f54 42bf d3f6 43bf
00000050: 9f14 b0be c68e 96bd 7ab4 94be be5f 82bd
00000060: cce5 a5bf 7921 9c3e 8d5a 86be d635 9abe
00000070: fc16 adbe f4dd eabe b517 2bbf c1fa 23bf
00000080: c740 013f 5690 583e 4606 363e 6c88 9b3e
00000090: c160 883c 2ee0 b73e feb8 8a3e 4254 52be
000000a0: 74e0 8c3e db63 623e 9e75 03be d26b 80bd
000000b0: 5152 5fbe 028d ca3e 4b13 ec3d 4853 acbd
000000c0: e878 993e 781d 863e c2f2 8e3e 7a33 af3d
000000d0: 6a49 213f 16b3 cebd d28f 35be 5b2d a43e
000000e0: f4ad 163e 9d88 573e 131e df3c cab1 abbe
000000f0: b58e a53e be7a c3bd f4d0 c9bc f30b 46be
00000100: 1cd2 163e 478d 4d3e 16ef 1ebe 31ea cebe
00000110: 767f a3bd 8e02 7c3d 30ea babe 365d 3c3d
00000120: 4c5c 063d 5fec 1f3e 8d9a 26bf 9665 23bf
00000130: 9db6 57be 0fc2 57bb 7088 293f 67fc acbe
00000140: 48b1 19bf 1947 8c3e c7e5 a1be e41a 023f
00000150: dd4e a1be 147b a43d f985 c03e d42a be3d
00000160: ae6c 1b3e 328d 1fbe b883 38bf 776d 433e
00000170: 59c0 3b3d 30c2 f2bd ff9d e83e 3d13 db3e
00000180: 02c2 053f 4e32 a2be 5859 d63c 5deb 9dbd
00000190: cc1d 583e a219 273d 45a1 13be 65a1 3abe
000001a0: bc19 6cbd 714e 373d 4d2f bfbe 4d45 9b3e
000001b0: d4fb 69be ec3e 16be c995 19bf 74de 4fbe
000001c0: 2590 0ebf 2908 bd3d f9b0 5cbe 0458 343e
000001d0: 00a3 8b3e dd40 0b3d aa90 53be 9311 8bbd
000001e0: 7e25 bfbe 1807 9d3c 1ab2 e0bd f219 2f3e
000001f0: e5c1 45be 379d cdbe d715 0bbf b4f6 b9be
-0.5513919 0.02033518 -0.521702 -0.79850686 0.2127473 -0.28783843 -0.09038929 -0.021789676
-0.2610518 -1.470189 -1.2380791 -0.4551781 -1.193566 1.3114713 -0.43533558 -0.5938096
0.7197874 -0.48443824 -0.75909704 -0.765485 -0.34390733 -0.073514506 -0.29043943 -0.063659176
-1.2960753 0.30494288 -0.2624096 -0.301192 -0.33806598 -0.45872462 -0.6683305 -0.64054495
0.5048947 0.2114881 0.1777583 0.3037752 0.016647698 0.35913223 0.27094263 -0.20539954
0.27514994 0.22108404 -0.12837836 -0.06270565 -0.21808745 0.39560705 0.11527117 -0.08414322
0.29975057 0.26194358 0.27919585 0.0855474 0.63002646 -0.10092752 -0.17730644 0.32065853
0.14714795 0.21048208 0.02723602 -0.3353408 0.3233544 -0.095448956 -0.02463577 -0.19340496
0.14728588 0.20073424 -0.15520892 -0.4041305 -0.079832956 0.061525874 -0.36506796 0.04598733
0.032802865 0.15617512 -0.65079576 -0.6382688 -0.21065755 -0.0032922064 0.6622381 -0.33786318
-0.60036135 0.27397993 -0.3162062 0.5082228 -0.3150548 0.08031288 0.37602213 0.092855126
0.15178177 -0.15581205 -0.72075987 0.19084726 0.045837734 -0.118534446 0.4543304 0.42788115
0.5224916 -0.31679004 0.02616565 -0.077109076 0.21105117 0.04079593 -0.14416988 -0.1822563
-0.05764173 0.044752542 -0.37340775 0.3032631 -0.22849971 -0.1467244 -0.5999418 -0.20299703
-0.556887 0.09230072 -0.21551885 0.176117 0.27272797 0.033997405 -0.20660654 -0.067904614
-0.37333292 0.019168422 -0.1097147 0.17099741 -0.19312246 -0.40159008 -0.543302 -0.36321032

conv1.weight f4 [12, 32, 1, 12]
00000000: 4100 ccbf 68ae cabf ba7d ccbf 2cfc c7bf
00000010: 28d4 cbbf c8c8 c2bf 5867 ccbf 7484 c7bf
00000020: 5d2f c3bf e436 c2bf 3c7e c0bf 010c c5bf
00000030: 712b e1bf e799 e8bf 19fd f0bf 867b e9bf
00000040: 5a61 e0bf 1d4b cbbf 95ab b0bf 5bfa a1bf
00000050: fef4 a4bf c7d8 cdbf 6fab e2bf 7de9 e3bf
00000060: d53b db3f 8002 de3f c8ce dd3f 4a93 e13f
00000070: 5432 e93f da94 d63f 0ac3 b03f f9c8 993f
00000080: 2b06 a33f 6bea b73f 9bc9 c63f 7219 b33f
00000090: 7c6e f13f dcc1 dd3f 8672 dc3f 934f e73f
000000a0: d0b4 e03f c020 df3f 6a20 e13f 104c ef3f
000000b0: bb2b f23f 4790 ef3f 4c2b d93f 719c c13f
000000c0: 8f8d e6bf b5df dfbf e486 e0bf 1178 e1bf
000000d0: d144 e1bf ba54 e7bf ba76 e4bf 2624 dfbf
000000e0: 4b46 e7bf 0b3a dfbf 7020 e6bf 47be e7bf
000000f0: 3acb d8bf da23 e7bf 74e9 e2bf d695 bbbf
00000100: 0de9 56bf 98a0 0fbf aedd 65bf c0cf 89bf
00000110: f04e d0bf 801d 11c0 f0e3 14c0 3895 44c0
00000120: 084d db3f d5f1 c33f 7926 da3f ea1b f73f
00000130: a366 df3f 2a2f aa3f ae99 cb3f e1ab df3f
00000140: 2e0e f03f 3f4c 0340 25df 0740 3ce6 0d40
00000150: be29 cabf 39f0 dfbf 85aa fbbf 087f acbf
00000160: 2332 6fbf bfc7 9abf 2a96 d5bf 8ff7 e0bf
00000170: 277f c7bf c5ab ebbf 1282 f8bf 8fab 0dc0
00000180: eb78 dd3f 247b 0040 7ec9 d63f 93ae d53f
00000190: cff7 f03f 5c3e d83f 4c8b c63f 456f a93f
000001a0: ce14 8b3f fe3e ba3f fca2 f13f fc86 7140
000001b0: ae9e 0bc0 f820 0ac0 0643 08c0 ae52 08c0
000001c0: affe 09c0 7454 0fc0 46e7 0ec0 bef9 09c0
000001d0: 9d73 04c0 3dd8 f7bf a72d e9bf 4e74 ebbf
000001e0: 8feb 1540 f67a 0740 bca2 0540 eb9c f83f
000001f0: 4625 e23f d6cd c93f 4adc cb3f 5c06 e73f
00000200: 62b1 0240 515c 0e40 1428 1a40 b383 2440
00000210: a939 ef3f 33b6 fb3f 5d09 fa3f a981 f83f
00000220: be93 f93f d4f7 f03f c217 de3f 013e dd3f
00000230: 5227 de3f 19d1 d53f b3fd db3f 03c9 e53f
00000240: 2a81 0040 26c3 0440 f032 0440 2777 0a40
00000250: a777 1a40 d823 2740 b5b4 2240 d4a9 2040
00000260: 3c1e 1940 88ec 1940 8abf 2240 ad22 3240
00000270: 64ad d93f 34d7 e33f dd9c c93f 441b dc3f
00000280: 220c ef3f 9760 ec3f 613b f03f d896 e33f
00000290: 7484 db3f 9ab2 f93f aefe 1540 13c6 8040
000002a0: d869 d3bf cf0d ccbf d31e e0bf 8c92 e5bf
000002b0: 2881 dfbf 7035 e2bf 0e3b debf 23ec d1bf
000002c0: 5bfa b7bf feaf b5bf 42bf adbf f993 9abf
000002d0: 3afa d13f 8f30 df3f 7c5a f63f 64e3 d33f
000002e0: 6fd4 823f b977 953f e348 a53f 585f 933f
000002f0: b4df 983f 3ae1 c03f 358e d03f 8ab0 ce3f
00000300: 48da c0bf b378 cbbf 5d6c edbf 7a0b e6bf
00000310: 5840 bebf d743 b8bf 2d53 d2bf 191f cebf
00000320: c2e7 bbbf 7c0b dbbf b4bc 06c0 a45e 16c0
00000330: 8db4 edbf b871 edbf 908e b9bf c963 d7be
00000340: 9131 91bf 922a 8fbf f62c 89bf 929f 88bf
00000350: b135 c3bf fb9f 0ec0 015c 29c0 31ea 7ac0
00000360: d47b b93f d279 c43f 5597 ca3f 44ba c53f
00000370: eed5 c03f c7dc c13f 2d9e c53f 352f be3f
00000380: cc12 be3f f626 bf3f db8f bb3f 3fe5 b73f
00000390: 856d c2bf 33c8 c0bf 4ba7 c5bf 3343 bfbf
000003a0: b120 bfbf 3574 b6bf 3028 b8bf 1531 babf
000003b0: c591 bcbf 3693 c4bf e74a b9bf f259 a6bf
000003c0: 5282 e03f 1764 ea3f bbdf eb3f f946 e23f
000003d0: 7560 e13f de69 d83f 9f4f e33f cb96 dd3f
000003e0: 1a74 de3f 990f d63f 63c1 d93f 4e5c df3f
000003f0: aa26 e7bf fd5e f1bf 50d3 f9bf 5996 bbbf
-1.5937577 -1.5834475 -1.5975869 -1.5623832 -1.592412 -1.5217524 -1.5969038 -1.5587296
-1.5248829 -1.5173001 -1.5038524 -1.5394288 -1.7591382 -1.8171967 -1.8827239 -1.8240821
-1.7529709 -1.5882298 -1.3802363 -1.2654527 -1.2887266 -1.608178 -1.7708567 -1.780563
1.7127634 1.7344513 1.732873 1.7623074 1.8218484 1.6764176 1.3809521 1.2014457
1.2736257 1.4368414 1.5530275 1.399214 1.8861842 1.7324786 1.722245 1.8071159
1.755518 1.743187 1.7588017 1.8695087 1.8919595 1.8715905 1.6966338 1.5125867
-1.801195 -1.7490145 -1.7541165 -1.7614766 -1.7599126 -1.8072731 -1.7848732 -1.7432907
-1.8068327 -1.7439588 -1.7978649 -1.8104943 -1.693702 -1.8057816 -1.7727494 -1.4655101
-0.8394936 -0.5610442 -0.8979138 -1.0766525 -1.627409 -2.2674255 -2.3264122 -3.0716076
1.7132883 1.5308176 1.7042991 1.9305394 1.7453197 1.3295643 1.5906274 1.7474328
1.8754327 2.0515287 2.1229947 2.2171774 -1.5793989 -1.7495185 -1.9661413 -1.3476267
-0.9343588 -1.2092208 -1.6686451 -1.7575549 -1.5585679 -1.8411795 -1.9414694 -2.213596
1.7302526 2.007516 1.678024 1.6693901 1.8825625 1.689403 1.551126 1.3237082
1.0865724 1.4550474 1.8877864 3.7738638 -2.18156 -2.1582623 -2.1290908 -2.1300464
-2.1561697 -2.2395296 -2.2328658 -2.155868 -2.0695565 -1.9362866 -1.8217057 -1.8394868
2.3425024 2.11688 2.0880575 1.9422888 1.7667625 1.5765941 1.5926602 1.8048816
2.0420766 2.2243845 2.4086962 2.5705383 1.8689471 1.9664978 1.9534107 1.9414569
1.9498212 1.8825631 1.7351 1.7284547 1.735575 1.6704437 1.7186798 1.7951969
2.0078835 2.074411 2.065609 2.1635225 2.413553 2.6115627 2.5422795 2.5103655
2.3924704 2.4050617 2.5429406 2.7833664 1.700604 1.780005 1.5750996 1.7195821
1.8675578 1.8466977 1.8768121 1.7780409 1.7149796 1.950763 2.3436694 4.024179
-1.6516676 -1.5941714 -1.7509407 -1.7935348 -1.746129 -1.7672558 -1.7361772 -1.6400188
-1.4373277 -1.4194334 -1.3573992 -1.2076408 1.6404488 1.7436694 1.9246364 1.6553769
1.022108 1.1677161 1.2912868 1.1513472 1.1943269 1.5068734 1.6293398 1.6147625
-1.5066614 -1.589621 -1.8548695 -1.7972252 -1.4863386 -1.4395703 -1.6431633 -1.610324
-1.4680102 -1.711288 -2.1052675 -2.3495264 -1.8570725 -1.8550329 -1.4496632 -0.42068318
-1.1343251 -1.1184866 -1.0716846 -1.0673697 -1.525076 -2.2285144 -2.6462405 -3.920544
1.4490914 1.5349677 1.5827433 1.5447469 1.5065286 1.5145501 1.5438896 1.4858156
1.4849486 1.4933765 1.4653276 1.4366835 -1.5189673 -1.5061096 -1.5441679 -1.4942383
-1.4931852 -1.4254214 -1.4387264 -1.4546229 -1.4731985 -1.5357425 -1.4475983 -1.2996199
1.7539771 1.8311795 1.8427652 1.7677909 1.7607561 1.6907308 1.7758673 1.7311643
1.7379181 1.672351 1.7012142 1.7450044 -1.8058674 -1.8857113 -1.9517612 -1.4655257

conv1.bias f4 [12]
00000000: c657 cf3f 8ebe c93f dc2a c13f a015 c13f
00000010: c4aa b83f dc60 b73f 9a5c b83f 2360 b93f
00000020: 733d ac3f 2dac b13f 8553 ab3f 78a6 a53f
1.6198661 1.5761278 1.5091205 1.5084724 1.4427114 1.4326434 1.440326 1.4482464
1.3456253 1.3880669 1.3384863 1.2941427
