Model Training and Evaluation Results/PEMS07/LSTM/LSTM_best_29.21.pth (torch, 38151 bytes, 6 tensors)

lstm.weight_ih_l0 f4 [128, 1]
000000 aa 3c cf bc f6 31 d3 3d f1 0b c9 3d 47 08 0b 3e
       -0.025297482 0.10312264 0.09816731 0.13577376
000010 cb fb 70 3e 9a 86 22 3d 47 77 aa 3d d4 ee 9f 3e
       0.23533551 0.039679147 0.083235316 0.312369
000020 25 c8 88 3f ab e1 49 3c 79 f6 27 3c d6 02 8c ba
       1.0686079 0.01232187 0.010251635 -0.0010681998
000030 de 08 71 3c 40 1d d5 3c 8d 99 f2 bb ef 74 2a 3c
       0.014711587 0.026014924 -0.0074035586 0.010403856
000040 1a 4c 11 3e 7a cf 38 3c 29 7e 16 3e c6 0b 6c bc
       0.14189187 0.011279935 0.14696564 -0.014407104
000050 07 47 cb 3c 34 f1 97 3d e0 a4 21 3d 70 26 cb 3d
       0.024814142 0.07419053 0.039463878 0.09919441
000060 55 87 35 3d e6 8f 04 40 1a d0 59 3c 11 b5 0e 3d
       0.044318516 2.0712829 0.013294244 0.034840647
000070 5f 4f 17 3e 67 0e 8a 3d dc 3d e8 3c b5 15 78 3e
       0.14776371 0.06741028 0.02834981 0.2422703
000080 10 62 7d 3e 78 6c 46 3c 1a fb 92 be 8b 7f 36 bd
       0.24744439 0.012110822 -0.287072 -0.04455523
000090 30 df 38 3d 14 7c 2b bb 30 ee d8 3b e5 d6 8d 3d
       0.045134723 -0.0026166486 0.006620191 0.069257535
0000a0 ea 07 2a ba 8b 67 2f 3e 1b 30 0f 3e b5 a3 ec 3c
       -0.00064861646 0.17129342 0.13983195 0.028886655
0000b0 d1 f8 00 3d 2d 80 49 3c 22 ad ad 3c 4f 6f 8b 3d
       0.03148729 0.012298626 0.02120072 0.0680834
0000c0 e0 32 6a 3d 40 d2 9d 3b 67 ae a7 3c 60 f8 23 3d
       0.057177424 0.0048163235 0.020468904 0.04003179
0000d0 88 de 1d 3f c6 10 15 3d 1f 4d ec 3b d3 1c cc 3c
       0.6166768 0.03639295 0.007211342 0.024916088
0000e0 3c fb 1b 3e 57 7c 8c 3d 80 b3 ef 3d ed 1b 2b 3c
       0.15232557 0.068596534 0.11704159 0.01044367
0000f0 29 90 ac 3c d2 55 a0 3c b4 a3 3b 3c 4b 6c 99 3c
       0.021064835 0.019572172 0.011452604 0.018728396
000100 0c b8 34 bd ca 26 76 bd 40 82 a4 3d 16 30 ac 3d
       -0.044120833 -0.060095586 0.08032656 0.08407609
000110 77 2d fb be 56 4e af bc fa 28 be 3c 9e 1a d9 bd
       -0.49058124 -0.021399658 0.023212899 -0.1060078
000120 dd 02 85 3c b0 4e 7d 3b d7 6d 95 3c 40 e0 b4 3c
       0.016236717 0.0038651638 0.018240852 0.022079587
000130 d7 8c d7 3c 7d ac 8a 3c f6 3c c8 be 50 f3 b1 3c
       0.026312275 0.016927952 -0.3910901 0.021722466
000140 63 2f b5 bd 60 a7 51 bc 86 ba cb 3d c5 64 bc bc
       -0.08846929 -0.012796253 0.09947686 -0.02299727
000150 30 ed c6 3d f6 71 38 bd d8 97 c4 bc bc 52 01 3d
       0.09713209 -0.045030557 -0.023998186 0.031573042
000160 61 a9 75 bd a0 f6 a8 3d 63 69 06 3c b6 3f 54 bc
       -0.059975985 0.08250165 0.008203837 -0.012954643
000170 26 e6 8d bd e8 a3 b0 3c a7 61 cd bc 59 39 f3 bc
       -0.06928663 0.021562532 -0.025070978 -0.029690431
000180 54 be 55 3e 39 7b e0 3c cc eb c8 3c 69 c0 25 3e
       0.20873386 0.027402507 0.0245265 0.1618668
000190 fb 10 fd 3c fc 2c a9 3c 6a b1 1b 3e 4f ff 38 3d
       0.030891886 0.020651333 0.15204397 0.045165356
0001a0 cc 17 00 3d f9 ee 35 3e f3 a3 4a 3e 0b 99 bc 3d
       0.031272694 0.17766942 0.19789104 0.09208878
0001b0 15 52 8b 3d cc b8 43 3e 15 42 2f 3e 10 b2 a2 3d
       0.06802765 0.19113463 0.17115052 0.07944119
0001c0 91 ba 2d 3d 84 74 d6 3c f5 47 61 3d 32 f2 9e 3e
       0.04241425 0.026178606 0.055000264 0.31044155
0001d0 c5 63 72 3d b6 08 0e 3e ea d8 3a 3d bb 5d 5b 3d
       0.05917718 0.1387051 0.04561702 0.053556185
0001e0 ef 89 e4 bb ee 86 75 3d a3 3c 33 3d f4 cf 01 3d
       -0.006974451 0.059943132 0.043759 0.03169246
0001f0 b2 78 92 3d ed 21 b5 3c c0 84 08 3d 03 bf af 3d
       0.07151927 0.022110904 0.033329725 0.085813545

lstm.weight_hh_l0 f4 [128, 32]
000000 c6 7f c3 3e b7 c1 17 3e 02 f4 88 bd 6b 9a 82 3d
       0.3818342 0.1481999 -0.06687166 0.06377109
000010 de d4 b3 3d 1d 16 39 3d 72 a4 f8 be 04 81 96 3d
       0.087808356 0.045187104 -0.48562962 0.073488265
000020 96 96 41 3e 91 76 2a be ef b1 3d be 54 c0 55 bf
       0.189051 -0.16646792 -0.18524908 -0.83496594
000030 58 19 46 bf 05 21 d8 3e e1 ab 3b be ba 04 ad 3d
       -0.7738242 0.42212692 -0.18327285 0.08448167
000040 58 d2 45 be ef 7c 08 bf d6 68 2f 3e a9 68 37 3f
       -0.19318521 -0.53315634 0.17129835 0.71644074
000050 53 7c a4 3e e5 c8 2f 3f 15 3f 22 3e 01 cf ae bc
       0.32126102 0.68665916 0.15844376 -0.021338942
000060 b4 5e 6a be da 81 81 be 55 05 62 be c2 1e 1f bf
       -0.22887689 -0.2529438 -0.22072347 -0.6215631
000070 93 dd 91 bc 1d 1f 85 bc b8 2a 2b 3f ff 5f 0f 3f
       -0.01780585 -0.016250188 0.6686206 0.56005853
000080 bf 51 f7 be 30 69 30 3e e0 33 83 bd 14 69 89 3e
       -0.48304555 0.17227626 -0.06406379 0.2683798
000090 77 b2 62 bf b3 b4 a1 3f cc aa 36 3d 5e 9f 41 be
       -0.88553566 1.263327 0.04459648 -0.1890845
0000a0 1d ea 52 3c b8 ae 93 3f 3c 9d 17 3e 10 9a 4a 3f
       0.0128732 1.1537695 0.14806074 0.7914133
0000b0 c3 c2 51 be eb 4c cd 3e 8e b1 9c bd c6 cd 50 3c
       -0.20484452 0.40097746 -0.07651053 0.012744373
0000c0 da b7 4b 3d b7 fa 83 3e 89 10 67 3e 89 ae 38 bf
       0.04973588 0.25777218 0.22564901 -0.7214132
0000d0 1f a1 93 bd 91 90 81 bd 5a dc b0 3e 1c 7d a7 3d
       -0.07208466 -0.06326402 0.34543115 0.081781596
0000e0 89 a7 c8 bd 8d 29 9f be 03 a5 41 3e d4 0a 1e 3e
       -0.0979758 -0.31086388 0.18910603 0.15433818
0000f0 91 17 d8 3e e9 d9 e3 bf 1b 71 e8 bd 54 5a af bc
       0.4220548 -1.7800876 -0.11349698 -0.021405376
000100 8a ce 9c 3d b3 78 8d be 16 37 17 bf c8 32 e3 be
       0.07656582 -0.2763115 -0.5906843 -0.4437468
000110 99 0f 49 3d 2a e0 33 bf 93 37 4e 3f bb 90 93 bf
       0.04908714 -0.7026392 0.8055355 -1.1528543
000120 24 93 9b 3e f8 1b d3 be 6f 3c de 3e 23 70 88 be
       0.30385697 -0.41232276 0.43405482 -0.26648054
000130 85 31 84 3c f9 c2 82 3f e3 23 11 bd 2b 00 7f 3e
       0.016136894 1.0215751 -0.035434615 0.24902408
000140 a9 92 14 bf 44 0e 15 bf c4 e8 55 bd 2f 03 39 3f
       -0.58036286 -0.5822489 -0.052223936 0.7227048
000150 e1 58 ce be eb bf eb be ef 64 2d 3f 80 77 c1 3f
       -0.40302184 -0.4604486 0.6773214 1.5114594
000160 dc 8f 74 bd 6c 49 4f bf 60 18 40 bc 13 39 37 bf
       -0.059707507 -0.8097141 -0.011724561 -0.71571463
000170 d4 58 4f 3f f5 54 b0 3e 6c 65 1f bf d8 85 0a bf
       0.80994916 0.34439817 -0.6226413 -0.5411048
000180 57 d2 7b be 86 b2 f0 be b0 9d 1c 3f 85 8e 2e bc
       -0.24591957 -0.47011203 0.6117811 -0.0106540965
000190 96 40 81 3e 18 e5 2d 3f 29 50 6d be b8 5c 41 bf
       0.25244588 0.67927694 -0.2317511 -0.755321
0001a0 b2 da 81 be 01 be 8b be 05 73 15 be ff f5 f1 3d
       -0.25362164 -0.272934 -0.14594658 0.11814498
0001b0 78 6b ec be fb 96 e3 3b d9 0c 70 3e c4 0d f9 3d
       -0.46175742 0.0069454885 0.23442401 0.12160829
0001c0 a3 03 07 bf ce 83 95 3f dc 7a 5a be b2 91 3d be
       -0.52739924 1.1680849 -0.2133593 -0.1851261
0001d0 1a 2b 95 3e a6 5c a4 3e ae 77 33 3f 79 14 e8 be
       0.29134446 0.32101935 0.7010449 -0.4532812
0001e0 28 cd 0e be 6b a4 b6 3f 16 d3 02 3e 3a 72 1d be
       -0.13945448 1.4268926 0.12775835 -0.15375605
0001f0 0a 33 9d be 0e 66 bb be 49 a6 9d 3e fe 42 9c bd
       -0.30703002 -0.366013 0.30790928 -0.07629965
000200 d9 61 c6 bb 6d d8 96 3f 00 10 d9 be ff c4 94 3e
       -0.006054145 1.1784798 -0.4239502 0.29056546
000210 58 f7 49 bf 2a 0a 19 bf 13 5e ca be 49 f8 e2 3f
       -0.7889304 -0.59781134 -0.39524898 1.7732021
000220 d5 88 df 3e aa 22 41 be 94 56 e1 be d4 00 b9 bd
       0.43659082 -0.1886088 -0.44011366 -0.09033361
000230 b5 3a d7 be c0 c2 bd be 6e cd d2 3e c0 34 06 bf
       -0.42036977 -0.37062645 0.41172355 -0.5242424
000240 e3 02 4a 3f 3c 27 22 bf f1 b3 19 3c 59 ff 32 bf
       0.78910655 -0.63341117 0.00938128 -0.6992088
000250 02 27 02 3f 33 6b 7a 3e df 4f 80 bf ac d0 a4 be
       0.5084077 0.24454956 -1.0024375 -0.32190454
000260 04 bb a9 3e 17 fb b7 3f a2 3f e8 3e c9 fc f0 3e
       0.33150494 1.4373502 0.45361048 0.4706786
000270 67 99 89 bf f7 f1 96 bf 10 e9 30 be 68 e6 07 3e
       -1.074994 -1.1792592 -0.17276406 0.13271487
000280 aa 53 fe bf eb b5 42 3f 78 61 22 bf 93 d9 33 bf
       -1.9869282 0.76058835 -0.63429976 -0.70253867
000290 65 80 ae be c0 8a b0 3f 94 7f 3d bf fb 63 85 3e
       -0.34082332 1.3792343 -0.74022794 0.26052842
0002a0 94 28 e0 bf 51 e9 2b bf c1 e6 f6 bf 05 44 ab 3f
       -1.7512383 -0.6715289 -1.928917 1.3380133
0002b0 df b8 52 c0 8a b9 36 3f 37 57 d2 3e 8a 1d a8 bf
       -3.2925336 0.7137686 0.41082165 -1.3134015
0002c0 36 ce 20 be 82 6e 34 3f f7 f7 34 bf 84 56 38 c0
       -0.15703663 0.7048112 -0.70690864 -2.8802805
0002d0 2d 72 20 bf 70 5c 97 3f 81 2b e8 3f ef 57 23 bb
       -0.6267422 1.1825085 1.8138276 -0.0024924239
0002e0 1b 6c 0b 3f 94 b6 40 be bb ac 72 c0 c3 33 c8 3e
       0.5446183 -0.18819648 -3.7917926 0.3910199
0002f0 2b 70 ca 3e 28 22 09 3e 69 fd 2c 3f 27 44 06 3f
       0.39538702 0.13391936 0.67574173 0.5244774
000300 0d 02 be bd 47 d4 b8 bf 45 c1 58 3f e9 50 12 3f
       -0.09277735 -1.4439782 0.84669906 0.5715471
000310 d4 b1 96 be ac 3c bf bd 28 a5 37 3c 5a d1 4b bf
       -0.29432547 -0.09337744 0.01120881 -0.7961632
000320 f8 83 31 bf 2b f0 38 bf 8d c5 5f 3e 6b 87 c7 be
       -0.69341993 -0.7224147 0.21852703 -0.38970503
000330 36 36 fc be ab d0 b5 be 92 71 97 be a3 49 85 3f
       -0.4926011 -0.35510764 -0.29578835 1.0413097
000340 fe cd 89 bf 72 fb 44 3e 85 6e ac 3d 49 a7 13 bf
       -1.0765989 0.19236544 0.084195174 -0.5767713
000350 77 a1 e8 3e 8d 55 f5 3c f1 cd 74 3e 6b e6 c0 3e
       0.45435688 0.02994802 0.23906685 0.37675795
000360 f5 14 cc bf 32 56 cf 3c c3 fc 32 be cb fd 05 bf
       -1.5943896 0.025309656 -0.17479233 -0.5234038
000370 b4 a6 12 bf a7 b8 95 3f db 63 43 3e 91 11 00 3c
       -0.5728562 1.1696976 0.1908106 0.007816688
000380 13 59 2c 3e a2 f3 a8 be f7 c0 64 3f 4c 5b 03 bf
       0.16830854 -0.32998377 0.8935694 -0.5131118
000390 31 3f da 3e 28 45 93 3d bb 07 df 3e 4b a3 18 bf
       0.42626336 0.07190925 0.43560585 -0.59624165
0003a0 6d 1b 02 ba 4a de 81 be f8 46 32 bf c3 cc 98 be
       -0.0004963193 -0.25364906 -0.6963954 -0.2984372
0003b0 0a 37 83 bd 89 f6 dc 3d ca 34 51 be cc 7b c3 3e
       -0.06406982 0.1078921 -0.20430294 0.38180387
0003c0 45 92 08 bf 83 08 95 3f c4 2a f9 be 66 24 87 3e
       -0.5334819 1.1643223 -0.4866544 0.26394957
0003d0 75 5d 98 3c 5a fc 09 c0 ed 26 91 be 98 a5 f1 3f
       0.018599251 -2.1560273 -0.2835001 1.887866
0003e0 94 c1 94 bf d1 50 85 be 15 b3 b4 3e 39 e8 9d bf
       -1.1621575 -0.2603822 0.3529288 -1.2336494
0003f0 f3 ed 80 3e 9c 5a e6 3f 2c 04 31 bf 72 4e 02 bf
       0.2518154 1.7996402 -0.6914699 -0.5090095

lstm.bias_ih_l0 f4 [128]
000000 7c dd 22 bf 26 f2 75 bf c9 f8 15 3e 82 4e 9a be
       -0.6361921 -0.96072614 0.14645685 -0.30138022
000010 e6 e8 e0 3e 32 98 17 bf b4 6f ca bd 17 14 09 bf
       0.43927687 -0.59216607 -0.09884587 -0.5354628
000020 e3 30 16 3f 48 77 35 be 38 c7 b5 bf f0 36 d1 be
       0.58668345 -0.17721283 -1.4201422 -0.40862226
000030 9b fe d6 bf 23 65 da bd 67 eb 85 be 93 7f 34 bf
       -1.679645 -0.106638215 -0.2615616 -0.7050716
000040 5a ef db 3d 1d 65 3b 3e ed 92 47 be 3f de cc be
       0.10739012 0.1830029 -0.19489641 -0.4001331
000050 22 4e 01 bf 2b 71 44 bf c7 19 0f bf 7e 56 95 be
       -0.50509846 -0.7673518 -0.5589871 -0.2916755
000060 da 96 26 bf ea be 5d be ad 6f 64 be 0c da ec be
       -0.6507393 -0.21654859 -0.22308226 -0.46260107
000070 76 79 8d 3f 9c 91 33 bf 1e ca 4f bf c7 b1 1a bf
       1.1052692 -0.7014406 -0.8116778 -0.60427517
000080 2d 38 64 be 4c 57 ce 3d e0 c3 1a 3e d9 a8 06 3f
       -0.22287054 0.10075244 0.15113783 0.5260139
000090 d1 8b 8c 3e 93 72 9c 3d 9a 19 bf be 40 bb 00 bf
       0.2745042 0.07639041 -0.3732422 -0.5028572
0000a0 c0 2f 95 3e 93 48 f8 3d 0f 2f 51 3e 3c 0b 85 be
       0.29137993 0.121232174 0.20428108 -0.25985134
0000b0 53 23 f9 bd 49 47 68 3e 85 5e ad 3e 48 3b f7 3e
       -0.12164941 0.22683443 0.33861175 0.48287416
0000c0 76 a4 48 3c a2 e5 1f 3e e4 fb ac 3e 65 d5 04 3d
       0.012246242 0.15614942 0.33785927 0.03243007
0000d0 0a f1 d5 3e ce 3b 23 bf 52 d3 92 3d 0b 9c 17 be
       0.4178546 -0.6376313 0.071692124 -0.1480562
0000e0 f0 3d 03 3f 02 b4 2d 3d 18 9f b6 be 8e b9 27 3c
       0.51266384 0.042407997 -0.35668254 0.010237111
0000f0 36 80 aa 3d a1 82 c0 3b 23 f8 26 3c 8a 48 db be
       0.083252355 0.005874947 0.010190996 -0.4282878
000100 cc 75 1e 3e 86 d6 0e 3f 17 ca cd 3d 30 ac 6b be
       0.15474623 0.55796087 0.10048311 -0.23014903
000110 a7 33 00 be 7a fe e6 3e 86 1f 11 bf 7f c0 60 3e
       -0.12519704 0.45116025 -0.56688726 0.21948431
000120 b6 07 0d 3d 05 cd 82 3f f3 74 4c be ec 61 52 bf
       0.03443118 1.0218817 -0.19966488 -0.82180667
000130 d8 12 0d bf d7 f2 be be a5 5b 3d be bf c4 8d bc
       -0.5510688 -0.37294647 -0.18491991 -0.01730573
000140 8c 62 87 be c1 04 29 3e 49 36 9c bd 47 d8 fb 3e
       -0.26442373 0.1650572 -0.076275416 0.49188444
000150 01 7a 77 be 89 7a a6 3e fb 6b cb 3e e7 e0 8f be
       -0.24167635 0.32515362 0.3973082 -0.28101274
000160 04 35 16 3d e8 0f 37 3e 64 1e 9a bf d8 f6 b8 3e
       0.036671653 0.17877162 -1.2040524 0.36125827
000170 1d ef b6 be 6b 99 03 bf 1f 1c 59 3f 83 5f 26 3f
       -0.35729304 -0.5140597 0.84808534 0.6498949
000180 44 90 3c be ba 06 ea 3e ec c5 40 3d 21 1a d5 3e
       -0.18414408 0.45708257 0.047063753 0.41621497
000190 92 9d 52 be fa 81 b3 be ff 2c dd be 01 44 a0 3e
       -0.20567921 -0.35060102 -0.43198392 0.31301883
0001a0 ed 7a ec bd e6 cd f4 3d 9b d2 78 be ef d5 4c be
       -0.11546884 0.119533345 -0.2429909 -0.20003484
0001b0 0c 7b 11 bf 24 74 a5 be 15 55 5f be e8 04 cf bc
       -0.5682838 -0.3231517 -0.218098 -0.025270894
0001c0 80 5c 84 be 9e ca bf be 0b 77 ba 3d 3a eb 88 be
       -0.25851822 -0.37459272 0.09104737 -0.26741964
0001d0 3a 36 a1 3e 4d 17 4e bf 85 3d 56 3e e3 51 45 be
       0.31486684 -0.80504304 0.20921905 -0.19269519
0001e0 9f 8d 11 3f 9b 11 31 bf ee ad d1 be 9d 72 0b be
       0.5685672 -0.6916749 -0.4095301 -0.1361794
0001f0 fe fd a8 be 4b 2b 8a be 5e 4b d7 bd a2 13 79 be
       -0.3300628 -0.26986155 -0.10512422 -0.24323896

lstm.bias_hh_l0 f4 [128]
000000 47 27 d6 be 2a 4b 85 bf 12 3a b1 3e e4 33 86 be
       -0.4182684 -1.0413563 0.34614617 -0.26211464
000010 ab 9b 63 3e 21 a1 0c bf d2 8d 83 bd 3b a5 6f be
       0.22227351 -0.54933363 -0.064235345 -0.23402874
000020 f5 da e7 3e 4a 50 b8 be 6e 07 b0 bf 1d 4a 2a bf
       0.45284238 -0.35998756 -1.3752267 -0.6651934
000030 e3 43 c7 bf 9b 1f 3d be 2a 09 d2 be 67 15 2c bf
       -1.5567592 -0.18469088 -0.41022617 -0.6722016
000040 72 43 4e 3e 55 25 88 3e 03 dd f2 bd 57 40 02 bf
       0.20142916 0.26590982 -0.11858561 -0.50879425
000050 bb ab 80 be 5c 67 30 bf bb 1c 25 bf 5c 46 c7 bd
       -0.2513102 -0.68907714 -0.64496964 -0.09730217
000060 cd fe 20 bf f2 f0 a6 3d 0d e1 a8 be c7 61 de be
       -0.62888795 0.081514254 -0.329842 -0.43433973
000070 08 27 89 3f c4 83 3b bf 32 e8 1f bf be 5b 28 bf
       1.0715036 -0.73247933 -0.62463677 -0.6576499
000080 01 c0 8d b8 c7 9a 8d 3e 78 52 4c 3e 7a f7 03 3f
       -6.7591674e-05 0.27657148 0.19953334 0.51549494
000090 96 5a 8f 3e d9 69 22 3e c4 9c 4f be 60 df f0 be
       0.279988 0.1586069 -0.20274645 -0.47045422
0000a0 1d b1 74 3e ef ca c6 3e b5 c2 6e bb 45 33 8f be
       0.23895688 0.388267 -0.0036431972 -0.27968803
0000b0 8e 6d bf be ef 4d 6f 3e 12 ea a4 3e 17 3a b1 3e
       -0.3738827 0.23369573 0.3220983 0.34614632
0000c0 d5 09 a7 3d 93 f0 24 3e f3 6f f3 3e be 72 f1 3d
       0.08156172 0.16107397 0.47546348 0.117894635
0000d0 ea 73 f7 3e 25 76 17 bf 13 dc 9e bc a4 95 2d be
       0.48330623 -0.5916465 -0.019392049 -0.16951615
0000e0 66 9e 11 3f 8e 6f 44 bc 9c 8a 22 bf bb ab 69 bd
       0.5688232 -0.011989487 -0.6349275 -0.05704854
0000f0 6a 44 be 3e 71 c3 17 be d6 d4 92 bd dc d0 9d be
       0.3716157 -0.14820649 -0.071695015 -0.3082341
000100 19 72 80 3e 7b a4 df 3e 83 b9 55 bd 19 41 bd bd
       0.2508705 0.43680176 -0.05217887 -0.09240932
000110 fc 6e 83 bd 30 10 e7 3e 28 4b 20 bf 31 87 7d 3d
       -0.06417653 0.45129538 -0.6261468 0.061896507
000120 14 bc 31 bd ba f6 53 3f b2 29 cb be f8 1a 47 bf
       -0.043392256 0.8279835 -0.39680248 -0.77775526
000130 8a dd ec be 61 52 30 be cc 2b ea bc 94 56 cc 3c
       -0.4626277 -0.17218925 -0.028585337 0.024943627
000140 6b ca 5d be 7c 1b b6 3e fa dc 47 3e 18 22 09 3f
       -0.21659248 0.35567844 0.1951789 0.5356765
000150 d5 3e 9f be cf f2 d0 3e 1a 69 b9 3e 11 90 87 be
       -0.31102625 0.40810248 0.36213 -0.264771
000160 4d 86 b2 bd 24 fc bd 3d 38 fd 92 bf 01 ec d9 3e
       -0.08717022 0.09276608 -1.1483526 0.4256287
000170 cd 24 f9 be 4d 30 48 be 7a 7d 58 3f 18 b3 4f 3f
       -0.4866089 -0.19549675 0.8456646 0.8113265
000180 88 0d 60 be a9 a4 07 3f 76 94 83 3e 0e be 2b 3e
       -0.21880162 0.52985626 0.25699204 0.16771719
000190 93 aa 92 be f3 4b 8d be 38 6d 7c be 38 f7 9a 3e
       -0.28645763 -0.27597007 -0.24651039 0.30266738
0001a0 dc 1f 11 be 2f 13 86 3d e6 f8 3a be d2 78 a6 be
       -0.1417231 0.06546628 -0.1825901 -0.32514054
0001b0 49 07 bb be 5e 98 79 be b0 d2 5b be 85 4f d4 bd
       -0.36528996 -0.2437453 -0.2146709 -0.1036673
0001c0 a8 11 81 be d3 10 43 be 5f 38 8f 3e 8e 0d 11 be
       -0.25208783 -0.19049387 0.27972695 -0.14165327
0001d0 51 18 fa 3d 28 77 18 bf 91 49 ed 3e 0a 55 05 bf
       0.12211669 -0.5955682 0.4634519 -0.52082884
0001e0 39 33 e2 3e 6a 02 00 bf 1f fe c8 be 44 05 04 be
       0.44179705 -0.50003684 -0.3925638 -0.12892634
0001f0 91 e5 2a be e9 86 f1 be 81 0a 2c 3e cd 35 4d be
       -0.16689135 -0.4717324 0.16800882 -0.20040055

conv1.weight f4 [12, 32, 1, 12]
000000 2a 02 e2 bf 5b e7 db bf 68 61 dc bf 7e ae cf bf
       -1.765691 -1.7179979 -1.7217226 -1.6225126
000010 10 0e ce bf 70 29 c2 bf 25 ad cb bf 6e 24 cc bf
       -1.6098042 -1.5168896 -1.5912215 -1.5948617
000020 ca c5 cf bf 59 ee d7 bf e6 8f e0 bf ae 11 eb bf
       -1.6232235 -1.6869613 -1.7543914 -1.836477
000030 dc d5 15 c0 78 d9 1d c0 fa 1c 20 c0 91 4c 1d c0
       -2.341178 -2.4663982 -2.5017686 -2.4577982
000040 c0 9b 05 c0 74 53 c4 bf 68 d6 f7 bf c7 8c d8 bf
       -2.0876312 -1.5337968 -1.9362307 -1.6917962
000050 53 8f d8 bf 56 fa be bf c9 ec b4 bf e5 b1 44 bf
       -1.6918739 -1.4920146 -1.4134761 -0.76833946
000060 58 42 17 40 ca 07 14 40 e3 a4 16 40 bc 73 19 40
       2.3634243 2.3129754 2.353814 2.3976889
000070 68 68 0f 40 61 ed e4 3f 40 5f d3 3f 6d e1 e4 3f
       2.2407475 1.7884942 1.6513443 1.7881294
000080 69 9a f4 3f 7d ea e8 3f 0b 6f f7 3f 10 4a e0 3f
       1.9109622 1.819656 1.9330763 1.7522602
000090 c6 7e 14 40 ba d2 0c 40 ec 41 0b 40 02 bc 10 40
       2.3202376 2.2003617 2.1758986 2.261475
0000a0 9e 61 0b 40 ef f0 07 40 51 33 06 40 56 0d 0a 40
       2.177833 2.1240804 2.096882 2.157064
0000b0 5f 43 06 40 da f9 06 40 1b 26 07 40 99 a8 08 40
       2.097862 2.1089997 2.1117008 2.1352904
0000c0 1a a4 12 c0 82 c6 30 c0 bc 31 2d c0 b4 33 42 c0
       -2.291266 -2.762116 -2.7061605 -3.0344057
0000d0 3b b3 4b c0 ce 2b 50 c0 b0 b2 46 c0 46 24 60 c0
       -3.1828144 -3.2526736 -3.1046562 -3.502214
0000e0 ea ae 5c c0 06 2f 6b c0 4f c5 85 c0 ba f7 9f c0
       -3.448176 -3.674745 -4.1803355 -4.99899
0000f0 08 96 1e c0 d6 2e 25 c0 36 8c 23 c0 d0 32 eb bf
       -2.4779072 -2.5809836 -2.5554328 -1.8374882
000100 2f 4b 92 3e 34 06 de bf d6 40 0a c0 35 7a 3d c0
       0.28572986 -1.7345643 -2.1602073 -2.960584
000110 36 45 83 c0 1a 53 e4 c0 85 eb 00 c1 af 70 28 c1
       -4.1021986 -7.135144 -8.0575 -10.527511
000120 58 12 1d 40 e3 c4 2a 40 69 18 23 40 2f 65 a6 3f
       2.4542446 2.668267 2.5483649 1.2999629
000130 f0 6d 92 3f 33 0b e2 3f 25 28 07 40 4d cc 1a 40
       1.14398 1.7659668 2.1118252 2.4187195
000140 d9 18 34 40 b6 2c 61 40 97 0a 7f 40 87 76 c5 40
       2.8140166 3.518354 3.9850214 6.1707187
000150 1d e3 03 c0 e8 ec 09 c0 65 60 18 c0 14 b7 0c c0
       -2.060737 -2.1550846 -2.3808835 -2.1986742
000160 9d 21 ef bf 16 e1 06 c0 63 ad 12 c0 7c 00 12 c0
       -1.8682133 -2.1074882 -2.2918327 -2.2812796
000170 fc 02 12 c0 4c 2a 18 c0 62 a6 27 c0 fe 09 1b c0
       -2.2814322 -2.3775816 -2.6195302 -2.4224849
000180 f0 71 18 40 13 31 1e 40 f9 e7 fd 3f 39 da a5 3f
       2.3819542 2.4717453 1.9836417 1.2957221
000190 69 de d4 3f d6 8a 03 40 6e c0 0a 40 6e e6 08 40
       1.6630374 2.0553489 2.167995 2.1390643
0001a0 58 93 1c 40 c6 97 44 40 37 b4 5b 40 94 4f a8 40
       2.4464931 3.0717635 3.4328744 5.259714
0001b0 66 18 94 bf 02 d9 13 c0 49 f2 35 c0 59 15 37 c0
       -1.1569946 -2.31012 -2.842913 -2.860678
0001c0 1a f9 37 c0 c3 68 3c c0 b1 1b 38 c0 55 a7 2f c0
       -2.874579 -2.9438941 -2.8766901 -2.7445881
0001d0 b5 49 2c c0 c9 70 25 c0 20 78 1a c0 8b 58 0f c0
       -2.6919987 -2.5850089 -2.4135818 -2.2397792
0001e0 08 f0 3f 40 7f 26 3b 40 9f 8f 3b 40 c9 59 3b 40
       2.9990253 2.9242246 2.930641 2.927355
0001f0 aa 2e 3b 40 49 fd 39 40 a3 be 3e 40 55 87 46 40
       2.9247231 2.9060843 2.9803855 3.10201
000200 30 14 4e 40 8b 70 57 40 ad e9 5f 40 ed 88 62 40
       3.2199821 3.366244 3.4986374 3.5396073
000210 d3 8b 3c 40 59 aa 59 40 60 a1 4e 40 76 65 4c 40
       2.9460342 3.4010222 3.2285995 3.1936927
000220 95 04 4e 40 87 bf 47 40 e1 61 3b 40 bd 6e 3a 40
       3.2190297 3.121065 2.927849 2.913009
000230 be 0e 3a 40 52 d3 33 40 8f e6 36 40 a4 07 3e 40
       2.9071498 2.809773 2.8578222 2.9692163
000240 14 db 2e 40 8f 67 31 40 8a 59 2d 40 ff 90 2e 40
       2.7321215 2.7719457 2.70859 2.7275999
000250 dc 9e 36 40 af ae 3b 40 0a e6 3f 40 f1 ee 4a 40
       2.853446 2.9325368 2.9984155 3.1708338
000260 ca 3f 57 40 61 d6 6a 40 76 e2 7f 40 ce 4f 8b 40
       3.3632684 3.6693347 3.998197 4.353492
000270 91 57 17 40 63 59 2d 40 2d 37 d1 3f c8 3f cd 3f
       2.3647196 2.7085807 1.6344963 1.603509
000280 9a 4f d9 3f c7 7a b3 3f f9 f8 c0 3f b7 5e 02 40
       1.6977417 1.4021844 1.507598 2.037031
000290 83 86 41 40 fc 7b 8c 40 f8 68 b0 40 00 cb e9 40
       3.023835 4.390135 5.5128136 7.3060303
0002a0 5c 8d 01 c0 f3 91 0b c0 38 1a 0b c0 7d 8d 0d c0
       -2.024253 -2.180783 -2.1734753 -2.2117608
0002b0 f6 ac 09 c0 32 f2 0d c0 18 b1 15 c0 cc 1d 1a c0
       -2.1511817 -2.2179074 -2.338934 -2.4080687
0002c0 f3 d9 17 c0 a1 ed 15 c0 59 05 12 c0 86 4d 0f c0
       -2.3726776 -2.3426287 -2.2815764 -2.2391067
0002d0 66 c5 2b 40 eb 5d 24 40 28 e8 19 40 68 86 1a 40
       2.6839232 2.5682323 2.4047947 2.4144535
0002e0 1f 10 1a 40 a8 25 1a 40 1a b8 15 40 aa 5f 0e 40
       2.407234 2.4085484 2.3393617 2.2245889
0002f0 5c 21 03 40 d0 84 fa 3f 54 51 ec 3f 7b b4 c3 3f
       2.048911 1.9571781 1.8462319 1.5289453
000300 5e 1b 04 c0 bb 07 17 c0 eb cd 24 c0 3b 71 0f c0
       -2.0641704 -2.3598468 -2.5750682 -2.241286
000310 02 e2 03 c0 f2 26 10 c0 2c c5 11 c0 fc 62 1e c0
       -2.0606694 -2.252377 -2.2776594 -2.4747915
000320 c6 37 33 c0 32 54 42 c0 fb 54 4c c0 32 bd 5e c0
       -2.8002791 -3.0363889 -3.1926868 -3.4802976
000330 92 82 28 c0 77 fc 2d c0 3c 28 05 c0 80 44 df be
       -2.6329694 -2.7185342 -2.0805807 -0.4360695
000340 6e 75 bc bf 5a 6d ca bf cb 8d db bf b2 7f 25 c0
       -1.4723337 -1.5814621 -1.7152647 -2.585919
000350 5d 8f 45 c0 01 37 8e c0 9d 5e 68 c0 ab 88 fc c0
       -3.0868752 -4.4442143 -3.6307747 -7.891683
000360 07 f2 03 40 9a d4 04 40 3b 32 05 40 0c 12 06 40
       2.0616472 2.0754762 2.0811908 2.0948515
000370 f1 f7 00 40 ad 34 fb 3f 54 d2 ff 3f f9 5e f8 3f
       2.0151331 1.962545 1.9986062 1.9403983
000380 ac 42 f8 3f f4 d2 fb 3f de 0b 01 40 5b ee 0a 40
       1.9395347 1.9673753 2.0163493 2.170798
000390 e4 e3 a6 bf b5 e2 20 c0 a9 85 2a c0 33 f8 12 c0
       -1.3038297 -2.513837 -2.664408 -2.2963989
0003a0 44 14 11 c0 43 c1 05 c0 e2 0f f4 bf e8 85 e4 bf
       -2.266862 -2.0899208 -1.9067347 -1.7853365
0003b0 29 b4 df bf 56 55 ee bf f7 64 fb bf 48 c0 02 c0
       -1.7476856 -1.8619792 -1.9640187 -2.042986
0003c0 6d 4c 1a 40 78 b5 15 40 62 e4 15 40 ae 90 11 40
       2.4109147 2.339201 2.3420644 2.2744555
0003d0 3f 27 11 40 a5 6e 0f 40 ab 72 18 40 2b 6a 16 40
       2.2680204 2.2411282 2.3819988 2.35023
0003e0 ec 29 16 40 fa a9 11 40 26 15 15 40 ea 1a 1b 40
       2.3463087 2.2759995 2.3294158 2.4235177
0003f0 1d 66 17 c0 8e 15 17 c0 fd ed 1f c0 e9 cd 10 c0
       -2.3656075 -2.3606906 -2.4989007 -2.2625678

conv1.bias f4 [12]
000000 8c 8d 02 40 c1 46 01 40 00 a0 fc 3f 3a 2c 00 40
       2.0398893 2.0199435 1.9736328 2.0026994
000010 03 76 fe 3f 34 7a 02 40 c9 9b 07 40 b3 4f 0a 40
       1.9879764 2.0387087 2.1188834 2.1611145
000020 56 a9 03 40 25 e1 06 40 53 08 04 40 c5 25 02 40
       2.0572104 2.1074917 2.063008 2.0335553
