Model Training and Evaluation Results/PEMS04/LSTM/LSTM_best_27.45.pth (torch, 38151 bytes, 6 tensors)

lstm.weight_ih_l0 f4 [128, 1]
0	0x3c7feee6	0.015620923
1	0x3e417383	0.1889172
2	0x3ea7fcb1	0.32809976
3	0x3c089400	0.008336067
4	0x3dbe6e94	0.09298435
5	0x3d56ef7a	0.052474476
6	0x3d7515d7	0.05983528
7	0x3dedf427	0.11618834
8	0x3f891818	1.0710478
9	0x3c147313	0.009060639
10	0x3e9bb84a	0.3041404
11	0x3c0cb34a	0.008587668
12	0x3dbd66ea	0.09248145
13	0x3d4794b8	0.048725814
14	0x3d154088	0.036438495
15	0x3c8d8c10	0.017278701
16	0x3e82fe37	0.25584576
17	0x3ed1808d	0.4091839
18	0x3d886260	0.066593885
19	0x3d4f4993	0.050607275
20	0x3c8052b5	0.015664438
21	0x3dd1fa57	0.10252827
22	0x3dbcdcfc	0.09221837
23	0x3e199b47	0.1500064
24	0x3e0b5e1e	0.13610122
25	0x3cbf0468	0.02331753
26	0x3c423d3d	0.011855421
27	0x3e3aa9e5	0.18228872
28	0x3e38ca41	0.18045904
29	0x3c9adeba	0.018905032
30	0x3f59c4cf	0.8506593
31	0x3e409345	0.18806179
32	0x3dad3183	0.08456709
33	0x3c3efb94	0.011656661
34	0x3c8aa0a1	0.016922297
35	0x3e075449	0.13215746
36	0x401b9d51	2.4314768
37	0x3b99c7c0	0.0046930015
38	0xbae86852	-0.0017731285
39	0x3d1797dd	0.037010062
40	0x3bd9958f	0.006640143
41	0x3dc7483a	0.09730573
42	0x3c13263c	0.008981284
43	0x3d8b080e	0.06788646
44	0x3ab8c7bd	0.0014097613
45	0x3b183547	0.0023225115
46	0x3ce77a2b	0.028256496
47	0x3e9a1496	0.3009383
48	0x3d0e3eed	0.03472798
49	0x3bc48f6b	0.005998542
50	0x3c836ec6	0.016044032
51	0x3d2340d7	0.039856758
52	0x3ec312c1	0.38100246
53	0x3c446e91	0.011989252
54	0x3c36ec57	0.011164746
55	0x3de11469	0.10990221
56	0x3c14ff96	0.00909414
57	0x3e7a2b7b	0.24430649
58	0x3e22235b	0.158338
59	0xbb0ae028	-0.0021190736
60	0x3d8884a0	0.06665921
61	0xbbf9df87	-0.0076255235
62	0x3cb1f7cf	0.02172461
63	0x3b00cf61	0.0019654857
64	0xbd892621	-0.06696726
65	0xbd3b0b88	-0.045665294
66	0x3cf14d98	0.029455945
67	0xbb9d1682	-0.004793943
68	0xbf871173	-1.05522
69	0xbcbfc891	-0.023411067
70	0x3c9f62bf	0.019456265
71	0xbd4e1583	-0.050313484
72	0x3caeb58a	0.021326799
73	0xbc86afd8	-0.01644127
74	0x3c91047f	0.01770234
75	0x3c02b284	0.007977132
76	0x3c030e7d	0.00799906
77	0x3cb5d3d8	0.022195742
78	0xbf79cb3c	-0.97575736
79	0x3c701b3b	0.01465493
80	0xbd49c4d9	-0.049259994
81	0xbcab32a9	-0.02089818
82	0x3d518663	0.05115355
83	0xbd724d2c	-0.059155628
84	0x3c47b6dc	0.012189593
85	0xbd15ccff	-0.036572453
86	0xbcc6311f	-0.024193345
87	0x3df34edd	0.11880276
88	0xbcc31e88	-0.02381827
89	0x3f5c7b3f	0.8612556
90	0xbb8ea530	-0.004353188
91	0xbc3ad247	-0.011402673
92	0xbd9ddc2b	-0.07708009
93	0x3c3911ef	0.01129578
94	0xbceaabbb	-0.02864634
95	0xbca3ac96	-0.019979756
96	0x3ea76a74	0.32698405
97	0x3e0cf3a8	0.13764822
98	0x3e6d905b	0.23199598
99	0x3dcd6ef4	0.10030928
100	0x3d910231	0.07080496
101	0x3d3e69cc	0.046487615
102	0x3e20bb91	0.15696551
103	0x3e21f24e	0.15815088
104	0x3cd16be7	0.025564147
105	0x3db79d01	0.08965493
106	0x3e5efd5a	0.21776333
107	0x3cbed10e	0.023293044
108	0x3e084137	0.13306127
109	0x3d8baa8a	0.06819637
110	0x3dad423c	0.08459899
111	0x3d0bc4de	0.034123294
112	0x3d45324d	0.048143674
113	0x3c7d2abe	0.015452085
114	0x3df16b13	0.11788001
115	0x3e0d7770	0.13815093
116	0x3d3e7d29	0.04650608
117	0x3e4ff90e	0.2030985
118	0x3cda7d82	0.026671175
119	0x3baeb081	0.0053310995
120	0x3ce2affc	0.027671807
121	0x3d21b7bd	0.039481867
122	0x3d80eb60	0.06294894
123	0x3d556e01	0.05210686
124	0x3d01b8e0	0.03167045
125	0x3d11b337	0.035571303
126	0x3e96c18a	0.29444534
127	0x3dec4261	0.11536098

lstm.weight_hh_l0 f4 [128, 32]
0	0x3e9deb8e	0.30843776
1	0x3eca48da	0.39508706
2	0xbe648c47	-0.22319137
3	0xbebb38ed	-0.36566868
4	0x3ed15c08	0.40890527
5	0x3e84fe7c	0.25975406
6	0xbc1e408d	-0.009658945
7	0x3ef16eee	0.47154945
8	0x3e5039c2	0.20334533
9	0x3ede6c9e	0.43442243
10	0x3d82d44d	0.063881494
11	0x3e2629fa	0.1622695
12	0xbe0f3732	-0.13985899
13	0xbeb18e7f	-0.34679028
14	0x3e2d2d84	0.16911894
15	0xbee43332	-0.4457031
16	0x3f3175ad	0.69320184
17	0x3de8b00c	0.11361703
18	0xbde86046	-0.11346488
19	0x3e9dff0d	0.3085865
20	0xbe2e0791	-0.16995074
21	0x3ec0f843	0.3768941
22	0x3d0e21da	0.034700252
23	0xbd22d6fe	-0.039755814
24	0x3de90811	0.11378492
25	0xbed73546	-0.42032832
26	0x3e047026	0.12933406
27	0xbeaa6b81	-0.33285144
28	0x3e97dcc9	0.29660633
29	0x3d68b46d	0.056812692
30	0x3ebacecf	0.36485907
31	0x3e21a4d8	0.15785539
32	0xbd1648f8	-0.036690682
33	0x3f2ff9ae	0.68740356
34	0xbebdbffa	-0.3706053
35	0xbedef2b8	-0.43544555
36	0xbf866f71	-1.0502759
37	0x3eb20ec3	0.34776887
38	0xbe3c57f2	-0.18392923
39	0xbd2e32b0	-0.042528808
40	0xbe3e7400	-0.18598938
41	0x400e73ce	2.2258182
42	0x3d8bb2bd	0.06821201
43	0xbf7a4ccb	-0.97773427
44	0x3e7ac3e5	0.2448879
45	0x3f158051	0.5839892
46	0x3ee14b64	0.4400283
47	0xbe4d5070	-0.20050216
48	0xbec3b790	-0.38225985
49	0x3e24739e	0.1605973
50	0xbf03e285	-0.51517516
51	0xbef64ba1	-0.48104575
52	0x3e9a79e6	0.30171126
53	0x3e6ced6d	0.23137446
54	0x3cd14dc2	0.025549773
55	0x3f68ec50	0.90985584
56	0xbe603887	-0.21896563
57	0xbd3a3d36	-0.04546853
58	0xbf567d80	-0.8378525
59	0xbf1c6069	-0.6108461
60	0x3ea90568	0.33011937
61	0x3ed84dc8	0.42246842
62	0x3f03f56a	0.5154635
63	0x3e245004	0.16046149
64	0xbe8a266c	-0.2698244
65	0x3f8226c7	1.0168084
66	0xbf3a034d	-0.72661287
67	0xbfcadc47	-1.5848473
68	0x3db1c7e0	0.08680701
69	0x3f32a5cb	0.6978423
70	0xbef73754	-0.482844
71	0x3f9a021c	1.2031894
72	0xbef9ecb1	-0.48813394
73	0x40302c94	2.7527208
74	0xbfa5341b	-1.2906526
75	0xbfcdbd52	-1.6073401
76	0x3e8376dd	0.25676623
77	0xbf05b615	-0.5223096
78	0x3f70ca41	0.94058615
79	0xbf962f1e	-1.1733129
80	0x3fa19c23	1.2625774
81	0x3f041021	0.5158711
82	0xbf3a5616	-0.72787607
83	0x3e890900	0.2676468
84	0xbf1f4a6a	-0.6222292
85	0x3f915f8a	1.1357281
86	0x3e23094c	0.15921515
87	0x3f0b2b20	0.5436268
88	0x3f2522ee	0.64506423
89	0xbe4f9c32	-0.20274428
90	0xbf82c22a	-1.0215504
91	0x3f8d46a5	1.1037184
92	0x3f105f2f	0.5639524
93	0x3e7b9256	0.24567541
94	0x3f4d7cee	0.8026875
95	0x3f3fa662	0.74863255
96	0x3e1c41c5	0.15259464
97	0x3e29a3a0	0.16566324
98	0xbc8fc412	-0.017549548
99	0xbdd650e9	-0.10464651
100	0x3ecd10b4	0.40051806
101	0xbd1770dd	-0.03697287
102	0x3d45d16c	0.048295423
103	0x3d89ac97	0.06722372
104	0x3dfad2ca	0.12247236
105	0xbe05fb4a	-0.1308414
106	0x3e6af78e	0.22945997
107	0xbdd57207	-0.104221396
108	0x3dc4fe6a	0.09618838
109	0x3ebf2a58	0.37336993
110	0x3eb9c228	0.36280942
111	0x3e21000b	0.15722673
112	0xbd745768	-0.05965367
113	0xbf349ef8	-0.7055507
114	0xbe761d5d	-0.24034639
115	0x3e92aef0	0.28649092
116	0x3c3a3f9a	0.011367703
117	0x3ddcd037	0.10781901
118	0xbe2e49f0	-0.17020392
119	0xbeccb619	-0.3998268
120	0xbe4866cc	-0.19570464
121	0x3d9b096e	0.07570158
122	0x3e164f2c	0.14678639
123	0xbeda2859	-0.42608908
124	0x3e096e7c	0.13421053
125	0x3f7fb7ec	0.9989002
126	0xbe5f1698	-0.21785963
127	0x3e7257e4	0.2366634
128	0x3d353542	0.044240244
129	0x3f33bb92	0.70208085
130	0x3f2b284c	0.66858363
131	0xbdd2e4f4	-0.102975756
132	0xbf96beb4	-1.1776948
133	0xbeec18a0	-0.46112537
134	0x3eaf4c7f	0.3423805
135	0x3d44983e	0.047996752
136	0x3f449a4b	0.7679793
137	0x3e502c27	0.20329343
138	0xbe0b3a9d	-0.13596578
139	0x3db98762	0.09059025
140	0x3f1db618	0.6160598
141	0x3ed1d406	0.40982074
142	0x3e4f2740	0.20229816
143	0x3dce97f2	0.10087575
144	0x3e834fbf	0.2564678
145	0xbe8f3e5d	-0.27977267
146	0xbf0d78ca	-0.55262434
147	0x3d559947	0.05214813
148	0xbf9217c1	-1.1413499
149	0xbeb38487	-0.35062048
150	0xbf3e79f7	-0.74404854
151	0x3fdc5fe0	1.7216759
152	0xbef6f737	-0.48235485
153	0x3ea072f2	0.31337696
154	0x3f1073d1	0.5642672
155	0x3ef2f1ac	0.47450006
156	0xbd34e367	-0.04416218
157	0xbe922204	-0.28541577
158	0xbf2ef07d	-0.68335706
159	0x3f54a923	0.8307058
160	0x3e85732d	0.26064435
161	0x3ed982ec	0.42482698
162	0xbf14412d	-0.5791195
163	0xbf8b4b4e	-1.0882356
164	0x3f014168	0.50490427
165	0x3f0ed812	0.5579845
166	0xbea8b872	-0.3295322
167	0x3e4bb761	0.19894172
168	0x3d815040	0.063141346
169	0x3ea44166	0.32081145
170	0xbd93a69e	-0.07209514
171	0xc02bea66	-2.6861815
172	0xbd21045b	-0.039310794
173	0xbf62b0e5	-0.8855117
174	0x3edb3515	0.42813936
175	0xbf661d48	-0.8988843
176	0x3e9df109	0.30847958
177	0x3c5b732b	0.013394157
178	0xbf1d1b4f	-0.61369795
179	0x3eef10bf	0.46692464
180	0x3d4bdcdf	0.049771186
181	0x3f2da693	0.678323
182	0x3bac0814	0.0052499864
183	0xbf25e069	-0.6479555
184	0x3e89c092	0.26904732
185	0xbf4260cf	-0.7592897
186	0xbe0ec51d	-0.1394238
187	0x3e6a56fb	0.22884743
188	0x3f46add7	0.7760901
189	0x3e217758	0.15768182
190	0x3e8aff1b	0.27147755
191	0x3ea95e5c	0.33079803
192	0xbe12e241	-0.14344122
193	0xbf1131f7	-0.56716865
194	0xbe4092c3	-0.18805985
195	0x3f46c651	0.77646357
196	0xbd825b43	-0.06365063
197	0x3dfd225d	0.1236007
198	0xbe48431c	-0.1955685
199	0xbddef3af	-0.10886323
200	0xbf1aaa2f	-0.6041593
201	0xbe744e5c	-0.23858017
202	0x3e62fc04	0.22166449
203	0x3e31054e	0.1728718
204	0x3cf53222	0.029931132
205	0xbf63bc56	-0.8895925
206	0xbf0524cf	-0.5200929
207	0xbeb091df	-0.3448629
208	0xbecff887	-0.406193
209	0x3e05084c	0.12991446
210	0x3ed4cec0	0.41563988
211	0xbe949b6d	-0.2902483
212	0x3f694ba1	0.91131026
213	0x3ceb4a05	0.028721819
214	0x3efae41c	0.4900216
215	0x3e47c52f	0.19508813
216	0x3f2c5f2f	0.6733274
217	0xbe33dbf9	-0.17564382
218	0xbe100956	-0.14066061
219	0xbf044d93	-0.5168087
220	0xbeda527b	-0.42641053
221	0xbf37f51b	-0.71858376
222	0x3f7069fe	0.9391173
223	0x3d9003ac	0.0703195
224	0xbf268a87	-0.65055126
225	0x3e739c9c	0.2379021
226	0xbe0bfadb	-0.13669913
227	0xbee58f2f	-0.44835803
228	0x3dd5273c	0.10407874
229	0x3dd0416d	0.10168729
230	0xbe3417ec	-0.1758725
231	0x3f012dfc	0.5046079
232	0xbf24d1a2	-0.64382374
233	0x3f1800e5	0.59376365
234	0xbee2a1f4	-0.44264185
235	0xbf83ca39	-1.0296088
236	0xbef3e03d	-0.47632018
237	0xbdadc813	-0.08485427
238	0xbed579d1	-0.416945
239	0xbf98a9e8	-1.1926851
240	0x3f22389f	0.63367647
241	0x3ead8129	0.33887604
242	0x3da9f80c	0.08299264
243	0xbdb9c98c	-0.09071645
244	0xbc7bf22f	-0.015377565
245	0xba6b0c5c	-0.000896638
246	0x3e60455a	0.21901456
247	0xbe752a92	-0.2394202
248	0xbeb4cd6a	-0.35312968
249	0x3da867f1	0.0822295
250	0xbf5ce20f	-0.8628244
251	0xbf2ed008	-0.6828618
252	0x3e2b867b	0.16750519
253	0x3f0e5d21	0.55610853
254	0x3db57d74	0.08861819
255	0x3cde5b9c	0.027143292

lstm.bias_ih_l0 f4 [128]
0	0xbf1d3a1a	-0.6141678
1	0xbdb8e8a5	-0.090287484
2	0x3de19490	0.11014664
3	0xbf0901a3	-0.5351812
4	0x3f2fddf5	0.68698055
5	0xbec3b419	-0.3822334
6	0xbe0c0215	-0.13672669
7	0xbf03440c	-0.51275706
8	0xbe9109b3	-0.28327712
9	0xbefff037	-0.49987957
10	0xbed6118d	-0.41810265
11	0xbecf4de5	-0.40489116
12	0x3e041115	0.12897141
13	0x3d487e26	0.04894843
14	0x3d4b5296	0.049639307
15	0xbf3401e9	-0.70315415
16	0xbf061cab	-0.52387494
17	0xbf0b2c46	-0.5436443
18	0xbe08ed83	-0.13371854
19	0xbe3bb584	-0.18330961
20	0xbee8e01a	-0.45483476
21	0x3c9c2455	0.019060293
22	0xbd6e5abe	-0.058192007
23	0x3f10c38f	0.565484
24	0xbdf6fbb8	-0.1205973
25	0x3d93c2ee	0.07214914
26	0xbd34e6d6	-0.044165455
27	0xbefdfff5	-0.49609342
28	0x3f6c940d	0.9241341
29	0x3d0732b3	0.033007335
30	0xbeb4b879	-0.3529699
31	0xbf0a79d5	-0.5409215
32	0x3c9ca834	0.019123174
33	0x3ebed31b	0.37270436
34	0xbe82d7e9	-0.2555535
35	0x3e794343	0.24342065
36	0x3e907c59	0.2821987
37	0xbbf28720	-0.007401362
38	0xbce1e7ce	-0.027576353
39	0xbe2b9c8e	-0.1675894
40	0xbe0fd1b0	-0.14044833
41	0x3e680597	0.22658382
42	0x3dded5ed	0.10880647
43	0xbe450781	-0.19241144
44	0xbe2a014c	-0.16602057
45	0x3e3d0cc4	0.18461901
46	0x3e92b1bd	0.2865123
47	0x3e9cc939	0.3062227
48	0xbef63639	-0.48088244
49	0xbecb2388	-0.39675546
50	0x3e989928	0.2980435
51	0x3e268962	0.16263345
52	0x3e9ba3a0	0.30398273
53	0x3c4e52a4	0.012592945
54	0xbdeb8f7e	-0.11501978
55	0x3e9ad5b0	0.30241156
56	0xbdfb1c14	-0.12261215
57	0x3f8c3401	1.095337
58	0x3f2529ba	0.64516795
59	0x3d9d588d	0.07682905
60	0xbd5273a8	-0.05137983
61	0x3e77434f	0.2414677
62	0xbe7a747b	-0.24458496
63	0x3e608857	0.2192701
64	0xbe78a683	-0.24282269
65	0x3e35a66b	0.17739265
66	0x3d825ece	0.06365739
67	0xbf0a0cd5	-0.5392583
68	0xbe947c5d	-0.29001132
69	0x3e08f7a1	0.13375713
70	0xbe132f42	-0.14373496
71	0x3e75ae50	0.23992276
72	0xbe1f27d5	-0.15542538
73	0x3e775db5	0.2415684
74	0xbe90b0a7	-0.28259775
75	0xbf485e72	-0.7826911
76	0xbfa6a833	-1.302008
77	0xbe99e2a7	-0.30055735
78	0xbf0e1a19	-0.5550857
79	0xbf06608b	-0.5249106
80	0x3e9d2490	0.30691957
81	0x3e864a34	0.26228487
82	0xbcb4dae8	-0.022077039
83	0x3e421f3c	0.18957227
84	0xbe8fe478	-0.28103995
85	0xbdf0c87c	-0.11756989
86	0x3deef046	0.11666922
87	0x3ef25bb5	0.47335592
88	0x3ea2e1d1	0.3181291
89	0x3fbe4077	1.4863423
90	0xbf3fc111	-0.7490397
91	0x3d9910b3	0.07473888
92	0xbf25b66b	-0.6473147
93	0xbea9571b	-0.3307427
94	0x3ebf052b	0.3730863
95	0xbd64fbea	-0.055904306
96	0x3e0ee27b	0.13953583
97	0x3b73bf85	0.0037193012
98	0x3fae0d4e	1.359781
99	0x3e454ffd	0.19268794
100	0x3e3eb596	0.18623957
101	0xbdcd5128	-0.10025245
102	0xbf27fdfb	-0.6562192
103	0xbeb87a29	-0.360307
104	0xbd5131b3	-0.051072787
105	0x3e4eaadb	0.20182364
106	0xbe68f339	-0.22749032
107	0x3c323fcb	0.010879467
108	0xbcaa734d	-0.020806933
109	0xbf003d9f	-0.50094026
110	0xbc563465	-0.013074015
111	0xbe6036e1	-0.21895935
112	0xbeaef7d2	-0.34173447
113	0xbef8b0ae	-0.48572296
114	0x3dd8da20	0.10588479
115	0x3d370ee0	0.04469192
116	0x3e0cd166	0.13751754
117	0xbec4e85e	-0.38458532
118	0x3d878424	0.06617001
119	0x3ee56a37	0.44807598
120	0x3c3a8fad	0.011386794
121	0xbf20bc4f	-0.62787336
122	0xbea68ab3	-0.32527694
123	0xbd11ddbb	-0.03561185
124	0xbe98f591	-0.29874852
125	0x3df532f4	0.11972609
126	0x3f8a0592	1.078295
127	0xbce6d83c	-0.02817928

lstm.bias_hh_l0 f4 [128]
0	0xbecae0b5	-0.39624563
1	0xbe2f053d	-0.17091842
2	0x3e9ea2c5	0.30983558
3	0xbefde903	-0.49591836
4	0x3ef0a0eb	0.4699777
5	0xbeadc583	-0.33939752
6	0xbdd1220d	-0.10211573
7	0xbe586387	-0.21131717
8	0xbed590a2	-0.4171191
9	0xbf2ec296	-0.68265665
10	0xbebf128c	-0.37318838
11	0xbf295535	-0.6614564
12	0x3e80f40c	0.25186193
13	0xbcee6aa0	-0.029103577
14	0xbdcacc35	-0.09902231
15	0xbf2b97fb	-0.6702878
16	0xbedc1373	-0.4298359
17	0xbeebe5b3	-0.46073684
18	0xbd6b2450	-0.057407677
19	0xbe957d5c	-0.29197204
20	0xbe4ddf28	-0.20104659
21	0x3dc75710	0.09733403
22	0xbe13a3f8	-0.14418018
23	0x3f42860f	0.7598581
24	0xbdca3b1b	-0.09874555
25	0x3ebd8cad	0.3702139
26	0xbe1a8d16	-0.15092883
27	0xbeef87c8	-0.4678328
28	0x3f63ef43	0.8903696
29	0x3b00f314	0.0019676136
30	0xbe29e959	-0.16592921
31	0xbf1823d7	-0.5942969
32	0x3e77bbb5	0.24192698
33	0x3f0c6bea	0.54852164
34	0xbe542112	-0.2071574
35	0x3e6e7e25	0.23290308
36	0x3e934b2b	0.28768286
37	0x3d9938e6	0.07481556
38	0x3e1258df	0.14291714
39	0xbe0a6f0b	-0.13518922
40	0xbe457fe6	-0.1928707
41	0x3efcbbf0	0.49362135
42	0xbdcafdcc	-0.09911689
43	0xbe595745	-0.21224697
44	0xbed62583	-0.41825494
45	0x3e44136d	0.19148035
46	0x3e8a3d49	0.26999882
47	0x3e2d8ee6	0.16949043
48	0xbed2b912	-0.41156822
49	0xbec89e04	-0.39183056
50	0x3edf0d49	0.43564823
51	0x3e7e0dbf	0.24809931
52	0x3ebd269d	0.36943522
53	0x3d6ff03e	0.058578722
54	0xbe530c98	-0.20610273
55	0x3e8fd8cb	0.28095087
56	0xbd881956	-0.066454574
57	0x3f853d7d	1.040939
58	0x3ebbdd2f	0.36692187
59	0x3c1c6114	0.00954463
60	0x3e72ac83	0.2369862
61	0x3db2f75f	0.087385885
62	0xbea726ed	-0.32646886
63	0x3eadbb22	0.33931834
64	0xbe16385b	-0.14669935
65	0x3d665267	0.05623093
66	0xbdb647ac	-0.08900389
67	0xbecd9437	-0.4015214
68	0xbe6a7cf0	-0.22899222
69	0x3e091b05	0.13389213
70	0xbe4fde55	-0.20299657
71	0x3da89ff1	0.082336314
72	0xbe6ed8f7	-0.23324953
73	0x3d43411b	0.04766951
74	0xbef5a049	-0.4797385
75	0xbf3d176a	-0.7386385
76	0xbf9b5624	-1.2135663
77	0xbdcc62c1	-0.09979773
78	0xbecc2907	-0.3987505
79	0xbef71f56	-0.48266095
80	0x3eb5a209	0.35475186
81	0x3ee7e3b6	0.45290917
82	0x3e7f5d31	0.24937893
83	0x3e6ef6a6	0.23336276
84	0xbeb36630	-0.350389
85	0xbd0dd270	-0.034624517
86	0x3da6e487	0.08149057
87	0x3efaaca4	0.4895984
88	0x3e46f327	0.19428693
89	0x3fb33e20	1.4003334
90	0xbf317eb8	-0.6933398
91	0x3e0e727c	0.1391086
92	0xbf46d11b	-0.7766282
93	0xbc476ca1	-0.012171895
94	0x3ebdc7e6	0.37066573
95	0x3dd81ddd	0.10552571
96	0x3dd6ca9e	0.10487865
97	0x3d9ca812	0.07649244
98	0x3fc8ec1d	1.5697056
99	0xbd6496a5	-0.05580773
100	0x3dd7fcff	0.10546302
101	0xbcd1e262	-0.025620643
102	0xbef10582	-0.47074515
103	0xbebdc6f4	-0.37065852
104	0xbd9e5d67	-0.07732659
105	0x3e174dcd	0.14775772
106	0xbe2b1987	-0.16708957
107	0xbde9eee5	-0.11422519
108	0x3e3a8f2b	0.18218677
109	0xbed7d38d	-0.42153588
110	0xbc1e0df5	-0.009646882
111	0xbe983f14	-0.29735625
112	0xbeabacfb	-0.3353041
113	0xbe9a6eb1	-0.30162576
114	0x3e96d148	0.29456544
115	0x3e2e8db7	0.17046247
116	0xbd623b30	-0.055232227
117	0xbe335152	-0.1751149
118	0x3ea40c9a	0.32040864
119	0x3df5a40a	0.119941786
120	0xbdec4f92	-0.11538614
121	0xbedf5a0c	-0.43623388
122	0xbe9ddad6	-0.3083102
123	0xbce85141	-0.028359057
124	0xbe0ad471	-0.13557602
125	0xbda83c2d	-0.082146026
126	0x3facfba9	1.35143
127	0x3c702d5d	0.014659253

conv1.weight f4 [12, 32, 1, 12]
0	0xbfe3b213	-1.7788719
1	0xbfe94177	-1.8223103
2	0xbfe64f27	-1.7992905
3	0xbfde3640	-1.7360306
4	0xbfdd66fd	-1.7297055
5	0xbfcd8dfc	-1.6058955
6	0xbfcead7d	-1.6146694
7	0xbfc38202	-1.527405
8	0xbfbcc963	-1.4748958
9	0xbfbadc8d	-1.4598557
10	0xbfb8830a	-1.441499
11	0xbfbdb3d8	-1.4820509
12	0xbfe81d20	-1.8133888
13	0xbfec1370	-1.8443432
14	0xbfe66364	-1.7999082
15	0xbfe02e36	-1.7514102
16	0xbfd976c2	-1.6989367
17	0xbfc47a26	-1.5349777
18	0xbfeed44e	-1.865854
19	0xbfe72cd9	-1.8060561
20	0xbfb8603d	-1.440437
21	0xbfc47148	-1.5347071
22	0xbfb47473	-1.4098037
23	0xbf33e3bc	-0.7026937
24	0x3fe50dad	1.7894799
25	0x3fe707e5	1.8049284
26	0x3fe118db	1.758571
27	0x3fcb4c5e	1.588268
28	0x3fd535fe	1.6657102
29	0x3f83b407	1.0289315
30	0x3f9cbaf2	1.2244551
31	0x3fbe08db	1.4846452
32	0x400a524f	2.1612737
33	0x40365df7	2.8494852
34	0x405df251	3.4679148
35	0x40821110	4.064583
36	0x400aa673	2.1664093
37	0x400d71d8	2.2100735
38	0x4013be5f	2.3084943
39	0x4014e2e8	2.3263493
40	0x400f3d17	2.2381036
41	0x400cdc24	2.2009363
42	0x400c0ebd	2.1883996
43	0x400e8a67	2.2271974
44	0x4008da4f	2.1383245
45	0x4005c138	2.0899181
46	0x3fff99c6	1.9968803
47	0x3ff6e1aa	1.9287617
48	0xbfed0d4e	-1.8519685
49	0xbfeea157	-1.8642987
50	0xbfe87e55	-1.8163553
51	0xbfe8c471	-1.8184949
52	0xbfe668f3	-1.8000778
53	0xbfeb39cf	-1.8377017
54	0xbfe4dfcf	-1.7880801
55	0xbfdfceae	-1.7484949
56	0xbfe8db03	-1.8191837
57	0xbfddb6ac	-1.7321372
58	0xbfe6c32b	-1.802831
59	0xbfeed311	-1.8658162
60	0xbfec7099	-1.8471862
61	0xbff22607	-1.8917855
62	0xbfe19d67	-1.762616
63	0xbfd0fd2b	-1.6327261
64	0xbfb14037	-1.3847722
65	0xbf27aba3	-0.6549627
66	0xbfcf3061	-1.6186639
67	0xbfbd5384	-1.4791112
68	0xc01b5230	-2.4268913
69	0xc0667561	-3.6009142
70	0xc0573248	-3.362444
71	0xc05990f6	-3.3994727
72	0x3ff6b093	1.9272636
73	0x3ff4bd06	1.9120185
74	0x3fec0f7a	1.8442223
75	0x3fb7281d	1.4309117
76	0x3f1a4ef9	0.6027675
77	0x3f416a7c	0.7555311
78	0x3fb8c861	1.4436151
79	0x3ff0cef4	1.8813157
80	0x4007944e	2.1184268
81	0x4013d14f	2.3096502
82	0x4022ea41	2.5455477
83	0x4077a7a3	3.8696067
84	0xbfc8924d	-1.5669647
85	0xbfc9e857	-1.577403
86	0xbfce0a8b	-1.6096967
87	0xbfc4b6d3	-1.5368294
88	0xbfbc2650	-1.4699192
89	0xbfbb5069	-1.4633914
90	0xbfbd4784	-1.478745
91	0xbfd74b27	-1.681981
92	0xbfc2fef5	-1.5234057
93	0xbfabf974	-1.3435502
94	0xbf9db8c0	-1.2322006
95	0xbf7a78bd	-0.9784048
96	0x3fecf1b9	1.8511268
97	0x3feb67d4	1.8391061
98	0x4000e7cc	2.0141478
99	0x3ffcae1a	1.9740632
100	0x3feee6e0	1.8664207
101	0x3fd631b4	1.6733918
102	0x3fcf5116	1.619662
103	0x3fca64e6	1.5812042
104	0x3fe05978	1.7527304
105	0x40125436	2.2863898
106	0x404d7703	3.210389
107	0x40ab9f47	5.363193
108	0xc016b04f	-2.354511
109	0xc00c2db5	-2.1902897
110	0xc0075758	-2.114706
111	0xc005d002	-2.0908208
112	0xc0053825	-2.0815518
113	0xc00742ba	-2.1134477
114	0xc00371ff	-2.0538328
115	0xbffebafa	-1.9900811
116	0xc00014c8	-2.0012684
117	0xc00237d5	-2.0346577
118	0xbff899da	-1.9421952
119	0xbfc05ccb	-1.5028318
120	0x3fc7a868	1.5598269
121	0x3f9dc590	1.2325916
122	0x3f4a84bf	0.79108804
123	0x3f7c885c	0.9864557
124	0x3f9fdadd	1.2488667
125	0x3f93d865	1.1550413
126	0x3f9559a7	1.1667985
127	0x3f84cec2	1.0375597
128	0x3f86b46a	1.0523808
129	0x3f9c2f56	1.2201946
130	0x3fc4da97	1.5379208
131	0x402ee87a	2.7329392
132	0x404eb225	3.229623
133	0x404ea3d3	3.228749
134	0x404b3bc4	3.1755228
135	0x404acb1c	3.1686468
136	0x404e0faa	3.219706
137	0x404d5f17	3.2089288
138	0x4047f8db	3.124564
139	0x404a339e	3.1594005
140	0x404d74c1	3.210251
141	0x404b832e	3.1798816
142	0x4050561f	3.2552564
143	0x40580f5d	3.3759377
144	0x3fc39ea3	1.5282787
145	0x3ff6643a	1.9249337
146	0x3ffda591	1.9816152
147	0x3ff78ebe	1.9340436
148	0x3ff8ae7c	1.9428248
149	0x3feffa65	1.8748289
150	0x3ff06cd8	1.8783216
151	0x3ffe241c	1.985477
152	0x400a2f38	2.159132
153	0x401c5084	2.4424143
154	0x402da0d5	2.7129414
155	0x4042facc	3.0465574
156	0x3ff1baee	1.8885171
157	0x3ff6dede	1.9286764
158	0x3fea19f2	1.8289168
159	0x3fb7d16b	1.4360784
160	0x3f9ad9a3	1.2097667
161	0x3fb9cc10	1.45154
162	0x3fd7990c	1.6843581
163	0x40070759	2.1098235
164	0x401c6fe7	2.44433
165	0x402f2fa6	2.7372832
166	0x404dda8e	3.2164645
167	0x408d2ea2	4.4119425
168	0xbfef750b	-1.8707594
169	0xbfea18c8	-1.8288813
170	0xbfde32c3	-1.7359241
171	0xbfdffae1	-1.7498437
172	0xbfd98da8	-1.6996355
173	0xbfdcd87a	-1.7253563
174	0xbfe04bb7	-1.7523106
175	0xbfdcf34f	-1.7261752
176	0xbfdac72f	-1.7092036
177	0xbfe01d97	-1.750903
178	0xbfd7677c	-1.6828456
179	0xbfd465ab	-1.6593527
180	0x401bd276	2.4347205
181	0x4021c42e	2.5275989
182	0x401d23b7	2.4553049
183	0x40203493	2.5032089
184	0x401aa677	2.4164102
185	0x40176229	2.3653662
186	0x401629b9	2.3462965
187	0x4012a673	2.2914093
188	0x400b4e45	2.1766522
189	0x400b2aaa	2.174479
190	0x400d9f8d	2.2128632
191	0x4009037c	2.1408377
192	0xbfbcaa36	-1.4739444
193	0xbfc92d2d	-1.5716912
194	0xbfc56c97	-1.5423764
195	0xbfc3490f	-1.5256671
196	0xbfbcd226	-1.4751632
197	0xbfc251f6	-1.5181262
198	0xbfd20d61	-1.6410333
199	0xbfc30108	-1.523469
200	0xbfb3b508	-1.4039621
201	0xbfb3a38b	-1.4034284
202	0xbfb1dff7	-1.3896474
203	0xbfaeab1d	-1.364597
204	0xc000c93f	-2.012283
205	0xbff1312d	-1.8843132
206	0xbfaf7bcc	-1.3709655
207	0xbfc93a3b	-1.5720896
208	0xbfe8aadd	-1.8177143
209	0xbfdbcfb3	-1.717276
210	0xc0047e79	-2.0702193
211	0xc01316eb	-2.2982738
212	0xc03852d1	-2.8800547
213	0xc08249e0	-4.071518
214	0xc090af1a	-4.5213747
215	0xc0b3521c	-5.603773
216	0x3fc0a099	1.504901
217	0x3fcb36bb	1.5876077
218	0x3fc9cfe7	1.5766572
219	0x3fcb229e	1.5869939
220	0x3fc83355	1.5640665
221	0x3fc822d4	1.5635629
222	0x3fcab521	1.5836526
223	0x3fc34a0e	1.5256975
224	0x3fc9c178	1.5762167
225	0x3fcdc3af	1.6075343
226	0x3fcaf8c1	1.5857164
227	0x3fcbbdb3	1.5917267
228	0xbfb3a4a4	-1.4034619
229	0xbfc25bdf	-1.5184287
230	0xbfc69eb0	-1.5517178
231	0xbfc30414	-1.523562
232	0xbfc43e8c	-1.5331588
233	0xbfbbf0ce	-1.4682863
234	0xbfbd882d	-1.4807183
235	0xbfbdfb0d	-1.484224
236	0xbfbc1189	-1.4692851
237	0xbfbe3e9e	-1.4862859
238	0xbfb776c9	-1.4333125
239	0xbfbd5a74	-1.4793229
240	0x403e527d	2.9737847
241	0x400ef735	2.2338383
242	0x40044f24	2.0673304
243	0x3ff71ae3	1.930508
244	0x3ff3f4dc	1.90591
245	0x3fe9c167	1.8262147
246	0x3ff1cf5c	1.8891406
247	0x3fe6cc0d	1.8031021
248	0x3fdfdc7d	1.7489163
249	0x3fceda14	1.6160302
250	0x3fc50ef9	1.5395194
251	0x3fa9af55	1.3256632
252	0xbff05c93	-1.8778251
253	0xbfee4e2c	-1.8617606
254	0xbfe74e1f	-1.8070716
255	0xbfe02d2c	-1.7513785

conv1.bias f4 [12]
0	0x3fc416b3	1.5319427
1	0x3fbc6672	1.4718764
2	0x3fb3a614	1.4035058
3	0x3fb3a99d	1.4036137
4	0x3fac6f2f	1.347143
5	0x3fab5dc1	1.3387986
6	0x3fb00475	1.375136
7	0x3fb65474	1.4244523
8	0x3fb0490d	1.3772293
9	0x3fbf9809	1.4968272
10	0x3fc057e7	1.5026826
11	0x3fc2efd3	1.5229439
