Model Training and Evaluation Results/PEMS08/Gated-STGCN/Gated_STGCN_best_20.64.pth (torch, 155927 bytes, 26 tensors)

block1.conv1.weight f4 [32, 1, 1, 3]
0	0x3f002148	0.50050783
1	0xbe9aefd4	-0.302611
2	0xbe21bebc	-0.15795416
3	0x3e63dba2	0.22251752
4	0xbf14995b	-0.580465
5	0x3efaaed8	0.4896152
6	0xbe10eb20	-0.14152193
7	0x3ee0c0e9	0.4389718
8	0x3e38e66c	0.18056649
9	0xbee56e4f	-0.4481072
10	0x3e8881cf	0.26661536
11	0x3e37dc56	0.17955145
12	0x3d1bcf2a	0.038039364
13	0xbe377988	-0.17917454
14	0x3dadddb4	0.08489552
15	0xbef4b897	-0.4779708
16	0x3eaea588	0.34110665
17	0x3e4e9732	0.20174864
18	0x3f15432a	0.5830561
19	0x3e1928ba	0.14956942
20	0xbe94c940	-0.29059792
21	0xbe6894c6	-0.22713003
22	0x3dea034d	0.11426411
23	0x3d091ea9	0.033476505
24	0xbe63c767	-0.22244035
25	0x3d2a3dae	0.04156273
26	0x3eba3654	0.36369574
27	0x3efe34f4	0.49649775
28	0xbef9ee8b	-0.48814806
29	0x3e8ed94a	0.27900153
30	0x3d1395d6	0.036031567
31	0x3f15439e	0.583063
32	0x3edcb219	0.43104628
33	0xbe8d5301	-0.2760239
34	0xbebb2a35	-0.3655564
35	0xbe49e967	-0.19717942
36	0x3f0b3558	0.5437827
37	0xbe8d7d42	-0.27634627
38	0x3e1e6908	0.15469754
39	0xbf0becb2	-0.54658043
40	0x3efb047f	0.49026868
41	0xbe2d64fc	-0.16933054
42	0x3f1975d2	0.59945405
43	0xbe0ad849	-0.13559069
44	0xbef85437	-0.4850175
45	0x3f0966a7	0.5367226
46	0xbf0ce83d	-0.5504187
47	0x3e2b39dd	0.16721292
48	0xbddfdd58	-0.1093089
49	0xbe92542e	-0.2857985
50	0xbf5e5c20	-0.8685932
51	0xbee756cd	-0.4518341
52	0x3cd26041	0.025680663
53	0xbe441839	-0.19149865
54	0x3f88c4ec	1.0685096
55	0x3f51cce0	0.8195324
56	0x3ea1e7b7	0.31622097
57	0xbfd3460f	-1.6505755
58	0x3ecdde3b	0.4020861
59	0x3f04abc6	0.51824605
60	0xbed93fd2	-0.42431504
61	0x3ef1572f	0.47136828
62	0x3f14da2b	0.581454
63	0xbe30708e	-0.17230436
64	0xbfc10573	-1.5079788
65	0xbf82863f	-1.0197219
66	0xbf33fca2	-0.7030736
67	0xbedc5b5e	-0.43038458
68	0xbf3a361e	-0.72738826
69	0xbe43af4f	-0.19109844
70	0x3ed4bd80	0.41550827
71	0xbdc2d610	-0.095134854
72	0xbe0dfa66	-0.1386505
73	0x3b871e7d	0.0041235075
74	0x3f08067d	0.531349
75	0xbe057a93	-0.1303504
76	0x3e0ac623	0.13552146
77	0x3edf2527	0.43583032
78	0xbf2e4db0	-0.6808729
79	0x3db57b97	0.088614635
80	0xbef3dda2	-0.4763003
81	0xbf0e8788	-0.55675554
82	0x3dab8fa4	0.08377007
83	0xbe089beb	-0.13340728
84	0xbda62d1b	-0.08114072
85	0xbf50cf87	-0.8156666
86	0xbf39e81e	-0.7261981
87	0x3ed97b7f	0.42477033
88	0xbe45c7fe	-0.19314572
89	0x3eee0d71	0.4649463
90	0x3c28306f	0.010265454
91	0xbf817dd9	-1.0116531
92	0xbdc094b5	-0.094033636
93	0x3e188401	0.14894105
94	0xbf6cdd3b	-0.9252507
95	0xbf06f1be	-0.5271262

block1.conv1.bias f4 [32]
0	0x3e103861	0.14084007
1	0x3cb0d629	0.021586495
2	0xbe4a2e9b	-0.19744341
3	0x3b9a4504	0.0047079343
4	0x3ee72168	0.45142674
5	0x3d9f788c	0.07786664
6	0x3ec6173b	0.38689598
7	0x3dd98b43	0.10622265
8	0xbdd3f8a5	-0.103501596
9	0xbeae6f15	-0.34069124
10	0x3efd7dd7	0.4951007
11	0x3b1bb04a	0.00237562
12	0x3e9c60e8	0.30542684
13	0xbbb00c8d	-0.00537259
14	0x3e222786	0.1583539
15	0x3e87fb34	0.2655884
16	0x3ec6eca3	0.38852414
17	0xbec2d6c2	-0.38054472
18	0xbe13c454	-0.14430362
19	0x3e5f1ca2	0.21788266
20	0x3ddf03ed	0.10889421
21	0x3f47d3c1	0.78057486
22	0xbf927273	-1.1441177
23	0xbf6ea69f	-0.93222994
24	0xbf4176c0	-0.75571823
25	0xbe6a9ff9	-0.22912587
26	0x3f0d6e00	0.5524597
27	0xbf326f6b	-0.6970126
28	0xbdf064ed	-0.11738
29	0xbf028c28	-0.5099511
30	0xbeed9142	-0.46399885
31	0xbea72afc	-0.32649982

block1.gcn.conv1.weight f4 [32, 48, 1, 1]
0	0xbd95c315	-0.073125996
1	0x3d84b22d	0.06479297
2	0x3d79629a	0.06088505
3	0x3ee2d94b	0.44306406
4	0x3e24898f	0.160681
5	0xbddcd00a	-0.10781868
6	0x3d246cf1	0.040142957
7	0xbe78c001	-0.24291994
8	0x3e5d3297	0.2160133
9	0x3edb3e2e	0.42820877
10	0x3d69cce5	0.05708017
11	0xbdae31a7	-0.08505564
12	0xbe39fb8c	-0.18162364
13	0xbdce2cab	-0.100671135
14	0xbdb26989	-0.087115355
15	0x3ce48621	0.027895989
16	0x3ce74df0	0.028235406
17	0xbe0c2807	-0.13687144
18	0xbdc01800	-0.09379578
19	0xbd2b597d	-0.04183339
20	0x3f30faf5	0.6913293
21	0x3e08b277	0.13349329
22	0x3dcc805e	0.099854216
23	0x3df66b31	0.12032164
24	0x3e44b5e7	0.19210015
25	0x38155043	3.5599118e-05
26	0xbe2ca375	-0.16859229
27	0xbca5edec	-0.020255052
28	0xbdb5e5d1	-0.088817246
29	0xbd1ccd2c	-0.038281605
30	0x3db7daaf	0.089772575
31	0xbe34d8ee	-0.17660877
32	0xbeaa1fab	-0.33227286
33	0x3d12c2ea	0.035830416
34	0x3e1cf4c8	0.15327752
35	0x3df4ada9	0.119471855
36	0xba09577b	-0.0005239171
37	0xbd66ac08	-0.056316406
38	0x3c3555f2	0.011067854
39	0x3d59a7bb	0.053138476
40	0xbc2ee99f	-0.010675817
41	0xbe6b095a	-0.22952786
42	0xbed4048a	-0.41409713
43	0xbd8a813a	-0.06762929
44	0x3eb07d52	0.34470612
45	0x3e38c325	0.18043192
46	0x3e2cd7f3	0.16879253
47	0x3ea0f2b5	0.3143517
48	0x3dc5c26d	0.096562244
49	0xbe457325	-0.19282205
50	0xbeec6b1b	-0.46175465
51	0x3efe9e2b	0.49730048
52	0x3d397f53	0.04528744
53	0xbdf72e25	-0.12069348
54	0x3e260dad	0.16216154
55	0xbd056a8c	-0.032572314
56	0xbed562f4	-0.41677058
57	0x3e658bcf	0.22416614
58	0xbdfef61c	-0.124492854
59	0xbe522908	-0.20523465
60	0xbe1e249b	-0.15443651
61	0xbf15f8e2	-0.5858289
62	0xbea11d6c	-0.3146776
63	0xbe30b156	-0.17255148
64	0xbe532c45	-0.20622356
65	0x3e465b5d	0.1937079
66	0x3e4a72a5	0.19770296
67	0xbe54bb59	-0.20774592
68	0xbe1dce4d	-0.15410729
69	0xbdaa97a4	-0.083297044
70	0xbe8f7e78	-0.28026175
71	0xbe805381	-0.25063708
72	0x3e6e84be	0.23292825
73	0x3e27b597	0.16377865
74	0x3dc055a5	0.093913354
75	0x3d9e0fce	0.07717858
76	0x3f13d2e4	0.5774367
77	0x3ec4275b	0.38311276
78	0x3dc0b12b	0.09408792
79	0xbe93764f	-0.288012
80	0xbc709a7f	-0.014685272
81	0xbe44f249	-0.1923305
82	0xbe7e4e26	-0.24834499
83	0xbd2efb15	-0.04271992
84	0xbcdf5ec6	-0.027266871
85	0xbb457fe0	-0.0030136034
86	0xbe1299d2	-0.1431649
87	0xbcb5a323	-0.022172516
88	0xbac2adb0	-0.0014852788
89	0xbdad0680	-0.084485054
90	0xbba935ab	-0.0051638684
91	0xbc1d6614	-0.009606857
92	0xbee862da	-0.45387918
93	0x3e2ba502	0.16762164
94	0xbea36cb7	-0.3191888
95	0xbef1a2cd	-0.4719452
96	0xbec17de2	-0.37791353
97	0xbee442c0	-0.44582176
98	0xbf039329	-0.51396424
99	0x3e85eaf0	0.26155806
100	0xbde0d738	-0.1097855
101	0x3e225ec0	0.15856457
102	0x3eadfdd5	0.3398272
103	0xbc890dd3	-0.016730225
104	0x3ec5c89b	0.38629612
105	0xbed7038b	-0.4199489
106	0x3e7718ea	0.24130598
107	0x3eccdc7f	0.40011975
108	0xbdec5f41	-0.11541606
109	0xbca580d9	-0.02020304
110	0x3d51b58e	0.051198535
111	0x3e4e631a	0.20154992
112	0x3f662510	0.899003
113	0xbd2e22d0	-0.04251367
114	0xbe28c73d	-0.16482253
115	0x3d9d8745	0.07691816
116	0x3e56d2e2	0.20978883
117	0xbe622d23	-0.22087531
118	0xbdc86a0e	-0.09785853
119	0xbe40d7e7	-0.1883236
120	0x3eb2957d	0.34879676
121	0x3e727418	0.23677099
122	0x3ed01158	0.40638232
123	0x3ec500d5	0.38477197
124	0x3d30c604	0.043157592
125	0x3e759c01	0.23985292
126	0xbc86de5a	-0.016463447
127	0xbddb03f6	-0.10694115
128	0x3e14a347	0.1451541
129	0xbd88f614	-0.06687561
130	0xbe14f0c5	-0.14544971
131	0xbe18f8fd	-0.14938731
132	0xbe5cf0a5	-0.21576174
133	0xbc2391b1	-0.009983466
134	0xbde00d12	-0.10939993
135	0xbdcf100a	-0.10110481
136	0x3de2afcd	0.110686876
137	0xbe01e3fc	-0.12684625
138	0xbe79a010	-0.24377465
139	0xbec1db5c	-0.3786267
140	0xbe09b5f5	-0.13448317
141	0xbf06dcf2	-0.52680886
142	0xbe83e961	-0.2576399
143	0xbe73342c	-0.2375037
144	0x3deafe08	0.11474234
145	0xbd921a75	-0.071339525
146	0xbdb3f61a	-0.087871745
147	0xbe2498e6	-0.16073951
148	0xbe9ab9f3	-0.30219993
149	0x3c950cc3	0.018194562
150	0xbf02ec82	-0.5114213
151	0x3d9bea5e	0.07613061
152	0xbd63e5f5	-0.055639226
153	0xbf14e441	-0.5816079
154	0x3ddf0934	0.10890427
155	0x3e39d6db	0.18148367
156	0xbdcc880e	-0.09986888
157	0xbdc2ffbf	-0.09521436
158	0xbe8bbd93	-0.2729307
159	0xbddebd5f	-0.108759634
160	0x3e9a8e30	0.30186605
161	0xbdf728b1	-0.12068308
162	0x3e762095	0.24035867
163	0xbdf03a16	-0.11729829
164	0x3e7318c8	0.23739922
165	0xbda742f9	-0.08167071
166	0xbc38f5f8	-0.011289112
167	0xbd8e10de	-0.06936811
168	0xbe4d4add	-0.2004809
169	0x3dbb0c05	0.09133152
170	0x3d84ba90	0.064808965
171	0xbd0d6764	-0.03452243
172	0xbbb55776	-0.005534108
173	0x3d8b7c9d	0.068108775
174	0x3e47f9d0	0.1952889
175	0x3d5fd4c3	0.054646265
176	0xbddecb2b	-0.10878595
177	0xbead0564	-0.33793175
178	0xbe676789	-0.2259809
179	0x3d7049aa	0.058664
180	0x3ea142f5	0.31496397
181	0xbde3e42f	-0.11127507
182	0xbd3ff301	-0.046862606
183	0xbd55f35e	-0.052234046
184	0xbe289747	-0.16463958
185	0xbc75bf96	-0.014999291
186	0x3e7cafcc	0.24676436
187	0xbe305c37	-0.17222677
188	0x3dd2d62a	0.10294755
189	0x3e6a36e2	0.22872499
190	0xbec152f0	-0.3775859
191	0xbd22991c	-0.039696798
192	0xbd531495	-0.0515333
193	0x3da67895	0.08128468
194	0xbe2e7f4b	-0.17040746
195	0xbda35257	-0.079746895
196	0xbe0d871f	-0.13821076
197	0xbd05fa18	-0.03270921
198	0xbea467c4	-0.32110417
199	0x3e31ee33	0.17376022
200	0xbd95837a	-0.07300468
201	0x3e05dbe6	0.13072166
202	0x3e80e810	0.2517705
203	0xbd52b930	-0.05144614
204	0x3cafb1e2	0.021447126
205	0x3d095dd1	0.033536736
206	0xbe4d67fb	-0.20059197
207	0xbdff55c1	-0.12467528
208	0xbd7c1608	-0.061544448
209	0xbe4d0bfe	-0.20024106
210	0x3e8f8a63	0.28035268
211	0x3bde722d	0.006788513
212	0x3d1b98ad	0.0379874
213	0xbdcbc1d5	-0.0994908
214	0x3dfbd86b	0.12297138
215	0xbd93f4f0	-0.072244525
216	0x3c976837	0.01848231
217	0x3df95156	0.12173717
218	0xbda2de09	-0.07952506
219	0xbd8353ba	-0.06412454
220	0xbe863625	-0.26213184
221	0x3d5fa0bb	0.054596644
222	0x3e48a41f	0.19593857
223	0xbe37da40	-0.1795435
224	0xbd7d39fa	-0.06182287
225	0xbe3c40fd	-0.18384166
226	0x3ec0c7fe	0.37652582
227	0xbdd197a0	-0.10233998
228	0x3e7eae64	0.24871212
229	0xbe4a4113	-0.19751386
230	0x3dc6055d	0.09668992
231	0x3e2ceaf1	0.16886498
232	0xbde9e1fd	-0.11420057
233	0xbd486278	-0.048922032
234	0x3d5955b3	0.053060245
235	0x3db682cc	0.08911666
236	0x3d2930c1	0.04130626
237	0xbd1916e5	-0.03737535
238	0xbe01d121	-0.12677433
239	0xbddd2fd3	-0.10800137
240	0xbcf95bdc	-0.03043931
241	0xbcdb7243	-0.026787883
242	0xbef9a971	-0.48762086
243	0xbeae7b65	-0.34078518
244	0xbe117339	-0.1420411
245	0xbd963e1b	-0.073360644
246	0x3c98d7e7	0.018657638
247	0xbf094b8a	-0.5363089
248	0xbd181632	-0.037130542
249	0x3e932014	0.2873541
250	0xbdc11427	-0.09427672
251	0xbe01a45f	-0.12660359
252	0xbd8b222b	-0.067936264
253	0xbeb64c67	-0.35605165
254	0xbe0336b4	-0.12813836
255	0xbe6fd48f	-0.23420928

block1.gcn.conv1.bias f4 [32]
0	0xbdf448ad	-0.11927924
1	0xbdfcd796	-0.12345807
2	0xbe50407b	-0.20337097
3	0xbd5b0343	-0.053469907
4	0xbd2af0d8	-0.041733593
5	0x3d7900b7	0.060791697
6	0xbdef22b2	-0.116765395
7	0x3c78c8a1	0.015184552
8	0xbe27a408	-0.16371167
9	0xbdbe2931	-0.092852004
10	0xbd1f6034	-0.038910106
11	0xbe2c4fe4	-0.16827351
12	0x3d15c371	0.03656334
13	0x3dd9b919	0.10631008
14	0xbd458afe	-0.048228256
15	0xbe4e8616	-0.20168337
16	0xbdc8a710	-0.0979749
17	0xbd8934cb	-0.066995226
18	0xbe231951	-0.15927626
19	0x3d570aae	0.05250042
20	0xbef592b8	-0.479635
21	0xbac3d4af	-0.0014940704
22	0xbe0e32fc	-0.13886636
23	0xbe962e29	-0.29332092
24	0x3db1e746	0.0868669
25	0xbde1d3d2	-0.1102673
26	0xbe788ea4	-0.24273163
27	0xbce1cb45	-0.027562747
28	0xbd57343f	-0.05254006
29	0xbe8a0d34	-0.26963198
30	0xbd815e56	-0.06316821
31	0xbe974027	-0.29541132

block1.conv2.weight f4 [64, 32, 1, 3]
0	0x3dbf9942	0.093554035
1	0xbcad2ad3	-0.021138584
2	0x3d405719	0.046958063
3	0x3d5ba0fe	0.05362033
4	0xbd400895	-0.046883184
5	0xbd643d95	-0.05572279
6	0x3e3887a7	0.18020497
7	0xbd0c5e95	-0.034269888
8	0x3c274052	0.010208206
9	0x3b850cc6	0.0040603606
10	0x3cebc42d	0.028780067
11	0xbd21a1dd	-0.039461005
12	0x3cb172f2	0.021661256
13	0x3d76940d	0.060199786
14	0x3d997a65	0.07494048
15	0x3d2eb0dd	0.04264914
16	0x3e137458	0.1439985
17	0xbc88b22e	-0.016686525
18	0x3d5bd6bd	0.053671587
19	0x3c716c76	0.014735332
20	0x3e033265	0.12812193
21	0x3e3ff6ef	0.18746541
22	0x3e565ce3	0.20933871
23	0xb9f3c083	-0.00046492004
24	0x3e8655f4	0.26237452
25	0x3e9be73e	0.3044986
26	0x3e9faa34	0.31184542
27	0x3e5d503e	0.21612641
28	0x3e4d6d96	0.20061335
29	0x3e2581c6	0.16162786
30	0xbe0c71ea	-0.1371533
31	0xbc81ad21	-0.015829625
32	0xbe04bd8f	-0.12962936
33	0xbe11c667	-0.1423584
34	0xbe4ea446	-0.20179853
35	0xbd1e68db	-0.038674217
36	0x3d4f96c3	0.050680887
37	0x3e1a05b1	0.15041234
38	0x3e441dbb	0.19151966
39	0xbd249782	-0.04018355
40	0xbc9f475f	-0.019443212
41	0xbdb3e21e	-0.08783363
42	0xbeac94a8	-0.33707166
43	0xbe979269	-0.2960389
44	0xbd11bc9e	-0.03558027
45	0xbe396f84	-0.18108946
46	0xbe6176ba	-0.22017947
47	0x3c748b1e	0.014925746
48	0xbe8b7825	-0.272401
49	0xbd4bc8e8	-0.049752146
50	0xbe7e9bd2	-0.24864128
51	0x3e2526d6	0.16128096
52	0x3df64637	0.12025111
53	0x3e4723e4	0.19447285
54	0x3e20cbc9	0.15702738
55	0x3da01710	0.07816899
56	0x3dbf5e20	0.09344125
57	0x3e4827e4	0.19546467
58	0x3e2cf14c	0.16888922
59	0x3cd7c8ca	0.02634086
60	0xbe2e82f1	-0.17042138
61	0x3e6abcc1	0.22923566
62	0x3d6b3b9f	0.057429906
63	0x3d6c1928	0.05764118
64	0x3de095bf	0.10966062
65	0x3dbd6118	0.09247035
66	0xbd445974	-0.04793687
67	0x3e9bbaca	0.30415946
68	0xbd27664a	-0.040869035
69	0xbd41ae8f	-0.047285613
70	0x3d26e3bd	0.040744532
71	0x3e23121a	0.15924874
72	0xbdbd5b09	-0.09245879
73	0x3dfc2f82	0.12313749
74	0x3e08a042	0.13342384
75	0x3db4b89b	0.08824273
76	0x3e21e6b2	0.1581066
77	0x3eaef8ec	0.34174287
78	0x3d787052	0.060653992
79	0x3d2be7b0	0.041969
80	0x3d1ef07c	0.038803563
81	0x3d42ae7f	0.047529694
82	0x3dd00699	0.101575084
83	0x3c2b32dc	0.010449138
84	0x3ebd2d62	0.36948687
85	0x3d6fb8fd	0.058526028
86	0xbda951ed	-0.08267579
87	0x3dfd9a6a	0.12382968
88	0x3e33dfa8	0.17565787
89	0x3dcdecc4	0.10054925
90	0x3e4a64c2	0.19764999
91	0xbe19db02	-0.15024951
92	0xbe533f55	-0.20629628
93	0x3d91a004	0.07110599
94	0xbe13e085	-0.14441116
95	0xbc451a45	-0.012030189
96	0xbb96bd23	-0.0046001836
97	0x3e8f29a2	0.2796145
98	0x3e18ebdf	0.14933728
99	0xbdaa2ad3	-0.08308949
100	0xbe597369	-0.21235432
101	0x3dc7284a	0.097244814
102	0x3e5380f8	0.20654666
103	0x3dba7219	0.09103794
104	0x3ed2e1e3	0.41187963
105	0x3d842f6f	0.0645436
106	0xbe87d576	-0.26530045
107	0xbd6fbef5	-0.05853172
108	0xbd5fa42c	-0.054599926
109	0x3d6080da	0.054810382
110	0xbdac55aa	-0.084147766
111	0x3e3aa4d5	0.18226941
112	0x3d9f077a	0.07765098
113	0xbd41833c	-0.047244295
114	0x3ecc9424	0.39956772
115	0x3ebd3ad6	0.3695895
116	0xbe6db2ab	-0.23212688
117	0xbe4dc1cf	-0.20093463
118	0xbe36d42f	-0.17854379
119	0xbd25a3bf	-0.040439364
120	0x3e4f40d6	0.20239577
121	0x3e3b2c03	0.18278508
122	0x3de12969	0.109942265
123	0x3d3efad6	0.046625935
124	0x3e64aec0	0.22332287
125	0x3c4b008f	0.01239027
126	0xbdd503e9	-0.104011364
127	0xbdc59dda	-0.096492484
128	0x3f26c9c6	0.6515163
129	0x3e930899	0.28717497
130	0xbef11026	-0.47082633
131	0xbe128384	-0.14307982
132	0x3e47553b	0.19466107
133	0xbd031022	-0.031997807
134	0x3ea6f35c	0.32607543
135	0xbe3215d5	-0.17391141
136	0xbe4003e0	-0.18751478
137	0xbc993ad4	-0.01870481
138	0xbe4b3a2a	-0.19846407
139	0xbeb3d71f	-0.35125062
140	0xbcbae146	-0.022812497
141	0x3ee460af	0.44605014
142	0xbc2cbd24	-0.0105431415
143	0xbe820747	-0.25396177
144	0x3eabda82	0.33565146
145	0xbde784bd	-0.11304615
146	0xbe871637	-0.26384136
147	0x3d46f5ac	0.048574135
148	0x3e3fdde0	0.18736982
149	0x3ec77638	0.3895738
150	0xbd9059ed	-0.07048402
151	0xbd233f8a	-0.039855517
152	0x3d830a49	0.06398446
153	0x3e3a169d	0.18172689
154	0x3ea4f14d	0.32215348
155	0x3dfaaf7a	0.12240501
156	0xbe94e5b2	-0.29081494
157	0xbe7fec11	-0.24992396
158	0xbe710ae1	-0.23539306
159	0x3d0d021e	0.034425847
160	0x3d76db19	0.06026754
161	0x3cd661f0	0.026169747
162	0x3e190793	0.14944296
163	0x3e2f232b	0.1710326
164	0x3e680827	0.2265936
165	0x3ead427a	0.3383978
166	0x3ef276b8	0.473562
167	0x3e66c4f0	0.22536063
168	0xbf029a6c	-0.5101688
169	0xbc267123	-0.01015881
170	0x3e656188	0.22400486
171	0x3debaef0	0.11507976
172	0x39ba7f87	0.000355717
173	0xbd5c3ee8	-0.05377093
174	0x3ebb0f5e	0.36535162
175	0xbe225b17	-0.1585506
176	0x3eaa42f6	0.33254212
177	0x3dd5ec1a	0.104454234
178	0x3e3fab24	0.18717629
179	0x3e93bb61	0.28853896
180	0x3e60f5d1	0.21968772
181	0xbd2fb3c1	-0.042896036
182	0xbe6ce751	-0.23135115
183	0x3db51319	0.08841533
184	0x3e9f9b95	0.31173387
185	0x3e970671	0.29497102
186	0x3e341fc5	0.17590244
187	0x3ecf129b	0.40443882
188	0xbde9324d	-0.11386547
189	0x3dcb2907	0.09919935
190	0xbf310a4e	-0.6915635
191	0x3cb59adf	0.022168575
192	0xbe00634a	-0.12537876
193	0xbe8f34f4	-0.27970088
194	0xbebef9e1	-0.37300017
195	0x3cd49286	0.025948774
196	0x3e233af3	0.15940456
197	0x3e8e5863	0.2780181
198	0xbee86998	-0.45393062
199	0xbf1df728	-0.61705256
200	0xbe8b81bf	-0.27247426
201	0xbd3ffe17	-0.04687318
202	0xbe89b77e	-0.26897806
203	0x3f09cfc3	0.53832644
204	0x3dbf283f	0.09333848
205	0xbdec3dc0	-0.115352154
206	0xbee8e1cf	-0.45484778
207	0xbdb0bb10	-0.08629429
208	0xbdedafff	-0.11605834
209	0x3ecab9ce	0.39594883
210	0x3e3be367	0.18348466
211	0xbca871d5	-0.020562092
212	0x3dfc1fe3	0.123107694
213	0xba7647b7	-0.00093948416
214	0xbe424f31	-0.18975522
215	0x3deaa37a	0.11456962
216	0xbd90c517	-0.07068842
217	0xbe237918	-0.15964162
218	0xbeadcf52	-0.33947235
219	0x3e006a2b	0.125405
220	0xbeb8c11d	-0.36084834
221	0xbec54751	-0.38530973
222	0xbc871ef6	-0.016494256
223	0xbd5a1454	-0.053242043
224	0xbefa34ba	-0.48868352
225	0xbec825d7	-0.3909137
226	0xbe0f3b02	-0.13987353
227	0xbf292f61	-0.6608792
228	0xbeaa8871	-0.33307222
229	0xbe91d4e6	-0.2848274
230	0xbf0689d3	-0.52554053
231	0x3e1b2bd1	0.15153433
232	0x3de91ab8	0.11382049
233	0x3d11890f	0.0355311
234	0xbf1b0ec8	-0.6056943
235	0xbe0696a9	-0.1314341
236	0xbfbab96a	-1.4587834
237	0xbee93efc	-0.45555866
238	0xbd254883	-0.040352356
239	0xbf941d97	-1.157153
240	0x3d17d0e8	0.037064463
241	0x3d92dd84	0.07171157
242	0x3f89bb0d	1.0760208
243	0xbe066d1f	-0.13127564
244	0xbe7d8091	-0.24756075
245	0xbe8f1e24	-0.27952683
246	0xbe4e45c0	-0.20143795
247	0x3f120532	0.5703918
248	0xbd8b8157	-0.06811779
249	0xbe899568	-0.268718
250	0xbe847897	-0.25873253
251	0xbf4645a7	-0.7745003
252	0x3ec89137	0.3917329
253	0x3e2c60fb	0.1683387
254	0xbe2a83c9	-0.16651835
255	0xbe81878d	-0.2529873

block1.conv2.bias f4 [64]
0	0x3de422b3	0.11139431
1	0x3d22835c	0.039676055
2	0xbe6f3c12	-0.23362759
3	0x3d74f26a	0.059801497
4	0xbe3615dd	-0.17781778
5	0x3dce77b7	0.100814275
6	0xbddb0362	-0.106940046
7	0xbdcfde54	-0.101498276
8	0xbd55957a	-0.052144505
9	0x3e3b4a08	0.1828996
10	0xbdd77fbc	-0.1052241
11	0xbdea5d13	-0.11443534
12	0xbe030f0b	-0.12798707
13	0xbe499144	-0.1968432
14	0x3c78a64a	0.015176365
15	0xbd674fb7	-0.056472506
16	0x3e600af4	0.21879178
17	0xbd5690d6	-0.05238422
18	0x387e63f5	6.065141e-05
19	0x3c91d7d3	0.017803108
20	0xbcf79d8f	-0.030226497
21	0xbe06af24	-0.13152748
22	0xbe59419c	-0.21216434
23	0x3ce90dd9	0.028448986
24	0xbcb0ed02	-0.02159739
25	0xbe111557	-0.14168297
26	0xbe3174f4	-0.1732977
27	0xbe6074d7	-0.21919571
28	0x3c576ad9	0.013148033
29	0x3d5e675a	0.054297782
30	0xbde9cfe2	-0.114166036
31	0xbd7b7e16	-0.06139954
32	0xbd4b03e2	-0.04956425
33	0xbe3b39a8	-0.18283713
34	0xbde5f942	-0.11229183
35	0xbd5b0ead	-0.053480793
36	0xbdd16a07	-0.10225301
37	0x3d3f0b7d	0.046641815
38	0x3e9e3c95	0.30905595
39	0xbdf19265	-0.11795501
40	0x3c972eab	0.01845487
41	0xbdf5a8ae	-0.11995064
42	0x3d534172	0.051576085
43	0xbd1a6b45	-0.037699956
44	0x3d2fa631	0.0428831
45	0xbd331e07	-0.04372981
46	0x3c435102	0.011921169
47	0x3d9a44fd	0.0753269
48	0x3da7dcab	0.08196386
49	0xbd3b4c55	-0.045727093
50	0xbdd7fbfd	-0.1054611
51	0xbcf6b69b	-0.03011637
52	0x3e42df02	0.19030383
53	0xbcf95a10	-0.030438453
54	0x3d872b6d	0.0660008
55	0x3d8ed4c0	0.069741726
56	0x3d9798d9	0.074022
57	0x3dcf0d2f	0.101099364
58	0x3e26a26f	0.16272901
59	0x3dcf0698	0.101086795
60	0xbdd5487f	-0.10414218
61	0x3e2891a9	0.16461815
62	0xbe994a1a	-0.29939348
63	0x3e48035c	0.19532531

block1.conv_1.weight f4 [32, 1, 1, 1]
0	0xbc9b3aa1	-0.018948855
1	0x3f145e9f	0.5795688
2	0xbf0eea47	-0.5582623
3	0x3d194309	0.037417445
4	0xbecd49ff	-0.40095517
5	0x3e9f80a0	0.3115282
6	0xbf817125	-1.0112654
7	0xbf201090	-0.6252527
8	0xbd0853b8	-0.033282965
9	0x3f6f459b	0.93465585
10	0xbe9b77a8	-0.30364728
11	0xbe2655e7	-0.16243707
12	0xbf89641f	-1.073368
13	0xbf2fd5cd	-0.6868561
14	0xbddc2fbd	-0.10751293
15	0xbec006a8	-0.37505078
16	0x3e96332f	0.29335925
17	0xbf345707	-0.70445293
18	0x3e1db586	0.15401277
19	0xbe34097e	-0.17581746
20	0xbf42bc39	-0.76068455
21	0xbe52a5e6	-0.20571098
22	0xbf377d44	-0.71675515
23	0x3d829ec8	0.06377941
24	0x3ecacf0e	0.39611095
25	0xbf5f0c03	-0.87127703
26	0xbf4d0ea7	-0.8010048
27	0xbf687735	-0.90806895
28	0x3e10b60f	0.1413195
29	0x3f61d66d	0.8821781
30	0xbefd3e1b	-0.49461445
31	0xbf2ffccd	-0.6874512

block1.conv_1.bias f4 [32]
0	0xbf792d61	-0.9733487
1	0xbf4a463f	-0.7901344
2	0x3df5902a	0.11990388
3	0x3e9e0919	0.30866316
4	0x3f67339e	0.90313137
5	0x3f1da91f	0.61586183
6	0xbf3d269b	-0.7388703
7	0x3db3d419	0.08780689
8	0x3f568117	0.83790725
9	0x3e0bf5cc	0.13667983
10	0xbeaa5b09	-0.3327258
11	0xbd620265	-0.055178065
12	0xbebe08bb	-0.37116036
13	0x3e9460fe	0.2898025
14	0xbf172425	-0.5903953
15	0xbf094ea6	-0.53635633
16	0xbd581d6c	-0.052762434
17	0xbecd6488	-0.40115762
18	0x3f08e0d3	0.53468055
19	0xbf1c9a9b	-0.6117341
20	0xbf71207f	-0.9419021
21	0xbd469719	-0.04848394
22	0xbebd8d82	-0.37022024
23	0xbe18d86a	-0.14926305
24	0x3f3410ef	0.7033834
25	0xbf522dd8	-0.821012
26	0xbf039f1a	-0.51414645
27	0xbe954f5b	-0.29162106
28	0xbe411984	-0.1885739
29	0x3f6b614b	0.9194533
30	0x3f41f776	0.7576822
31	0xbf0e5040	-0.555912

block2.conv1.weight f4 [32, 32, 1, 3]
0	0xbd4b523b	-0.049638968
1	0xbd910400	-0.07080841
2	0xbda1bce2	-0.07897355
3	0x3ea248ff	0.31696317
4	0x3cac0151	0.020996721
5	0xbde48594	-0.111582905
6	0x3e9aed7a	0.30259305
7	0x3ebda8aa	0.37042743
8	0x3e9f5654	0.3112055
9	0x3dd0ec2c	0.10201296
10	0x3d585df4	0.052823976
11	0xbdb46341	-0.08807994
12	0xbd9ae50e	-0.0756322
13	0x3e432852	0.1905835
14	0xbdbce5dd	-0.092235304
15	0xbde95526	-0.11393194
16	0xbe5fd50b	-0.21858613
17	0xbe8d6326	-0.27614707
18	0xbea6c17b	-0.3256949
19	0x3e9180aa	0.28418475
20	0x3ec51668	0.38493657
21	0xbec94fc9	-0.39318684
22	0xbd3d4da6	-0.04621663
23	0x3d988c00	0.07448578
24	0x3d05a843	0.03263117
25	0x3e07deb7	0.13268553
26	0x3d901e4b	0.07037028
27	0x3de7d4f4	0.113199145
28	0xbe34f686	-0.17672166
29	0xbdd282c2	-0.10278846
30	0x3e1cd4a5	0.15315492
31	0x3eb64427	0.3559887
32	0x3ea786ca	0.32720023
33	0x3cede091	0.029037746
34	0x3e95bc13	0.29245052
35	0x3edb9121	0.42884162
36	0xbef9a823	-0.4876109
37	0x3dc299dd	0.09502003
38	0x3dc8c62b	0.098034225
39	0xbd59c997	-0.053170767
40	0x3e9a347b	0.30118164
41	0x3c6d6da5	0.014491473
42	0xbe53243e	-0.20619294
43	0x3e26b937	0.16281591
44	0x3dd0565a	0.1017272
45	0xbdb4ff7f	-0.088377945
46	0x3e1c11bd	0.15241142
47	0x3e0bb4b5	0.13643153
48	0x3de0715f	0.10959124
49	0xbf15e9cc	-0.5855987
50	0xbe8962a4	-0.2683307
51	0xbf063382	-0.52422345
52	0xbd931a4d	-0.07182751
53	0xbde839c7	-0.11339145
54	0xbd21d4d6	-0.039509617
55	0x3d51ee8b	0.051252883
56	0xbde65f64	-0.11248663
57	0xbd3ddcef	-0.046353277
58	0xbe2cea5e	-0.16886279
59	0xbe0902b6	-0.1337994
60	0x3c8213ff	0.015878676
61	0x3e1b33ec	0.15156525
62	0x3e74339c	0.23847812
63	0xbe904c7f	-0.28183362
64	0x3dd4bb0b	0.10387238
65	0x3eec6d7a	0.46177274
66	0xbf2760fb	-0.65382355
67	0x3df15b78	0.117850244
68	0x3e17cc48	0.14824021
69	0x3e35b8ec	0.17746323
70	0xbe585c0d	-0.21128865
71	0xbd3410ee	-0.043961458
72	0xbd8d8167	-0.06909447
73	0xbec92875	-0.3928868
74	0xbe5fb8ec	-0.21847886
75	0xbea6c556	-0.3257243
76	0x3e63637e	0.22205922
77	0x3e11b92b	0.14230792
78	0xbef037a2	-0.46917444
79	0x3e352625	0.17690332
80	0x3cc91490	0.024545938
81	0xbf1d09f5	-0.6134332
82	0x3e99426f	0.29933497
83	0x3db2c7bb	0.08729502
84	0xbda32808	-0.0796662
85	0xbe558c2e	-0.20854256
86	0xbe0baace	-0.13639376
87	0x3eba47f2	0.36383015
88	0xbebcc9b5	-0.3687264
89	0xbe959ca5	-0.29221073
90	0x3d8f92aa	0.07010396
91	0x3e5ce652	0.21572235
92	0xbdb0b565	-0.08628348
93	0xbce46e68	-0.027884677
94	0x3e527ebb	0.20556156
95	0x3de79762	0.11308171
96	0x3d1b419a	0.03790436
97	0xbd845099	-0.06460685
98	0xbdf78af0	-0.12087047
99	0xbd64c6da	-0.055853702
100	0xbe290729	-0.16506638
101	0xbdc68136	-0.09692614
102	0x3b620e7c	0.0034493497
103	0x3e7137a8	0.23556387
104	0x3d1a1d5f	0.037625667
105	0x3d5a2a98	0.053263277
106	0x3d70815b	0.058717113
107	0x3bc04fe6	0.0058688996
108	0xbde0b29a	-0.109715655
109	0x3bb0627c	0.005382834
110	0xbdd5a3e1	-0.10431648
111	0xbdbf803b	-0.0935063
112	0x3e90fa08	0.2831576
113	0x3defbf8a	0.11706455
114	0xbd6f7d37	-0.058469024
115	0xbe386b07	-0.18009578
116	0xbc5dc34f	-0.013535335
117	0x3e098c1e	0.13432357
118	0xbe0b2cfd	-0.1359138
119	0x3e35640b	0.17713945
120	0xbe65f4d5	-0.22456677
121	0xbca1bffd	-0.019744867
122	0xbdd89c9e	-0.10576747
123	0x3e2a6688	0.16640675
124	0x3db78bf8	0.08962244
125	0x3e0fc92c	0.14041585
126	0x3e7ef2b2	0.24897268
127	0xbc135bb7	-0.0089940345
128	0x3cf1399e	0.02944642
129	0x3e5f281d	0.21792646
130	0xbdd0e17b	-0.10199257
131	0xbdfa555a	-0.12223311
132	0xbd2cf2ca	-0.04222373
133	0xbe4ebc39	-0.20188989
134	0xbe223be0	-0.15843153
135	0xbec22d4d	-0.37925187
136	0xbe0eb1f6	-0.13935074
137	0xbc67e3bf	-0.01415342
138	0x3dfe740f	0.1242448
139	0xbc6e374e	-0.014539553
140	0xbd9bc8b0	-0.076066375
141	0x3ccf5678	0.025309786
142	0xbe108d11	-0.14116313
143	0x3b52fb08	0.0032193083
144	0x3d7bedfa	0.06150625
145	0xbe45f31a	-0.19331017
146	0x3da16056	0.07879703
147	0x3b0ef262	0.0021811952
148	0xbd9443b1	-0.072394736
149	0x3d928368	0.0715397
150	0x3d83a00d	0.06427012
151	0x3e6388a1	0.22220089
152	0x3d58e77a	0.05295513
153	0x3e00898a	0.12552467
154	0xbc0e971a	-0.008703018
155	0xbddac7eb	-0.106826626
156	0x3e152c2c	0.14567631
157	0x3cfbf160	0.030754745
158	0xbd42773a	-0.047476985
159	0x3ce9650f	0.028490571
160	0x3e3c7a73	0.18406086
161	0x3ed69146	0.4190771
162	0xbe17d78d	-0.1482832
163	0xbdab498d	-0.08363638
164	0xbdd70c31	-0.10500372
165	0xbe35d04b	-0.17755239
166	0x3def68c3	0.116899036
167	0x3e869496	0.26285237
168	0x3ce19eb2	0.027541492
169	0x3d7384fd	0.059453
170	0x3d190866	0.037361525
171	0x3e1d8023	0.15380912
172	0xbd8352bb	-0.06412264
173	0x3db3511b	0.08755704
174	0x3ba63387	0.0050720605
175	0xbe2acc7e	-0.1667957
176	0xbe200b64	-0.15629345
177	0x3d223a20	0.039606214
178	0x3d2b3252	0.041796036
179	0x3a4b2a2b	0.0007750119
180	0x3e8d14a3	0.27554807
181	0x3c45cc55	0.012072642
182	0xbcb7db62	-0.022443477
183	0x3d37f9e0	0.044916034
184	0xbcb0dcee	-0.021589722
185	0x3e02cf23	0.12774329
186	0x3d0f23fb	0.034946423
187	0x3e7705c2	0.2412329
188	0x3c3908ec	0.011293631
189	0x3d8d4495	0.068978466
190	0x3cef1cb5	0.029188493
191	0xbd994d66	-0.07485466
192	0xbe816d68	-0.25278783
193	0xbe2bff8e	-0.16796705
194	0x3d76f472	0.060291715
195	0xbea38cf9	-0.3194349
196	0xbbb3b868	-0.0054846294
197	0x3d840848	0.06446892
198	0x3e21255b	0.15736906
199	0x3d1fe90b	0.039040606
200	0xbdd168b6	-0.1022505
201	0x3d147fa0	0.036254525
202	0x3db4ecaa	0.088342026
203	0x3e029d7e	0.12755391
204	0xbe6122eb	-0.21985976
205	0xbea82061	-0.32837203
206	0xbe8d5d7e	-0.2761039
207	0xbd92fbf8	-0.071769655
208	0xbcfd8af6	-0.03095005
209	0x3d047812	0.03234107
210	0x3ddc882e	0.10768162
211	0xbd15395f	-0.036431666
212	0x3cac09ae	0.02100071
213	0x3e1593a7	0.14607106
214	0xbdcb979e	-0.09941028
215	0xbd5f22ab	-0.05447642
216	0xbda2a188	-0.07940966
217	0xbe35863d	-0.17726989
218	0xbd80993a	-0.06279226
219	0xbeb704ef	-0.35745952
220	0xbe028052	-0.12744263
221	0x3e552696	0.208155
222	0x3e29966e	0.1656129
223	0xbc3f6d86	-0.011683827
224	0x3ca44b5d	0.020055467
225	0x3ef8c7e4	0.48590004
226	0x3e05f1be	0.13080499
227	0x3d809867	0.062790684
228	0x3def936c	0.1169804
229	0xbe53b1e2	-0.20673326
230	0xbe0fbff9	-0.14038076
231	0x3dc73e3b	0.097286664
232	0x3c872f7e	0.016502138
233	0x3cd66552	0.02617136
234	0x3f00f875	0.50379115
235	0x3e38d822	0.18051198
236	0x3e39cf4c	0.18145484
237	0xbdff34cf	-0.12461244
238	0xbe02139c	-0.12702793
239	0xbdb2112d	-0.08694682
240	0xbe8de1fa	-0.2771147
241	0x3e1aee29	0.15129913
242	0xbe253fb0	-0.16137576
243	0x3e81e374	0.25368845
244	0x3d12706a	0.035751738
245	0xbdf942f7	-0.12170976
246	0xbdaf53b9	-0.08560891
247	0xbdb7dd19	-0.08977718
248	0x3d661845	0.05617549
249	0xbba930f8	-0.0051633082
250	0xbdf77fca	-0.12084921
251	0x3df18fa0	0.117949724
252	0xbdeb17be	-0.11479138
253	0xbdcb1fc3	-0.099181674
254	0x3e06f19d	0.13178106
255	0x3f235c7a	0.63812983

block2.conv1.bias f4 [32]
0	0x3ca4ee14	0.020133056
1	0x3d4bb14a	0.049729623
2	0x3e06a578	0.13149059
3	0x3ce7a83e	0.028278466
4	0xbc120e3e	-0.008914528
5	0xbcb4c3a4	-0.022065945
6	0x3c6b04e3	0.014344427
7	0x3e5ced66	0.21574935
8	0xbdaa1e10	-0.08306515
9	0x3d2f5abc	0.04281114
10	0x3df207ef	0.118179195
11	0xbe12849d	-0.143084
12	0xbcb46580	-0.022021055
13	0xbeaa65cd	-0.33280793
14	0xbe17ffe0	-0.14843702
15	0xbd9a2999	-0.075274654
16	0x3dc20758	0.09474057
17	0xbe1fcd1b	-0.15605585
18	0xbbd438b1	-0.0064764847
19	0x3da8b289	0.08237178
20	0xbdb39b1e	-0.08769821
21	0x3e2004d3	0.1562684
22	0x3a51d1db	0.0008003988
23	0xbd3220cd	-0.043488313
24	0x3d862ee2	0.06551911
25	0x3e2f253a	0.17104045
26	0xbdada49f	-0.084786646
27	0xbdecbcbe	-0.11559437
28	0xbe261faa	-0.16223016
29	0xbeb90a73	-0.36140785
30	0x3e2f70f0	0.17132926
31	0x3ec37269	0.38173226

block2.gcn.conv1.weight f4 [32, 48, 1, 1]
0	0x3f2a3f25	0.665026
1	0x3e133c38	0.1437844
2	0xbe883bcc	-0.2660812
3	0xbe8fa5f1	-0.2805629
4	0xbd89dab3	-0.06731167
5	0x3ddf63f1	0.10907734
6	0xbec4c3fb	-0.3843077
7	0xbd582e2f	-0.05277842
8	0xbe4c61c0	-0.19959164
9	0x3dcdfe15	0.10058228
10	0xbc951f4e	-0.018203404
11	0x3e533be9	0.20628323
12	0xbe94946a	-0.2901948
13	0xbde8bd1d	-0.113641955
14	0x3c9c27bc	0.019061916
15	0xbe88af41	-0.26696208
16	0x3bd09a79	0.006366071
17	0x3d3cfdc9	0.046140466
18	0xbcd4ffe6	-0.026000928
19	0xbeab0d00	-0.33408356
20	0x3e0ba5d6	0.1363748
21	0xbe5cf38b	-0.2157728
22	0xbe7c1af6	-0.2461966
23	0x3e3deffb	0.18548577
24	0x3e01691a	0.1263775
25	0xbde7d1d8	-0.113193214
26	0xbdd84abd	-0.1056113
27	0xbe052e3d	-0.1300592
28	0xbd79d04a	-0.060989656
29	0x3c99809d	0.018738085
30	0x3ba81ecf	0.005130626
31	0xbe6f1506	-0.23347864
32	0x3dde7af3	0.108632945
33	0xbd787198	-0.060655206
34	0xbe8358ce	-0.2565369
35	0x3cf218fa	0.029552925
36	0xbe15cab3	-0.14628105
37	0xbe73be23	-0.23803
38	0xbcc99e0e	-0.0246115
39	0xbede618c	-0.43433797
40	0xbd5cf591	-0.053945128
41	0x3e8af024	0.27136338
42	0x3eb8c368	0.36086583
43	0x3da59ee2	0.08086945
44	0x3dacd667	0.084393315
45	0xbe71e940	-0.23624134
46	0xbd9fdf51	-0.07806266
47	0xbebc7238	-0.36805892
48	0xbdce60ba	-0.10077043
49	0xbd66f9a4	-0.05639042
50	0xbdbc422f	-0.09192311
51	0x3dd3ff04	0.10351375
52	0xbe716376	-0.23573098
53	0xbee335ee	-0.44377083
54	0xbe875193	-0.26429424
55	0x3d52176d	0.05129187
56	0x3e5d7db8	0.21629989
57	0x3df6cd60	0.12050891
58	0x3e84c38c	0.2593044
59	0xbe06a0dc	-0.131473
60	0xbde4cc28	-0.11171752
61	0x3e820918	0.25397563
62	0xbea2e986	-0.3181879
63	0xbde72d9a	-0.11287995
64	0xbe40b91e	-0.18820617
65	0xbd2835e2	-0.04106701
66	0xbe82c9bc	-0.25544536
67	0x3d162c6d	0.03666346
68	0x3e5e18ef	0.21689199
69	0x3d5c7237	0.05381986
70	0x3e80836a	0.2510026
71	0x3e0cb47c	0.13740724
72	0x3cd9874c	0.026553772
73	0xbd5c4a6a	-0.053781904
74	0x3d588180	0.052857876
75	0x3db7964d	0.089642145
76	0xbe77e998	-0.24210203
77	0xbe927542	-0.28605086
78	0xbef7939e	-0.4835481
79	0xbeb6f154	-0.35730994
80	0x3eb523de	0.35378927
81	0x3dfc8627	0.12330275
82	0xbec58922	-0.38581187
83	0xbe080392	-0.13282612
84	0xbc4a7e9f	-0.01235929
85	0x3e50bf10	0.20385385
86	0xbd7e61d1	-0.062105004
87	0x3ce2ce55	0.027686277
88	0xbe29c9f0	-0.1658094
89	0xbe5b7a3a	-0.21433344
90	0x3c99f41b	0.018793156
91	0x3db0e71e	0.08637832
92	0x3d6faa70	0.05851215
93	0x3e8be23b	0.27321038
94	0x3e46fb44	0.19431788
95	0xbd0b9d30	-0.034085453
96	0xbd1e1483	-0.03859378
97	0x3de529d5	0.111896195
98	0xbea4f2c9	-0.3221648
99	0xbe6dbf89	-0.23217596
100	0x3d983968	0.074328244
101	0xbbe7ac3e	-0.0070700934
102	0x3c6a086d	0.014284235
103	0x3d8e285c	0.06941292
104	0xbeb10bd7	-0.34579346
105	0xbe9288e1	-0.28620055
106	0xbcd1c470	-0.025606364
107	0xbee56ebb	-0.44811043
108	0x3e148ca6	0.14506778
109	0xbecb8137	-0.3974702
110	0x3e696c21	0.22795154
111	0xbe704f63	-0.23467784
112	0xbcc69f5b	-0.024245908
113	0x3d866998	0.06563109
114	0xbe15e0f8	-0.146366
115	0xbe860424	-0.26175034
116	0xbf013e30	-0.50485516
117	0x3e537b03	0.20652394
118	0x3d9ac012	0.07556166
119	0xbdbb54e5	-0.09147052
120	0x3d4cde7d	0.05001687
121	0xbe1d9834	-0.15390092
122	0xbdc33010	-0.095306516
123	0xbec5a506	-0.38602465
124	0xbcd88613	-0.02643112
125	0xbd5d4db4	-0.05402918
126	0xbe493600	-0.19649506
127	0x3e827df1	0.2548671
128	0xbe93cff5	-0.28869596
129	0xbd66b428	-0.056324154
130	0x3e0ce4f7	0.13759218
131	0xbdd0bdd4	-0.10192457
132	0xbee9be6a	-0.45653087
133	0x3ed642bb	0.41847786
134	0xbe0dcc62	-0.13847497
135	0xbe34444b	-0.17604177
136	0x3f4dee19	0.80441433
137	0xbf081a17	-0.5316481
138	0xbcaee555	-0.021349588
139	0xbdbd593b	-0.09245535
140	0xbd524c0e	-0.051342063
141	0xbd8571fc	-0.065158814
142	0xbe3ecf15	-0.18633683
143	0x3effbd19	0.49948958
144	0xbe5a3d52	-0.21312454
145	0x3da03546	0.07822661
146	0x3e1e28f3	0.15445308
147	0xbd8c97b4	-0.068648726
148	0xbdcad224	-0.099033624
149	0x3c0ad7ae	0.008474274
150	0x3e3b4e06	0.18291482
151	0xbee1c242	-0.4409352
152	0x3eac0460	0.33597088
153	0xbd742e31	-0.059614364
154	0xbe34e0cd	-0.1766388
155	0xbdc10d78	-0.09426397
156	0x3cb8f9f8	0.022580132
157	0x3dcb70ff	0.09933662
158	0xbd86d2b6	-0.06583159
159	0xbc3b5e61	-0.011436076
160	0xbe248d8e	-0.16069624
161	0xbe8f8d9b	-0.28037724
162	0xbdcbb6db	-0.09946986
163	0xbe76982f	-0.24081491
164	0xbe5545a8	-0.20827353
165	0x3d8e4da3	0.06948402
166	0x3e002a90	0.12516236
167	0x3e29843c	0.1655435
168	0xbd97af55	-0.07406489
169	0x3ed6e760	0.419734
170	0x3daf07aa	0.08546384
171	0x3dae9356	0.08524196
172	0x3e55a846	0.20864972
173	0xbda85d2a	-0.08220895
174	0xbe850eef	-0.25987956
175	0xbda1efa8	-0.07907039
176	0x3c967c4d	0.018369818
177	0x3e9241ad	0.28565732
178	0x3c93f172	0.018059466
179	0xbe2d0ddb	-0.16899817
180	0xbdc6a23a	-0.09698911
181	0xbee46421	-0.44607642
182	0x3ec81659	0.3907955
183	0xbe0338e6	-0.12814674
184	0xbf7fe08a	-0.99951994
185	0x3f01e293	0.5073635
186	0x3de45ff2	0.111511126
187	0xbc0f1ba2	-0.0087346155
188	0x3d33ab94	0.0438648
189	0xbe83a87d	-0.25714484
190	0x3de4f1ef	0.11178958
191	0xbe094466	-0.13404998
192	0x3deff548	0.117167056
193	0xbebac751	-0.3648019
194	0xbee831b4	-0.4535042
195	0xbf3e8ec9	-0.7443662
196	0xb9343138	-0.00017184473
197	0x3d1e3c82	0.038631923
198	0xbc8c27a2	-0.017108742
199	0x3ea2e9a7	0.31818888
200	0xbee34819	-0.44390944
201	0x3d92cfdc	0.07168552
202	0xbf1acbcd	-0.60467225
203	0xbd7407b6	-0.059577666
204	0xbefc4563	-0.49271688
205	0xba868977	-0.0010264356
206	0x3e800857	0.25006363
207	0xbe02ed51	-0.12785842
208	0x3ec1165f	0.3771238
209	0xbe95b855	-0.29242197
210	0xbd8454f6	-0.064615175
211	0xbef3176a	-0.474788
212	0xbc172346	-0.009224718
213	0xbe7b5509	-0.24544157
214	0xbf0677cc	-0.52526546
215	0x3e93cf4e	0.28869098
216	0xbdb077cd	-0.086166
217	0x3dee3029	0.116302796
218	0x3e9bbcdd	0.3041753
219	0xbea42258	-0.32057452
220	0x3d68686d	0.056740213
221	0xbe769c3e	-0.24083039
222	0xbf09d317	-0.5383772
223	0x3e8823a8	0.26589704
224	0xbe9d77f1	-0.3075557
225	0x3e9e08db	0.3086613
226	0x3e8e90d6	0.27844876
227	0x3e28399d	0.16428228
228	0x3dd09f66	0.10186653
229	0xbe10582f	-0.1409614
230	0xbe1aeccb	-0.15129392
231	0x3cbbd5e5	0.022929141
232	0xbf14bbea	-0.58099234
233	0xbecb50a3	-0.39709958
234	0xbd0fa65d	-0.035070766
235	0xbe4b4bee	-0.19853184
236	0x3ebd1181	0.36927417
237	0xbe0f0049	-0.13964953
238	0x3ed33830	0.41253805
239	0x3ecb9d0f	0.39768264
240	0xbd00e67d	-0.03146981
241	0xbeeea790	-0.46612215
242	0xbd220b7b	-0.03956173
243	0xbdb3a396	-0.08771436
244	0xbfd63200	-1.6734009
245	0xbe3a6ef2	-0.18206385
246	0xbe8a4144	-0.2700292
247	0xbdf644c4	-0.12024835
248	0xbe42d7a3	-0.19027571
249	0xbe70d7c2	-0.23519805
250	0x3dcf529e	0.1012318
251	0xbd211424	-0.03932585
252	0x3e51e526	0.2049757
253	0xbdc1fe37	-0.09472316
254	0xbe6fd67f	-0.23421668
255	0x3cc9c79d	0.024631316

block2.gcn.conv1.bias f4 [32]
0	0x3dfd5f92	0.12371744
1	0x3d8ff8f0	0.07029903
2	0xbe425c21	-0.18980457
3	0x3c7ab4dc	0.015301909
4	0xbe2adf37	-0.16686712
5	0x3d97bd48	0.074091494
6	0xbe8ccd23	-0.27500257
7	0xbe2a0b2e	-0.16605827
8	0x3dba5a76	0.09099285
9	0x3e099be9	0.13438381
10	0x3db98970	0.09059417
11	0x3d7fdf39	0.06246874
12	0xbe15236e	-0.14564297
13	0xbdf982a3	-0.1218312
14	0x3d132039	0.0359194
15	0x3dd671b6	0.104709074
16	0x3db7fdcb	0.08983954
17	0x3e73b7ca	0.23800579
18	0x3c6c331c	0.014416482
19	0xbd23f649	-0.040029798
20	0xbe1c118f	-0.15241073
21	0xbeb51fde	-0.35375875
22	0x3e09b64b	0.13448445
23	0xbde585ee	-0.11207186
24	0x3c4b7fa1	0.012420566
25	0x3e456e29	0.19280304
26	0x3c06482e	0.00819592
27	0xbe97855e	-0.2959394
28	0xbe0ceb57	-0.1376165
29	0xbd94c085	-0.07263283
30	0xbe0d28b3	-0.13785057
31	0x3d8f5ffc	0.070007294

block2.conv2.weight f4 [64, 32, 1, 3]
0	0xbdd5914a	-0.10428102
1	0xbe26bd7b	-0.16283219
2	0xbde5fc9a	-0.112298205
3	0xbd94e045	-0.072693385
4	0x3d3293f2	0.043598123
5	0x3e5bc12a	0.21460405
6	0x3ddac1ad	0.10681472
7	0x3de02920	0.10945344
8	0x3d951523	0.07279422
9	0xbcdb9e96	-0.026809018
10	0x3de2c405	0.11072544
11	0x3db2916c	0.08719143
12	0x3e646fe6	0.22308311
13	0x3f22e5b5	0.63631755
14	0x3e21a56d	0.15785761
15	0xbc6c588a	-0.014425406
16	0xbc591632	-0.013249921
17	0xbda973b0	-0.08274019
18	0xbdc32350	-0.0952822
19	0x3ec87f15	0.39159456
20	0x3ea94d02	0.33066565
21	0xbe042c53	-0.12907533
22	0xbdfcce6b	-0.123440586
23	0xbeb5b8e1	-0.35492614
24	0x3bbdb47e	0.0057893386
25	0x3da5ec18	0.08101672
26	0xbc864dbf	-0.016394494
27	0xbe37a84d	-0.17935295
28	0x3b9fe27c	0.004879294
29	0xbd7de741	-0.06198812
30	0xbe392b36	-0.1808289
31	0xbda105ce	-0.07862435
32	0x3bcf9505	0.006334903
33	0x3daff19f	0.085910074
34	0x3d48ee2d	0.049055267
35	0x3d720bdd	0.059093345
36	0xbc60430d	-0.013687861
37	0xbce03a19	-0.027371453
38	0xbd4e2599	-0.050328825
39	0x3dcbfdcf	0.099605195
40	0xbe05ef73	-0.13079624
41	0x3c25d6e2	0.010122033
42	0x3cdfbea2	0.02731258
43	0xbdcee47e	-0.10102175
44	0x3cbeed5c	0.023306541
45	0xbcd0f32c	-0.025506578
46	0x3e01e957	0.12686668
47	0x3c185d10	0.009299532
48	0xbdac3f77	-0.084105425
49	0xbd2a5faf	-0.041595157
50	0x3e9aa6b1	0.302053
51	0xbc9819a6	-0.018566918
52	0xbd5ffd8c	-0.05468516
53	0x3d8abd46	0.06774382
54	0xbdf65483	-0.12027838
55	0xbcf5f09e	-0.030021962
56	0xbdfe5228	-0.12418014
57	0xbcf46450	-0.029832989
58	0xbe52bfd2	-0.20580986
59	0x3cc6a46f	0.02424833
60	0x3dcc8998	0.099871814
61	0x3e426b23	0.18986182
62	0x3e7ac226	0.24488124
63	0xbe40839d	-0.18800206
64	0xbe87bfb1	-0.26513436
65	0xbee01d8a	-0.43772537
66	0x3dd6f51c	0.1049597
67	0xbc054f88	-0.0081366375
68	0x3d5767d2	0.052589245
69	0xbbb94e82	-0.005655111
70	0x3cf8e5bd	0.030382985
71	0xbe05dff1	-0.13073708
72	0xbe5976d9	-0.21236743
73	0x3d734eb3	0.059401225
74	0xbd3bba55	-0.045831997
75	0xbcf8c7a8	-0.030368641
76	0x3db0b0a4	0.086274415
77	0xbce23428	-0.02761276
78	0xbdd30e67	-0.103054814
79	0xbe02cf0e	-0.12774298
80	0xbdd76223	-0.10516765
81	0xbd6daa89	-0.058023963
82	0x3e0becc1	0.13664533
83	0x3e1b2bad	0.1515338
84	0xbc5294ea	-0.012852887
85	0x3e371d17	0.1788219
86	0xbed30792	-0.41216713
87	0x3d42b9b6	0.04754039
88	0xbd22a6a7	-0.039709713
89	0x3bb2508f	0.0054417322
90	0x3d5860d7	0.05282673
91	0x3dbd3ce4	0.092401296
92	0x3e633c31	0.2219093
93	0x3dabc17b	0.08386513
94	0x3d08509c	0.03328
95	0xbc8376cb	-0.016047856
96	0x3e6f49c4	0.23367983
97	0xbc58fed9	-0.013244354
98	0x3e933bb3	0.28756484
99	0xbdcea755	-0.1009051
100	0x3d08d237	0.0334036
101	0x3df8c3f2	0.121467486
102	0x3e02e6b2	0.12783316
103	0xbdc22df5	-0.09481422
104	0x3ec4e038	0.38452315
105	0x3e2782ca	0.16358486
106	0x3db2a4e1	0.087228544
107	0x3e0019e1	0.12509872
108	0xbd0532f5	-0.0325193
109	0xbe0cc330	-0.13746333
110	0xbea47613	-0.32121333
111	0x3dfcfcd8	0.123529136
112	0x3d088a29	0.033334885
113	0xbbfa6646	-0.0076415865
114	0xbe545276	-0.20734581
115	0x3d932b5c	0.071860045
116	0x3b742bf1	0.0037257636
117	0xbea05fa9	-0.31322983
118	0xbede7298	-0.43446803
119	0xbe40da2f	-0.1883323
120	0xbb9e1efe	-0.004825472
121	0xbe332c26	-0.1749731
122	0x3e4130d7	0.18866287
123	0xbd3c058d	-0.04590373
124	0x3c91b44a	0.017786164
125	0xbda0f6bf	-0.07859563
126	0x3d00b4f8	0.031422585
127	0x3b1a810a	0.0023575448
128	0xbdec078e	-0.115248784
129	0x3dd7d54e	0.105387315
130	0x3e14a88f	0.14517425
131	0x3e0b341c	0.13594097
132	0x3daf836f	0.08569991
133	0x3d6baaca	0.057535924
134	0xbe755eed	-0.23961993
135	0xbd4db098	-0.05021724
136	0xbe89ab63	-0.2688857
137	0x3da67eee	0.08129679
138	0xbd411924	-0.047143117
139	0xbdee2897	-0.11628836
140	0xbdb51abe	-0.08842991
141	0x3d855ab0	0.06511438
142	0xbb975d2f	-0.0046192626
143	0x3e826e44	0.2547475
144	0xbe89703b	-0.26843438
145	0xbdd6f169	-0.10495264
146	0xbcf0469e	-0.029330548
147	0x3ce5b348	0.02803959
148	0x3d181182	0.03712607
149	0xbbbdf71c	-0.00579728
150	0xbdbd017e	-0.092288
151	0xbe48c5d9	-0.19606723
152	0x3d96c315	0.07361428
153	0x3ded72c4	0.115941554
154	0xbcf5cbb0	-0.030004352
155	0x3dce75c3	0.10081055
156	0xbc1d3dbd	-0.009597239
157	0xbd877a26	-0.06615095
158	0x3e5aaf0a	0.21355835
159	0xbede9bbd	-0.43478194
160	0xbeda5c6e	-0.42648643
161	0xbf20b3f0	-0.6277456
162	0x3d2cee2c	0.042219326
163	0xbddcf4aa	-0.107888535
164	0x3eb2fe9e	0.34959882
165	0xbe040c77	-0.1289538
166	0xbe3503b6	-0.17677197
167	0xbe89e471	-0.269321
168	0xbb687945	-0.0035472673
169	0xbdc33324	-0.09531239
170	0x3ed75169	0.420543
171	0x3e3b4244	0.18286997
172	0x3e5315cd	0.20613785
173	0x3ed08c2c	0.40731943
174	0x3de0f701	0.10984612
175	0xbd4dee4a	-0.05027608
176	0x3f03849f	0.5137424
177	0xbc0dffb4	-0.008666921
178	0x3ea90eb3	0.33019027
179	0x3e5a1eb0	0.21300769
180	0x3e960048	0.2929709
181	0x3c0bbbfe	0.008528708
182	0xbf208f71	-0.62718874
183	0xbc9c0d3b	-0.019049278
184	0x3eb6eace	0.35726017
185	0xbc677296	-0.0141264405
186	0x3e22ccad	0.1589839
187	0x3e1fa5c3	0.15590577
188	0x3e5d8ec9	0.216365
189	0x3e92a161	0.28638747
190	0x3dc0ad55	0.094080605
191	0x3e4c0116	0.19922289
192	0x3ee92951	0.45539334
193	0x3e5a819a	0.21338502
194	0x3e47c5af	0.19509004
195	0xbde594c2	-0.11210014
196	0xbea4786f	-0.32123134
197	0xbd803e6c	-0.06261906
198	0x3eaf044b	0.34182963
199	0xbd558ea4	-0.052137986
200	0x3e54872e	0.20754692
201	0x3e5961fd	0.21228786
202	0x3e84b380	0.25918198
203	0xbde1f4a1	-0.110329874
204	0x3f2dd9f7	0.6791071
205	0x3e6eea71	0.2333162
206	0x3ec3e44c	0.38260114
207	0x3ca1cbe6	0.019750547
208	0x3e0c6f88	0.13714421
209	0x3e0c7d37	0.1371964
210	0x3e9941c9	0.29933003
211	0xbefad68c	-0.4899181
212	0x3eb75942	0.35810286
213	0x3e97791a	0.2958458
214	0x39b8762d	0.00035183263
215	0x3e6e3a27	0.23264371
216	0x3e9afb50	0.3026986
217	0x3eaba4f8	0.335243
218	0x3ef63025	0.48083606
219	0x3e2d3d40	0.16917896
220	0x3e8fd66d	0.2809328
221	0x3eafcf14	0.34337676
222	0x3e862858	0.26202655
223	0x3e4ff11c	0.2030682
224	0x3f043bdb	0.5165383
225	0x3e7b997c	0.24570268
226	0x3e899945	0.26874748
227	0x3f11cfcd	0.56957704
228	0x3e0376c7	0.12838279
229	0x3e9604c7	0.2930052
230	0x3eb15cb9	0.34641054
231	0x3e58e7ef	0.21182226
232	0xbebf1fe5	-0.3732902
233	0xbe05fb0b	-0.13084047
234	0xbbf4eee7	-0.0074747684
235	0x3e45c3f8	0.19313037
236	0xbe784f7f	-0.24249075
237	0x3e3daab3	0.18522148
238	0x3d21bda9	0.039487515
239	0x3ed4c0b3	0.41553268
240	0x3e75c4f3	0.24000911
241	0xbcd37627	-0.025813175
242	0xbec32c86	-0.38119906
243	0x3e04e924	0.12979561
244	0x3e235ca4	0.15953308
245	0x3de52a0b	0.1118966
246	0x3e880d1c	0.26572502
247	0x3e58c58a	0.21169105
248	0x3e6f29d5	0.23355801
249	0x3e4361d7	0.19080292
250	0x3dcebd59	0.10094709
251	0x3f03538a	0.51299345
252	0x3ca8b7a1	0.020595374
253	0x3e28ebf3	0.16496257
254	0x3e08595c	0.13315338
255	0x3f911e74	1.1337419

block2.conv2.bias f4 [64]
0	0xbe38bd99	-0.18041076
1	0xbd8d5db2	-0.069026366
2	0x3e6f77f2	0.233856
3	0xbe475b13	-0.19468336
4	0x3e3066db	0.17226736
5	0xbe960f2c	-0.2930845
6	0x3e4da164	0.20081097
7	0x3ec9691c	0.39338005
8	0x3eb1cea1	0.34727958
9	0xbcc79fc1	-0.024368169
10	0x3e144e8a	0.14483085
11	0xbe81d7c0	-0.25359917
12	0xbe03c129	-0.12866654
13	0x3debd66c	0.11515507
14	0xbebd412f	-0.36963794
15	0xbe9a8733	-0.30181274
16	0xbe77ac74	-0.2418688
17	0xbea766a4	-0.32695496
18	0xbdca579f	-0.09879994
19	0x3ebddd79	0.37083033
20	0x3e85da15	0.26142946
21	0x3e60c84d	0.21951409
22	0x3e6ab779	0.22921552
23	0x3e44970b	0.19198243
24	0xbe5a07a1	-0.21291973
25	0x3ebb8e1c	0.36631858
26	0xbcaa0dec	-0.020758592
27	0x3e67f1f9	0.22650899
28	0xbe2c96b0	-0.16854358
29	0x3e6e1033	0.23248367
30	0x3e068901	0.131382
31	0xbe9df2f5	-0.30849424
32	0x3f096df8	0.53683424
33	0x3e6d355d	0.23164888
34	0x3de117dc	0.10990879
35	0x3e93c292	0.28859383
36	0x3ee963ad	0.4558386
37	0x3db64126	0.08899145
38	0x3e8a41b4	0.27003253
39	0x3f02d85c	0.5111139
40	0x3ee4b69d	0.44670573
41	0x3d1cf2cd	0.03831749
42	0x3e5566cd	0.20839997
43	0x3eb6340b	0.3558658
44	0x3e8c08dd	0.27350512
45	0x3f039383	0.5139696
46	0x3eeed554	0.4664713
47	0x3ebd9372	0.37026554
48	0x3f00f5ee	0.5037526
49	0x3ea07ffe	0.3134765
50	0x3e07aeb2	0.13250235
51	0x3ec7419a	0.38917238
52	0x3edbc52d	0.4292387
53	0x3e89db65	0.26925197
54	0x3f031fe3	0.5122053
55	0x3ef9f6a9	0.48821
56	0x3ec5767e	0.38566965
57	0x3de630bb	0.11239763
58	0x3f13b59a	0.57698977
59	0x3ea34319	0.3188713
60	0x3e6c884c	0.23098868
61	0x3ec5966f	0.38591334
62	0x3e9ab684	0.30217373
63	0x3f156456	0.58356225
