Model Training and Evaluation Results/PEMS08/GCRN/GRCN_best_19.4.pth (torch, 171959 bytes, 6 tensors)

block1.gcn_conv.conv1.weight f4 [128, 99, 1]
000000 50 9d 4a 3f bc 8e 04 3e b6 4e fc bd f6 31 09 3e
       0.7914629 0.12945074 -0.123197004 0.13397965
000010 97 5c c9 3e b6 8d ba 3e db b6 52 bd 5f 31 b1 3e
       0.39328453 0.36436242 -0.051443916 0.3460798
000020 37 22 e9 3d c4 1b 07 3f d0 bc 22 3f 09 ca a1 bc
       0.11383479 0.5277674 0.63569355 -0.019749658
000030 10 a8 05 3e 3a 33 a8 3d 11 b5 8e 3d 31 26 87 3e
       0.13052392 0.08212896 0.069681294 0.26396325
000040 63 94 aa 3e 0c 4f fa 3e 72 2f 74 be d9 54 56 3e
       0.33316335 0.48888433 -0.23846224 0.20930804
000050 4b a6 bc 3d 58 6f 38 3e 51 f0 d3 3c 7a f9 80 be
       0.09211405 0.18011224 0.025871428 -0.25190336
000060 9a 69 98 be a6 78 45 3e 14 c1 19 3e c7 78 07 3e
       -0.29768068 0.19284305 0.1501506 0.13229667
000070 60 06 f4 bd f1 6e 8f 3e c1 78 b5 3e 06 43 c2 3e
       -0.119152784 0.2801433 0.3544369 0.3794176
000080 cd 85 fc 3e 61 62 e6 bd 20 58 32 3e ce 1b b2 3d
       0.49320832 -0.11249233 0.1741643 0.086967096
000090 07 2b f3 bd 67 26 12 be 8d 47 1a be fd d9 e7 3d
       -0.11873441 -0.14272462 -0.15066357 0.11320875
0000a0 38 eb d2 3d 52 d3 cd be b6 4f 08 be 13 1d 33 bf
       0.10298771 -0.40200287 -0.13311657 -0.6996624
0000b0 c9 aa 37 bf 8c e6 d3 3e 0c 97 58 be a7 01 eb 3e
       -0.7174497 0.4138683 -0.2115137 0.45899698
0000c0 49 dc c2 3d 08 7c 26 bf 3c ca fc be 69 25 19 3e
       0.09514672 -0.65033007 -0.49373043 0.14955677
0000d0 33 c6 61 3e a1 92 72 3d a1 62 f9 be 39 ec ff bc
       0.22048263 0.059221867 -0.4870806 -0.03124057
0000e0 de e7 0f bd 24 55 44 3e 0e c3 1e be 9d cd 23 3d
       -0.035133235 0.19173104 -0.15504095 0.03999101
0000f0 30 e3 23 be e5 20 89 3e 89 8e e5 3d db db 0f 3f
       -0.16004634 0.2678291 0.11208827 0.5619485
000100 bd 75 63 bd 93 d3 43 be 7f f0 8c be b8 47 6d be
       -0.055532206 -0.19123678 -0.27527234 -0.2317189
000110 6c 64 ac 3d 59 b0 98 be b2 99 20 bf 6b 00 14 3e
       0.084175915 -0.29822043 -0.6273452 0.14453284
000120 9b bb d1 bd fd ca ad be e2 05 18 be 66 32 ef 3e
       -0.10240861 -0.3394393 -0.14845994 0.46718138
000130 4c 31 01 be 24 b4 2f be 09 bb 23 3c 2d 6d 65 3d
       -0.12616462 -0.17158562 0.009993323 0.05601232
000140 da 36 2b 3d 9d 82 eb 3e 50 3a 5e 3f b8 1e f5 3d
       0.041800357 0.45998088 0.8680773 0.1196875
000150 5d 22 84 be 00 eb b9 be 8c ef 50 3e 7b 98 e3 3e
       -0.25807467 -0.36312103 0.2040388 0.4445227
000160 4f 79 30 3e 3e 55 bf 3e 8f 5a f3 3e f6 d0 72 3e
       0.17233776 0.37369722 0.47530028 0.23712525
000170 59 0e 39 be 15 f1 91 3e 08 94 0f be d1 e7 9f be
       -0.1807188 0.28504243 -0.14021313 -0.3123155
000180 0e 93 9e bd dc 79 aa be 41 e5 5c 3e 86 29 48 bd
       -0.07742892 -0.33296096 0.21571828 -0.048867725
000190 30 0b bc be c3 45 bd be 34 33 a9 be 56 8d be 3d
       -0.36727285 -0.36967286 -0.33046877 0.093043014
0001a0 4a 40 33 bd 9a 40 5f 3e 68 74 90 3e 80 78 e2 3e
       -0.043762483 0.21801987 0.2821381 0.4423256
0001b0 15 1d 0c bf 28 3f 5b be a6 34 90 3c 9d fd c7 3e
       -0.54731876 -0.21410811 0.01760323 0.3906068
0001c0 0a b2 b8 3e 40 de c3 3e bf 7a 79 be ba 22 df 3d
       0.36073333 0.382555 -0.2436323 0.108952954
0001d0 cc f0 25 3e 23 a3 22 bc ea 68 1c be bb f6 a6 be
       0.16205138 -0.00992659 -0.15274397 -0.32610115
0001e0 22 08 4a be 9e 14 55 be ea 5b 85 3f cb 0e 29 be
       -0.19729665 -0.20808646 1.0418675 -0.1650955
0001f0 b9 c5 8e bd f1 41 ac 3d 0f e0 14 bd ec aa 3d be
       -0.06971306 0.08411015 -0.03634649 -0.18522233
000200 0c 16 80 bf 02 ac b7 bd c7 43 85 bd 6b e1 d1 3d
       -1.0006728 -0.08968355 -0.06507068 0.10248073
000210 19 b3 27 be 82 fa ed be 1d 61 6d 3d 52 e1 3d 3e
       -0.16376914 -0.46480185 0.057953943 0.18542984
000220 1e 9a f1 3d 81 f5 68 be bc cd 7d be 68 8d 34 bd
       0.11796974 -0.22749902 -0.24785513 -0.044080168
000230 eb c0 ee bd 08 ee a6 3e 76 3d b0 3e 78 5d 8a 3e
       -0.1165789 0.32603478 0.3442189 0.27024436
000240 2c cd 3d be 50 9c 25 bd 41 05 16 3e 1e b8 fe 3d
       -0.18535298 -0.040432274 0.14650442 0.12437461
000250 82 a6 00 3d 07 cb 55 be ac ae 18 3e 34 2b e2 3e
       0.031408794 -0.2087823 0.14910382 0.44173586
000260 52 b4 33 3e fc a6 e4 bd 3a fd 13 be 38 1d 27 bf
       0.17549255 -0.11164662 -0.14452067 -0.6527896
000270 97 36 76 bd fc 2b b1 be aa ef 6e 3d 92 28 f1 3e
       -0.060110655 -0.3460387 0.05833403 0.47101265
000280 ec e5 1c 3e 53 15 40 3d d5 c3 57 3e ba 7c e3 3e
       0.15322083 0.046895336 0.21070798 0.44431096
000290 b8 95 1f bd a2 b5 14 be 26 88 8d bd 08 e8 44 bd
       -0.038961142 -0.14522412 -0.06910734 -0.048072845
0002a0 df 6d 99 be f0 d3 a3 be b8 a3 14 bf a0 d4 a3 bd
       -0.29966637 -0.31997633 -0.58062315 -0.079995394
0002b0 28 2f 29 be 81 f1 c9 3e 3a a2 02 3f 67 84 bc 3e
       -0.16521895 0.39442065 0.5102879 0.36819765
0002c0 ea 5f b3 be 1b 90 80 3c 87 70 1f be dd e1 48 3e
       -0.35034114 0.015693715 -0.1557027 0.1961741
0002d0 02 20 ec be 53 ad 3b 3d f8 14 05 3f 1b cf 1b be
       -0.4611817 0.04581959 0.5198512 -0.15215723
0002e0 4a 60 03 3e 94 22 86 3e 94 38 e4 3c f4 cb 14 be
       0.128297 0.26198256 0.02785901 -0.14530927
0002f0 9b 22 99 3e 25 7a 83 3e 71 8b a8 3d 23 32 00 3e
       0.29909214 0.25679126 0.08229721 0.12519126
000300 fa f3 8e 3d 16 3b 5e 3e b2 e6 0e be 7d 34 06 be
       0.069801286 0.21702227 -0.13955191 -0.1310596
000310 4f f8 97 bc a4 ba d5 be 61 43 22 bd 34 12 4f 3e
       -0.01855102 -0.41743958 -0.03961504 0.20221788
000320 13 f9 bf 3e 6e 9d 80 3d 27 9a 4b 3e a0 59 07 3f
       0.37494716 0.06280027 0.19883023 0.5287113
000330 6b 22 b4 bd 67 6a 89 be 15 05 f0 be 3c 1a 17 3e
       -0.08795627 -0.2683899 -0.46878877 0.14756101
000340 2a 05 db be 52 bc b4 3e 10 0c 0a bf 6a 4d 5a bd
       -0.42777377 0.35299927 -0.53924656 -0.053296484
000350 5b 0d 82 be 52 9f c7 be 60 28 49 3e 6a 81 08 3e
       -0.25400814 -0.3898874 0.19644308 0.13330618
000360 79 ee 86 3d 6e 26 da be 54 02 c0 3e 9c 82 4a bd
       0.06588454 -0.42607445 0.37501776 -0.049440965
000370 f7 01 57 3f 7b 7f e4 3e c2 42 3c bd 38 0c 2c be
       0.83987373 0.4462851 -0.045962103 -0.16801536
000380 c7 b0 9d bd 37 c2 15 bf fa 3d 2f be 5a ca 06 3e
       -0.07699733 -0.58499473 -0.17113486 0.13163128
000390 bc 2a 03 3e 99 24 88 3d 94 88 97 be 54 00 d0 be
       0.1280927 0.066476054 -0.29596388 -0.4062525
0003a0 77 f8 20 3f 8f fd 9c bd 80 a3 71 3d b7 65 8b be
       0.6287913 -0.0766555 0.058993816 -0.2722604
0003b0 a1 c7 6c 3e 21 88 25 be 4f 10 97 3e 68 b9 0e be
       0.23123027 -0.1616521 0.2950463 -0.13937914
0003c0 48 42 25 bd 57 4e 55 be 4a db de bd 98 3a 81 3e
       -0.040346414 -0.20830666 -0.1088167 0.25240016
0003d0 3a d7 cd be 83 b4 25 3c 7b 9a 05 be dc f8 5f 3d
       -0.40203267 0.010113838 -0.13047211 0.05468069
0003e0 a8 22 08 be a7 62 ae 3d 59 48 df 3e 9a 89 c9 be
       -0.1329447 0.0851491 0.43609884 -0.39362794
0003f0 5f 44 23 3e ad b3 88 3e f3 a1 64 3d d4 00 47 3c
       0.1594405 0.26699582 0.05581851 0.0121461935

block1.gcn_conv.conv1.bias f4 [128]
000000 cd d5 a8 3e 6b ed e7 3e d9 9b 44 3f 29 8d 92 3e
       0.32975617 0.45298323 0.76800305 0.28623322
000010 ab ca 80 3e 85 66 76 3e ba e6 03 3f 74 f2 48 3e
       0.25154623 0.24062546 0.51523936 0.19623739
000020 95 d7 4c 3e 55 40 15 3f 16 c5 de 3e 1b aa ca 3e
       0.20004113 0.5830129 0.4350974 0.39582905
000030 4d b7 cd 3e 38 f2 0c 3f 86 f2 c9 3e 62 35 ba 3e
       0.4017891 0.55057096 0.39442843 0.36368853
000040 1b 7c b8 3e 27 6a 11 3e f1 4b ef 3e 07 83 fb 3e
       0.36032185 0.1420065 0.46737626 0.49123403
000050 0e d7 97 3e 1c 29 72 3f d2 8b cf 3d ca b4 24 3e
       0.2965626 0.9459398 0.101340905 0.1608459
000060 de 9e df 3d c2 23 38 3f 46 4f c3 3e e6 04 30 3f
       0.109189734 0.7192956 0.38146418 0.68757474
000070 41 38 3a 3f 5c 4d 54 3f d5 1c d5 3e 34 9a aa 3e
       0.72742087 0.8293054 0.4162356 0.33320773
000080 51 eb 82 be 93 56 c8 3e 76 5a fe 3e 69 f7 12 bf
       -0.25570157 0.3912855 0.4967839 -0.5740877
000090 13 ee 9e 3e 50 c1 c3 3e 81 88 02 3f ff ee cc be
       0.3104101 0.38233423 0.5098954 -0.4002609
0000a0 83 86 d9 be 26 e2 d9 3e 0c c3 c1 be b9 01 18 bf
       -0.42485437 0.4255535 -0.3784412 -0.5937763
0000b0 38 da a6 3e 75 14 8d be 5b 90 18 3f f2 ab ee be
       0.32588363 -0.2755467 0.5959527 -0.4661556
0000c0 8d 07 be be 58 f3 57 be fd bc c8 3e 23 b4 c4 3e
       -0.37115136 -0.21088922 0.39206687 0.38418683
0000d0 c6 15 a3 be cd 4c ee be 4c e4 c0 be aa bc 8b 3e
       -0.3185255 -0.4654297 -0.37674177 0.27292377
0000e0 e7 45 8b be a8 14 cd 3e 32 39 04 3f c9 29 e0 be
       -0.2720177 0.40054822 0.51649773 -0.4378188
0000f0 f5 f4 f5 3e d0 d1 1b 3f ae 6b c8 be c2 c4 41 3e
       0.4803845 0.60867023 -0.39144653 0.18922713
000100 5a dd ac bd de ca 57 3e cf 28 a3 3e a0 1a a1 bd
       -0.08440657 0.21073481 0.31867072 -0.078664064
000110 a7 09 77 3d 7a 14 ef bd 95 be c5 3d 25 75 c1 3e
       0.06031194 -0.116738275 0.09655491 0.37784687
000120 32 a6 82 3e 3d b7 85 3e 15 6f 3d 3e ce 2f 8b 3d
       0.25517422 0.26116362 0.18499406 0.067962274
000130 6d a6 53 3c 9d eb 45 3e d4 c2 68 3e e0 60 a6 3e
       0.012918097 0.1932816 0.22730571 0.32495785
000140 7d 7d a6 be d0 9d 30 3e 39 83 29 bd a1 c4 23 3d
       -0.32517615 0.172477 -0.04138491 0.03998244
000150 6a 95 d8 3c 2e 60 4f 3f d1 87 c7 3d 84 40 b1 3e
       0.026438434 0.81006134 0.09742702 0.34619534
000160 18 0b 5a bc 91 a1 84 3e 9e a0 5c 3e 65 3f e6 3e
       -0.013308309 0.25904515 0.21545646 0.4497024
000170 f5 9e 95 3e 95 e8 83 3e c9 6d 39 3f b1 41 9f 3e
       0.29222837 0.25763384 0.72433144 0.31104806
000180 3c 5a 8e 3e 5f b4 c6 3e 70 08 27 3f 52 0d b2 3e
       0.27803218 0.38809487 0.6524725 0.34775788
000190 b7 e9 ea 3e cb f7 7f 3e 09 60 11 3f b7 1e dc 3e
       0.45881435 0.2499687 0.56787163 0.42992184
0001a0 a2 96 38 3e c7 82 5a 3e f6 7b c8 3e 58 be 7e 3e
       0.18026212 0.2133895 0.39157075 0.24877298
0001b0 e4 55 1c 3e 05 98 27 3f b8 9d 8c 3e 39 d2 c4 3e
       0.1526714 0.6546634 0.2746408 0.38441637
0001c0 c2 67 09 3e 5a 50 49 3e fa b7 9c 3e 77 7d 1d 3f
       0.13418487 0.19659558 0.30609113 0.6151957
0001d0 ca 61 b3 3e 9e c2 f6 3e 4b 63 2a 3e d6 fc e5 3e
       0.35035545 0.48195356 0.1663944 0.4491946
0001e0 41 c0 6e 3e b5 9f eb 3e e2 7c a3 3e 28 7a 31 3f
       0.23315527 0.46020284 0.31931216 0.6932702
0001f0 f7 95 cb 3e 92 12 dd 3e 7c ed 09 3f e4 db cc 3e
       0.39762852 0.4317823 0.53878 0.40011513

block2.gcn_conv.conv1.weight f4 [128, 192, 1]
000000 6d e6 05 bf d3 1f 04 bf 8c aa 2c be 11 3e 7c 3d
       -0.52304727 -0.5161106 -0.16861933 0.06158263
000010 66 bd 9c bd dd 9b ce 3e 48 7f 5f be 9c 7b df 3d
       -0.076533124 0.4035329 -0.21825898 0.109122485
000020 64 22 39 be 3b 48 e0 bd 32 76 75 be f6 e6 54 3e
       -0.18079525 -0.10951277 -0.23970869 0.2079123
000030 8b 48 53 3f e9 08 1d 3f 70 15 5d 3e 1a b9 a3 3d
       0.82532567 0.6134172 0.21590209 0.0799429
000040 03 19 78 bd da cb c1 3d b1 f1 18 3e 02 79 98 bf
       -0.060570728 0.0946271 0.14935948 -1.1911929
000050 b1 2e 0b 3e 32 a4 6c bd 64 53 46 be 48 88 8f be
       0.1359203 -0.057773776 -0.19367748 -0.28033662
000060 a3 e8 46 3e 50 b2 45 3e f1 57 82 be 87 c7 f0 3d
       0.19424681 0.19306302 -0.2545772 0.11756807
000070 3d 5e b2 3e 06 15 dc 3d e8 3f 2b bf a2 64 a2 bd
       0.34837523 0.107461974 -0.6689439 -0.079293504
000080 0a 3b a0 3e 17 b0 2e bf 0b 3f a3 3d 9e 30 c2 3e
       0.31295043 -0.6823744 0.07971009 0.37927717
000090 1c b4 19 3f eb c6 cd 3d 4f 4a d4 bd fd 94 7d 3e
       0.6004045 0.10047706 -0.10365736 0.24763866
0000a0 42 0e 13 be 6d 26 1b bf 3a a5 9c 3e af b9 2f 3d
       -0.14360908 -0.6060551 0.30594808 0.04290169
0000b0 7c 4b 25 be ab 66 81 3e 59 29 3f 3c 66 1a bc be
       -0.16142076 0.25273642 0.011667573 -0.3673889
0000c0 dc 8b 26 bf 2e 51 46 be ed 30 fe be d5 b0 9a 3e
       -0.6505716 -0.19366905 -0.49646702 0.30213037
0000d0 b0 fa 67 3d 8f 6b e5 3d 1c d1 49 3e 54 c8 00 be
       0.05663556 0.11202156 0.19708675 -0.12576419
0000e0 6b e9 2a bd e9 8f ca 3e b5 25 e3 3e e0 b9 6a 3e
       -0.04172651 0.3956292 0.44364706 0.22922468
0000f0 6a 2c 36 bf 4c 58 bc bd ec f4 fd bd 30 8f 5a bf
       -0.7116152 -0.09196529 -0.12400231 -0.85374737
000100 65 bc a1 3e df 12 d4 3e 3c 43 ce be 79 23 84 be
       0.31589046 0.41420648 -0.4028567 -0.25808313
000110 19 47 04 3e ea 99 25 3f 65 a8 c3 3d 8c 45 88 be
       0.12917747 0.6468798 0.09553603 -0.2661556
000120 67 7a 4f be d1 fc 26 3f 1b 7a 57 3e 20 bf b5 3e
       -0.20261537 0.6522952 0.21042673 0.3549738
000130 55 f3 28 bf 4e 1e 82 be 1e 21 ef bd 81 3c b2 3d
       -0.65996295 -0.25413746 -0.116762385 0.087029465
000140 d8 1c 15 bd 18 96 6b be 8f a2 80 3f 1e 5a 44 be
       -0.03640446 -0.23006475 1.0049609 -0.19175002
000150 02 b0 b6 3e 2c 6a fc be f4 ee 2d be 99 19 6e be
       0.35681158 -0.49299753 -0.16985685 -0.23251952
000160 fe af f6 3b 49 3e 2e be 1a 28 f5 be 2e 06 05 3f
       0.007528304 -0.17015947 -0.47882158 0.51962554
000170 13 c4 58 3d 00 b8 20 bf 9c ed 89 be 78 71 df 3e
       0.052921366 -0.6278076 -0.26939094 0.43641257
000180 45 99 2d 3e 91 b0 04 3e 2e 73 44 3d 3f 26 40 3e
       0.16952999 0.1295798 0.047961406 0.1876459
000190 8d ae 0c 3e 67 96 38 bb 9c ca 34 3d 36 e6 17 3f
       0.13738461 -0.0028165819 0.044138536 0.5933565
0001a0 09 d5 df bd d4 11 de 3e 7b 0b 34 3d 37 82 46 3e
       -0.10929305 0.43372977 0.04395626 0.1938561
0001b0 7b 2c a2 3e 6b 73 38 3e 5d bd 14 be a7 a4 e7 3e
       0.3167456 0.18012778 -0.14525361 0.45242807
0001c0 54 80 b1 ba de f8 16 3f 57 44 d4 3d 11 20 17 3e
       -0.0013542273 0.5897349 0.10364597 0.14758326
0001d0 28 ac 18 3e d5 00 7c 3e 62 8f 5b bf 96 c3 1e 3f
       0.14909422 0.24609692 -0.8576566 0.6201719
0001e0 9f f3 24 3e 5d 44 12 bf 51 5c 27 3e 7c 2b c1 3e
       0.16108559 -0.57135564 0.1634381 0.37728488
0001f0 50 f5 2b 3e ce 98 38 3e 40 a1 73 be fc ef 01 be
       0.16792798 0.1802704 -0.2379198 -0.12689203
000200 f2 37 bb bb 3f a6 c4 bd b4 1a ab be 03 42 ce 3e
       -0.0057134563 -0.096020214 -0.3341881 0.40284738
000210 b9 a1 1b be f8 52 4e bf f0 92 50 be 62 f6 ad bd
       -0.15198411 -0.8059535 -0.20368552 -0.084942594
000220 86 df 11 bd f1 b8 b9 be e6 4d c0 be 78 2e 21 be
       -0.03561356 -0.36273912 -0.37559432 -0.15740383
000230 98 81 03 be 86 0b 14 3e 71 88 1f be ae 04 93 3e
       -0.12842405 0.14457521 -0.15579392 0.28714508
000240 bc 2a 80 be b5 64 94 3d fc 0a 16 be a4 68 8e be
       -0.25032604 0.07245771 -0.14652628 -0.2781421
000250 70 b0 b1 bd c0 52 d5 bd fb 16 a6 3e a2 67 3b 3e
       -0.08676231 -0.10416174 0.32439408 0.18301252
000260 0e 64 36 3d fc dc 19 be ca ba f1 be 9e 59 42 3e
       0.044529013 -0.15025705 -0.4721282 0.18979499
000270 95 c9 47 3e 94 32 13 3e a6 78 b9 3d 10 e7 87 be
       0.19510491 0.14374763 0.09056215 -0.26543474
000280 40 ba 75 be 8e 91 10 bd 8e 08 dc 3d d8 f6 4a 3e
       -0.2399683 -0.03529506 0.10743819 0.19820726
000290 4a 62 24 3e 81 76 68 3c 16 a7 07 bd f7 0d 0c bd
       0.1605312 0.01418841 -0.03311833 -0.034193005
0002a0 c8 7d af 3d c2 0f 96 3d 96 65 55 bf 90 e6 3e 3f
       0.08568913 0.07327224 -0.8335813 0.7457056
0002b0 01 b5 cf 3e 48 ed 3a bf b5 79 b4 bd d4 26 9e 3e
       0.40567783 -0.7301831 -0.08812276 0.30888999
0002c0 dd 10 bb bd 71 01 d0 3e 48 d2 98 be 6a 31 87 3e
       -0.09134076 0.406261 -0.29847932 0.26404887
0002d0 08 8d 49 bf c4 dd bc bd 00 59 05 3e 5b 51 3d 3e
       -0.7873082 -0.09221986 0.13022232 0.18488066
0002e0 b2 e6 48 bf 68 7e 6e 3e c8 dd 96 3e 66 6e b2 3d
       -0.78477013 0.23290408 0.2946608 0.08712463
0002f0 19 69 bc 3e 30 92 01 bf 11 08 24 be 30 9e da bc
       0.36798933 -0.5061369 -0.16018702 -0.026686758
000300 5c 5a 35 bf d0 9a 12 bf 36 c1 0e be 88 4e 34 3f
       -0.70841 -0.57267475 -0.13940892 0.7043233
000310 ba c9 9c 3e b6 ea 91 bd 16 b4 99 3e bd 07 ac 3d
       0.30622655 -0.07124846 0.30020207 0.083999135
000320 c9 01 cc 3e de 67 07 bf 8f 3a 38 be ca 40 99 be
       0.39845112 -0.52892864 -0.17991088 -0.29932243
000330 67 f8 92 3e d1 06 00 3f 33 d0 0c 3f b1 e4 82 3f
       0.2870514 0.500104 0.55005187 1.0226041
000340 37 25 74 bd cd 78 af be 91 d0 64 3e 14 ce 42 3f
       -0.059605803 -0.3427185 0.22345187 0.760957
000350 89 ca af 3d 7b ec 97 be 72 1a ad be 66 ed 18 bf
       0.085835524 -0.29672608 -0.3380924 -0.5973724
000360 32 22 da bd eb 00 aa be c7 40 22 be 8d 46 c0 3d
       -0.106510535 -0.33203825 -0.15845023 0.093884565
000370 2a 7b e1 3e 96 7b 20 3f 15 5d 9b be 52 8c e2 3d
       0.4403928 0.6268858 -0.30344453 0.1106192
000380 d9 28 cf be b7 b9 59 bf 7b 03 ec be a1 c5 ee bd
       -0.40460852 -0.85049003 -0.46096405 -0.116587885
000390 c8 67 1f 3f cc 83 ff 3e cf a3 94 3f 63 ad b9 be
       0.6226773 0.4990524 1.161249 -0.36265096
0003a0 f5 7f 8c be 14 9f d5 be 88 e5 ed 3e fe 77 24 3f
       -0.27441373 -0.4172293 0.4646418 0.64245594
0003b0 bf f6 cf 3e d7 2b bf 3e 88 14 06 bf 10 26 a3 bf
       0.4061794 0.37338135 -0.5237508 -1.2745991
0003c0 f1 de 6c bf 30 82 26 bf 08 01 5c 3e d5 9f f6 be
       -0.9252768 -0.650424 0.21484768 -0.48168817
0003d0 43 bb 07 bf ea 39 72 be af eb 7d 3f ef 96 9c 3f
       -0.53020114 -0.23654905 0.9918775 1.2233561
0003e0 72 3f 24 bc ca 73 46 3f 18 3c 5e 3f 98 fe 1b bd
       -0.010024892 0.7752043 0.86810446 -0.038084596
0003f0 a5 18 41 bf 37 05 a2 be 2b e8 19 3e 24 43 0e bf
       -0.7542823 -0.31644604 0.15029971 -0.555712

block2.gcn_conv.conv1.bias f4 [128]
000000 6b 43 cc be f7 bc b1 3e b0 2c bf 3e f3 ba 87 3e
       -0.39895186 0.3471448 0.3733878 0.26509818
000010 54 17 25 3f e1 2b e2 3e 10 c9 f0 3e 7f 07 d6 3e
       0.6448872 0.44174102 0.470284 0.41802594
000020 2d b6 89 3e 64 01 ff 3e 60 26 ce 3e c3 e4 2b be
       0.26896802 0.49805748 0.40263653 -0.16786484
000030 38 07 67 3e 7b 12 5b 3e 56 bc 28 3f 20 aa c6 3d
       0.22561347 0.21393768 0.6591238 0.097004175
000040 2b b0 bc 3e af 31 18 3f c8 24 1b 3f 2f f8 81 3d
       0.36853155 0.5945081 0.60603 0.063461654
000050 59 03 e5 3e c9 f3 0e 3f 13 91 d5 3e 08 99 58 3e
       0.44729117 0.55840737 0.41712245 0.21152127
000060 a9 bd 14 3e 59 ef 5e bd 9b 1c 3e bc 2f f8 53 3e
       0.14525475 -0.05442748 -0.0116035 0.20700143
000070 c2 79 95 3e e2 27 0b 3e 2e c6 0c 3f 82 d9 f2 3e
       0.29194456 0.13589433 0.549899 0.4743157
000080 ad f8 58 be be 0f b0 3e 64 26 4d be 60 08 dc 3d
       -0.21188612 0.3438701 -0.20034176 0.10743785
000090 ba b8 fe 3e d4 90 b2 3e f3 6d f2 3e f4 89 7f 3e
       0.4975031 0.3487612 0.4734951 0.24954969
0000a0 bd b6 9c 3e c4 1d f6 3e d7 46 fe bd e1 40 72 3e
       0.30608168 0.48069584 -0.124158554 0.23657562
0000b0 82 3a 21 3e ac 8d ae be f4 81 02 bf c0 80 a1 bd
       0.15744975 -0.34092462 -0.5097954 -0.07885885
0000c0 2f f1 c8 be 92 a4 f9 be bb 40 01 3f e6 31 35 3e
       -0.39246508 -0.4875837 0.50489396 0.17694816
0000d0 52 cd ca 3e 9e 68 d4 be 05 88 d2 3e 55 8c 7a 3e
       0.39609772 -0.41486067 0.411194 0.24467595
0000e0 f3 8b 5d be 1c 2d e7 bd 8f 6a 24 be de 7c 94 3e
       -0.21635418 -0.11287901 -0.16056274 0.29001516
0000f0 fe 07 c3 be cf b0 63 3e f4 78 c2 3e 8a ca b7 be
       -0.38092035 0.22235416 0.37982905 -0.35896713
000100 d6 84 ac bd c5 ee fa 3d c8 32 e2 bd a8 e4 d4 3d
       -0.08423774 0.12252573 -0.11044842 0.10395175
000110 0e 5c 13 bd 40 9c 1f 3e 61 27 da bd 6a a6 47 3d
       -0.035976462 0.15586948 -0.10652042 0.04874269
000120 34 95 88 3b cd db 4b 3e 8d 9d f3 3d 85 5b 3b be
       0.004168177 0.19908066 0.11895285 -0.1829663
000130 43 5c a9 3d 7c da 30 3e 24 73 91 3d 90 09 d5 bd
       0.08269551 0.17270845 0.071020395 -0.104022145
000140 1d e9 9b ba 26 7e 44 3e 33 41 33 3e e3 1f b9 bc
       -0.0011895035 0.19188747 0.1750534 -0.022598213
000150 64 2b 23 bd 40 cb 16 3d 9b 98 62 3e b8 26 b0 bd
       -0.039836302 0.036814928 0.22128527 -0.08601135
000160 00 a1 f0 bd 30 ce 6c be a0 ed ec bd 0c b9 bb bc
       -0.11749458 -0.2312553 -0.11568761 -0.022915386
000170 e5 c2 16 bc de 91 38 3c aa cc 23 3e eb eb 24 3d
       -0.00920174 0.011265246 0.15996042 0.04026405
000180 ff 17 89 3e 74 f9 ab 3e 81 f3 25 be b4 6c 0a 3f
       0.2677612 0.33588755 -0.1620617 0.5407212
000190 dd d6 2d 3f f3 b4 df 3e 8c 98 d6 3e 82 4f 4f 3e
       0.6790598 0.4369274 0.4191326 0.20245174
0001a0 82 e4 56 3e c1 88 fb 3e f6 21 ae 3e 39 7a 48 3e
       0.20985606 0.49127772 0.34010285 0.19577874
0001b0 33 3b 20 3e 39 14 b2 3e b8 a1 02 3f 4a e7 c2 bd
       0.15647583 0.34781054 0.51028013 -0.09516771
0001c0 af 69 15 3f a0 1a 17 3f ca 4b 2b 3f ca 4a 26 3e
       0.58364385 0.59025 0.6691252 0.16239467
0001d0 be bc ee 3e 71 e5 18 3f e9 d3 e4 3e e5 fd 91 bd
       0.46628374 0.597251 0.44692925 -0.07128505
0001e0 b8 78 c9 3e b0 23 2d 3e d0 26 98 3e 07 99 ee 3d
       0.39349914 0.16908145 0.29717112 0.116502814
0001f0 97 bc ce 3e 26 6b 27 be 06 4e d9 3e 23 ce 13 3f
       0.40378258 -0.16349468 0.4244234 0.57736415

conv1.weight f4 [12, 32, 1, 12]
000000 9d 55 41 c0 39 7c fe bf 74 8a 0a c0 fd ec 11 c0
       -3.0208504 -1.988166 -2.1647005 -2.2800896
000010 9e db 07 c0 cc 4e b9 bf 9d a5 83 bf 2f eb 72 bf
       -2.1227794 -1.4477172 -1.0284916 -0.9489011
000020 c8 13 7c bf 71 fd 93 bf e8 3c dd bf f2 0b 27 c0
       -0.98467684 -1.1561719 -1.7284212 -2.610104
000030 f0 e9 2f 40 9a 0f 05 40 e5 00 fc 3f 3c 90 d1 3f
       2.7486534 2.0790772 1.9687773 1.6372142
000040 b3 58 b2 3f 2a fd a5 3f 25 9d a7 3f 83 e1 ac 3f
       1.3933319 1.2967885 1.3094832 1.3506321
000050 55 57 b0 3f 4b f5 ad 3f b1 0c b7 3f 14 40 bb 3f
       1.3776652 1.3590482 1.4300748 1.462893
000060 1f e9 2f c0 11 39 f3 bf c0 a1 00 c0 3a 23 f5 bf
       -2.7486036 -1.900179 -2.0098724 -1.9151375
000070 a9 d0 9b bf 37 45 35 bf f4 11 5a bf 79 5e 6e bf
       -1.2173053 -0.7080874 -0.85183644 -0.93112904
000080 e7 fb 7d bf 39 19 9a bf 18 2e ee bf f9 22 12 c0
       -0.992125 -1.2038947 -1.8607817 -2.2833846
000090 08 cf 19 40 da 3a e1 3f 34 f2 c7 3f 0e 4d c2 3f
       2.4032612 1.7596085 1.562079 1.5179765
0000a0 1a 4b b9 3f f4 a3 bc 3f e4 a3 b9 3f 64 b0 ba 3f
       1.4476044 1.4737535 1.450314 1.458508
0000b0 96 2d bb 3f c6 d4 c0 3f b4 35 c9 3f 9b a8 cb 3f
       1.4623287 1.5064933 1.5719514 1.5910829
0000c0 8c 59 1e 40 26 50 eb 3f fd 70 ca 3f 6e 11 cc 3f
       2.4742155 1.8383834 1.5815731 1.5942819
0000d0 99 02 c5 3f 65 a8 b7 3f b4 be bb 3f ad 69 be 3f
       1.5391418 1.4348265 1.4667573 1.4876
0000e0 99 5d c2 3f ad f4 cc 3f 65 5e cb 3f fa 1d cf 3f
       1.5184814 1.6012169 1.5888182 1.6181023
0000f0 6f 92 38 40 5f c7 19 40 bd dd ed 3f 5a 41 d8 3f
       2.8839376 2.4027936 1.8583294 1.6894944
000100 95 1b c4 3f ae 44 b6 3f a0 a4 b6 3f f4 03 ba 3f
       1.5320917 1.4239709 1.426899 1.4532456
000110 08 d8 ad 3f 8e 85 ab 3f 77 42 a7 3f 3f 56 ac 3f
       1.3581553 1.3400133 1.3067158 1.346382
000120 4d 98 1f 40 1e 6a e4 3f c6 ee c4 3f 9b 48 bd 3f
       2.4936707 1.7844884 1.5385368 1.4787782
000130 cb cb c3 3f 1b f2 bf 3f e7 4b bd 3f e6 60 c3 3f
       1.5296568 1.499576 1.4788789 1.5263946
000140 09 09 bf 3f ba 6e cb 3f e8 b0 d4 3f f2 61 e4 3f
       1.4924632 1.5893166 1.6616488 1.784239
000150 c3 04 36 40 5c 9d 15 40 31 9a ea 3f d6 72 8f 3f
       2.8440406 2.3377295 1.8328305 1.120692
000160 51 96 f7 3e a1 94 9e 3e 66 26 df 3e 5b 33 0c 3f
       0.4835687 0.3097277 0.43583983 0.5476586
000170 7d 92 e1 3e a9 ad 1c 3f db f6 85 3f 5e 03 73 3f
       0.44057074 0.61202484 1.0465959 0.9492701
000180 ab 89 37 40 da 8b 10 40 f2 89 df 3f 44 c0 c0 3f
       2.8677776 2.2585359 1.7463973 1.5058675
000190 42 02 ce 3f 92 24 db 3f fa c0 f4 3f 64 a0 14 40
       1.6094439 1.7120535 1.9121392 2.3222895
0001a0 1f b3 2a 40 20 52 40 40 a8 45 59 40 ac be 51 40
       2.6671827 3.0050125 3.3948765 3.2772627
0001b0 1a 60 23 40 42 d9 ed 3f 1b d7 ca 3f e2 be bf 3f
       2.5527406 1.8581927 1.5846895 1.4980128
0001c0 ba 6a c4 3f 46 d0 c0 3f 16 15 be 3f 81 e1 bb 3f
       1.534507 1.506356 1.4850185 1.4678193
0001d0 d5 75 b8 3f 8c 13 b6 3f 9a a8 b9 3f 9f fe c4 3f
       1.441096 1.4224715 1.4504578 1.5390204
0001e0 38 90 32 c0 d2 96 04 c0 91 21 f2 bf 9c 08 d7 bf
       -2.7900524 -2.0717053 -1.8916494 -1.6799502
0001f0 d1 e9 bf bf ff c0 a8 bf 16 87 a7 bf 1d 1a a4 bf
       -1.499323 -1.3183898 -1.30881 -1.2820469
000200 6b fc a2 bf ab 53 a9 bf b8 3e c1 bf 15 e6 c9 bf
       -1.2733282 -1.3228658 -1.5097265 -1.577334
000210 31 07 32 40 05 29 14 40 3c 02 1d 40 9b 62 1a 40
       2.781689 2.3150036 2.4532614 2.4122684
000220 c6 8a f5 3f 15 6e a3 3f 7a a6 94 3f 56 21 9e 3f
       1.9182975 1.2767969 1.1613305 1.2353923
000230 f5 8d bf 3f 4b 7a e9 3f 06 95 0f 40 df ec 47 40
       1.4965197 1.8240446 2.2434707 3.1238325
000240 9c 23 1f 40 40 0e c2 3f 15 de bf 3f 15 3b 96 3f
       2.4865484 1.5160599 1.4989649 1.173678
000250 3b 5f 83 3f ee 55 cb 3f cb 14 f4 3f a9 5b f7 3f
       1.0263437 1.5885599 1.9068846 1.9324847
000260 29 1c 0a 40 5c 79 15 40 68 b5 33 40 34 c4 1b 40
       2.1579688 2.3355322 2.8079472 2.4338503
000270 18 97 2b c0 47 44 13 c0 d4 f3 f6 bf 9f 35 d4 bf
       -2.681097 -2.3010423 -1.929316 -1.6578864
000280 9e cc d7 bf 74 b1 d4 bf fc ab d7 bf a3 49 d7 bf
       -1.6859319 -1.6616654 -1.684936 -1.6819347
000290 aa 1e db bf 72 7c df bf 6a a4 dd bf fe 44 e6 bf
       -1.7118733 -1.7459853 -1.73158 -1.7989805
0002a0 a8 f7 22 c0 6e 72 df bf 4a 83 be bf d3 42 b6 bf
       -2.5463657 -1.7456796 -1.4883816 -1.4239143
0002b0 90 20 b8 bf f4 05 b9 bf 92 8a bd bf 24 c4 bc bf
       -1.4384937 -1.4454942 -1.4807913 -1.4747357
0002c0 78 16 b8 bf c4 19 b5 bf aa b2 bc bf fa cd c7 bf
       -1.4381857 -1.4148488 -1.4742024 -1.5609734
0002d0 a9 6b 30 c0 20 5d 1a c0 d6 79 06 c0 33 c0 f1 bf
       -2.756571 -2.411934 -2.1011863 -1.888678
0002e0 8b 2a ca bf a8 95 c4 bf c7 ad d8 bf 96 97 f6 bf
       -1.5794233 -1.5358171 -1.6928033 -1.926501
0002f0 d1 7a 0a c0 fd f5 17 c0 2d 3d 36 c0 d4 c7 50 c0
       -2.163746 -2.374389 -2.8474839 -3.2621965
000300 25 dd 26 c0 a6 4b eb bf 6e 0b c7 bf c8 90 bd bf
       -2.6072476 -1.8382461 -1.5550363 -1.4809809
000310 70 a4 b1 bf d9 69 ae bf 4c af ac bf 6f a3 a2 bf
       -1.3878307 -1.3626052 -1.3490996 -1.2706126
000320 0f 9f af bf 36 82 ab bf 28 fa bc bf 58 9a b7 bf
       -1.3720416 -1.3399112 -1.4763842 -1.4343977
000330 db 19 1e c0 e5 af da bf 6f 9a c0 bf b2 6d be bf
       -2.470328 -1.7084929 -1.5047129 -1.4877226
000340 19 ed c1 bf 6b d3 c0 bf e9 ee bf bf 08 62 be bf
       -1.5150481 -1.506452 -1.4994785 -1.4873667
000350 0a 5c b7 bf 13 33 b4 bf 1b 2c ba bf 00 51 b7 bf
       -1.4324963 -1.4078087 -1.454471 -1.4321594
000360 c9 93 25 40 68 17 eb 3f 4b 03 cc 3f 3d 4c b9 3f
       2.587145 1.8366518 1.5938505 1.4476391
000370 13 45 ba 3f f5 7b c0 3f bd 85 bf 3f 7d e0 be 3f
       1.455233 1.5037829 1.4962689 1.4912258
000380 b4 12 b6 3f 38 d1 b6 3f 61 64 b7 3f 35 e3 b8 3f
       1.4224458 1.4282598 1.4327508 1.4444338
000390 b2 cb 2a 40 8e e3 ea 3f b3 34 e4 3f 15 8a a8 3f
       2.6686826 1.8350694 1.7828583 1.3167139
0003a0 42 3d a1 3f 67 4f ba 3f 8e 45 cf 3f 35 b3 d7 3f
       1.2596819 1.4555482 1.6193101 1.6851565
0003b0 52 8b e7 3f 16 d9 03 40 9c a3 37 40 3e da 42 40
       1.8089392 2.0601249 2.869361 3.0445704
0003c0 0d b9 24 40 95 ab e2 3f 09 cb cf 3f e9 67 c6 3f
       2.5737946 1.7708613 1.6233836 1.5500461
0003d0 d4 a8 c4 3f 16 fc c2 3f de 6b bf 3f 27 4b ba 3f
       1.5364022 1.523318 1.4954793 1.4554185
0003e0 53 a4 b5 3f 7f 92 c0 3f 67 6a ce 3f 13 d3 cc 3f
       1.4190773 1.5044707 1.6126221 1.6001915
0003f0 36 68 31 c0 2d be ff bf 43 13 d3 bf 27 0b c2 bf
       -2.7719855 -1.9979912 -1.6490253 -1.5159653

conv1.bias f4 [12]
000000 d9 7e ae 3f d9 91 ab 3f 46 0c b2 3f e3 62 ab 3f
       1.3632461 1.3403884 1.3909996 1.3389553
000010 f6 34 b4 3f 0b 29 b6 3f 47 16 b5 3f cf 2c b3 3f
       1.4078662 1.4231275 1.4147424 1.399805
000020 c6 47 b7 3f c4 af c0 3f f3 48 c0 3f fe 70 bf 3f
       1.4318779 1.505364 1.5022262 1.4956357
