Model Training and Evaluation Results/PEMS04/Gated-STGCN/Gated_STGCN_best_26.12.pth (torch, 155927 bytes, 26 tensors)

block1.conv1.weight f4 [32, 1, 1, 3]
0.573034 -0.40110287 -0.18750334 0.34318057 -0.6503651 0.47721386 -0.34314921 0.41562063
0.23268728 -0.39119443 0.25161606 0.111949794 0.120642096 -0.15396349 0.10002413 -0.3732861
0.24937879 0.14849088 0.5409255 0.1591478 -0.31430715 -0.40382132 0.19847424 0.07929843
-0.27507603 0.05387214 0.42575982 0.5668406 -0.58283794 0.28447556 -0.00908541 0.61935276
0.39445874 -0.19410864 -0.30221418 -0.02818055 0.46755388 -0.266158 0.11546242 -0.46007842
0.65494955 -0.20360509 0.66352624 -0.22244166 -0.42759585 0.5365107 -0.35266036 0.12892887
-0.00053931103 -0.48477754 -1.0283277 -0.35765362 0.14288074 -0.2618171 1.013272 0.82938784
0.048886094 -0.68162006 0.5884149 0.52300024 -0.51558155 0.36603108 0.43754745 -0.14929193
0.13715546 0.60275143 -0.25716043 -0.18493879 -1.130712 -0.26903144 0.62838024 0.24221355
0.22896925 0.20116295 0.679759 -0.09275978 0.2902707 0.40459144 -0.767921 0.12808369
-0.65171725 -0.5517564 0.02761865 -0.1756884 0.2266487 -0.53430367 -0.63691723 -0.0026665216
-0.44521585 -0.03467282 0.038664225 -0.8793611 -0.49306008 -0.6717569 -1.0397025 -0.82127064
00000000: 5bb2 123f 5b5d cdbe e000 40be 5db5 af3e
00000010: 547e 26bf 6055 f43e 41b1 afbe 3acc d43e
00000020: 9345 6e3e a34a c8be d2d3 803e ef45 e53d
00000030: 3413 f73d 9ba8 1dbe 73d9 cc3d 5b1f bfbe
00000040: 275d 7f3e fe0d 183e 187a 0a3f a4f7 223e
00000050: deec a0be abc1 cebe d53c 4b3e 3767 a23d
00000060: c4d6 8cbe 08a9 5c3d 31fd d93e 771c 113f
00000070: de34 15bf c8a6 913e f9da 14bc e78d 1e3f
00000080: 7ff6 c93e 6ac4 46be d1bb 9abe e6da e6bc
00000090: 3963 ef3e dd45 88be 9077 ec3d 668f ebbe
000000a0: c6aa 273f da7d 50be dbdc 293f bfc7 63be
000000b0: d8ed dabe c458 093f e68f b4be ee05 043e
000000c0: 8d60 0dba c334 f8be 3ea0 83bf 601e b7be
000000d0: 544f 123e e40c 86be e6b2 813f c352 543f
000000e0: c93c 483d a77e 2ebf 5ca2 163f 58e3 053f
000000f0: 27fd 03bf 6d68 bb3e 3806 e03e fcdf 18be
00000100: 7b72 0c3e eb4d 1a3f 88aa 83be 9860 3dbe
00000110: 2cbb 90bf 7dbe 89be 87dd 203f d406 783e
00000120: ea76 6a3e a9fd 4d3e b004 2e3f d7f8 bdbd
00000130: 5c9e 943e 9c26 cf3e 7896 44bf 5f28 033e
00000140: f1d6 26bf e83f 0dbf 8240 e23c a9e7 33be
00000150: 9916 683e 20c8 08bf 020d 23bf cfc0 2ebb
00000160: 55f3 e3be 1605 0ebd 615e 1e3d cf1d 61bf
00000170: 5f72 fcbe 43f8 2bbf f914 85bf cb3e 52bf

block1.conv1.bias f4 [32]
0.06003689 0.106913835 -0.09237212 -0.0010808995 0.075374275 -0.0010573433 0.27528772 0.059681837
-0.0756572 -0.3718391 0.53720284 -0.18967327 0.25251338 -0.0077068065 0.08778133 0.28425395
0.457327 -0.18900198 0.004911165 0.22097188 -0.23299016 0.45814943 -0.7453676 -0.74740195
-0.7524343 -0.00078571803 0.46105754 -0.81968224 0.0026025614 -0.1399929 -0.3601065 -0.73268735
00000000: 3ee9 753d a4f5 da3d 982d bdbd f8ac 8dba
00000010: d45d 9a3d 8e96 8aba 83f2 8c3e f174 743d
00000020: 29f2 9abd b261 bebe 2086 093f b639 42be
00000030: 6f49 813e 6189 fcbb b3c6 b33d bc89 913e
00000040: c426 ea3e bc89 41be d7ed a03b 7446 623e
00000050: f994 6ebe 9092 ea3e 69d0 3ebf bc55 3fbf
00000060: 899f 40bf a5f8 4dba bc0f ec3e b2d6 51bf
00000070: bc8f 2a3b 4c5a 0fbe e15f b8be 6691 3bbf

block1.gcn.conv1.weight f4 [32, 48, 1, 1]
0.058300816 0.1273372 0.045064144 -0.019716043 0.11000837 0.10898792 0.17639288 0.1325441
-0.1638196 0.075659834 -0.043119494 0.09869243 -0.15827258 -0.07751324 -0.13414021 0.055518158
0.10507634 0.016634453 0.119616374 0.081568934 0.04726977 0.095099285 0.035249513 0.36175495
-0.037607837 0.06010846 -0.029248519 -0.15116635 -0.12860873 -0.1154093 0.12071139 -0.0010416481
-0.23711722 0.023049342 -0.010803982 0.18635276 -0.07096338 0.044466857 -0.13364948 -0.01763195
-0.10608393 -0.23488612 -0.038136084 0.08558628 0.19172293 0.13036734 0.20620273 0.27127823
0.039974578 -0.049168948 -0.36310014 -0.29232228 -0.62781966 0.1899954 0.123150036 -0.36542448
-0.16664116 0.36897287 -0.01787779 0.0555359 -0.2178542 -0.39336878 -0.13316756 0.23110113
-0.19810751 -0.089546114 0.40626627 -0.14937624 -0.18320973 0.16694492 0.20361361 -0.18661071
0.22134243 -0.25064763 -0.010319442 -0.03237902 0.113007 0.08867071 -0.050957087 -0.17536806
0.29784352 -0.027582595 0.036604263 -0.19766006 -0.29506898 -0.18050225 0.22463852 0.6492688
0.28448662 -0.2940722 0.19269037 0.20031194 -0.6669275 -0.050377328 -0.16045384 0.15767309
-0.18865114 -0.21954538 0.13793199 -0.13867125 0.14454956 0.55929947 0.24181166 -0.65460443
-0.4354338 0.38099125 0.086931445 -0.045352757 -0.34857666 -0.19969572 -0.115496516 0.3100827
0.0017396404 -0.13249548 -0.004531968 -0.045492835 -0.16102864 0.123028174 0.102204785 0.024366876
0.14423753 0.1694295 0.071583875 -0.057555296 0.10057958 0.6858407 0.20458542 0.032985132
-0.265077 -0.101145424 -0.0976362 0.19287072 -0.21678334 -0.033014294 -0.0722219 0.22478166
-0.061652023 -0.77277476 -0.29699135 -0.3974137 0.048751406 -0.50640184 0.12982161 0.44006398
-0.011330751 0.055064794 -0.08906924 -0.013388407 -0.08116596 0.014521147 -0.46416464 -0.30313206
-0.34746993 -0.29383266 -0.07107017 -0.115023285 -0.029720312 -0.06506838 -0.1333873 -0.11408839
-0.20279779 -0.22363569 0.010470527 -0.21687171 0.20687483 -0.041095816 0.07064636 -0.034858637
-0.07384577 0.13639703 0.027716815 0.04181684 0.07863466 0.038948633 0.13413827 -0.05160529
0.11217025 -0.16648223 -0.07571297 -0.016335081 0.059333418 0.061151024 0.034558523 -0.08673756
-0.20751853 -0.119739205 0.014356387 -0.23357372 0.026363924 0.08683962 0.06628448 0.16742976
-0.05373475 -0.057624884 -0.1399137 -0.14340149 -0.028044557 -0.3458526 -0.28316036 -0.059205055
-0.39919898 -0.049053155 0.15319948 0.1923944 0.032396786 -0.1693883 -0.14794044 -0.07297811
-0.008487253 -0.027388122 0.11649009 -0.097595945 -0.056363042 -0.13012367 -0.045614038 0.2815773
-0.11970358 0.11500718 -0.119991966 -0.06910492 -0.12244818 -0.18018016 0.117924444 0.008097691
-0.009515658 -0.05954862 0.15014015 0.07450637 0.12694764 -0.068034455 -0.052876346 -0.017033381
-0.1296939 0.087953225 0.042088654 -0.103728294 0.020856742 0.17325248 -0.10571197 -0.06730347
-0.20709275 -0.06915031 -0.3508755 -0.049306437 -0.14401153 -0.2252356 0.08159529 -0.21913208
0.054140203 0.33980945 -0.10016245 0.090575546 -0.12971883 -0.25768808 -0.0003840537 0.06714312
00000000: d6cc 6e3d af64 023e 2e95 383d 8a83 a1bc
00000010: 114c e13d 0f35 df3d 56a0 343e a4b9 073e
00000020: 53c0 27be 8bf3 9a3d 119e 30bd 421f ca3d
00000030: 3512 22be 43bf 9ebd 0d5c 09be 0267 633d
00000040: 4432 d73d fa44 883c 6ef9 f43d 9d0d a73d
00000050: f29d 413d 6ac3 c23d cb61 103d f237 b93e
00000060: ad0a 1abd 4a34 763d 979a efbc 5acb 1abe
00000070: 02b2 03be b65b ecbd 8937 f73d e987 88ba
00000080: dbce 72be f9d1 bc3c 2f03 31bc 42d3 3e3e
00000090: 4055 91bd e122 363d 69db 08be e170 90bc
000000a0: 8842 d9bd fd85 70be 9534 1cbd dc47 af3d
000000b0: 0453 443e 047f 053e cf26 533e fbe4 8a3e
000000c0: 62bc 233d 6165 49bd 43e8 b9be 44ab 95be
000000d0: cab8 20bf 278e 423e 1636 fc3d eb18 bbbe
000000e0: fba3 2abe 03ea bc3e 7174 92bc 9d79 633d
000000f0: 2c15 5fbe a267 c9be 145d 08be c6a5 6c3e
00000100: b2dc 4abe f463 b7bd 2202 d03e 16f6 18be
00000110: 559b 3bbe 9cf3 2a3e 1680 503e e116 3fbe
00000120: 97a7 623e e354 80be e012 29bc dd9f 04bd
00000130: 3770 e73d fd98 b53d 61b8 50bd af93 33be
00000140: f27e 983e e5f4 e1bc 5aee 153d 6667 4abe
00000150: 4813 97be 95d5 38be a407 663e 7b36 263f
00000160: 3ba8 913e a290 96be a050 453e 931e 4d3e
00000170: c3bb 2abf 7558 4ebd 034e 24be 0e75 213e
00000180: c42d 41be 81d0 60be 0b3e 0d3e d6ff 0dbe
00000190: cd04 143e 402e 0f3f 7a9d 773e 2894 27bf
000001a0: 2ef1 debe 4911 c33e 1d09 b23d d0c3 39bd
000001b0: a478 b2be 097d 4cbe 7089 ecbd 29c3 9e3e
000001c0: a504 e43a e5ac 07be e780 94bb b256 3abd
000001d0: b1e4 24be 32f6 fb3d be50 d13d 0b9d c73c
000001e0: 01b3 133e ed7e 2d3e 919a 923d 1abf 6bbd
000001f0: abfc cd3d 4293 2f3f d77e 513e 6b1b 073d
00000200: 2cb8 87be 5525 cfbd 7df5 c7bd e77f 453e
00000210: 74fc 5dbe ff39 07bd 13e9 93bd 2a2d 663e
00000220: d586 7cbd 91d4 45bf 400f 98be cf79 cbbe
00000230: 8eaf 473d 8da3 01bf f5ef 043e 1150 e13e
00000240: 9da4 39bc 9f8b 613d ef69 b6bd 0d5b 5bbc
00000250: 573a a6bd 1bea 6d3c fda6 edbe 2034 9bbe
00000260: 94e7 b1be 3c71 96be 3d8d 91bd 5491 ebbd
00000270: 0378 f3bc 9242 85bd ae96 08be 2ca7 e9bd
00000280: 39aa 4fbe c100 65be 938c 2b3c 9e13 5ebe
00000290: ffd6 533e 1654 28bd 0aaf 903d eec7 0ebd
000002a0: 733c 97bd aaab 0b3e 600e e33c 2348 2b3d
000002b0: 350b a13d 9a88 1f3d 8b5b 093e 1260 53bd
000002c0: 84b9 e53d 517a 2abe 670f 9bbd 26d1 85bc
000002d0: 9907 733d 7f79 7a3d 3d8d 0d3d 76a3 b1bd
000002e0: bd7f 54be d439 f5bd 0d37 6b3c f32d 6fbe
000002f0: 28f9 d73c f8d8 b13d 28c0 873d b572 2b3e
00000300: f818 5cbd 1208 6cbd 8945 0fbe d7d7 12be
00000310: b3bd e5bc 9813 b1be 65fa 90be 0081 72bd
00000320: cf63 ccbe f6eb 48bd 53e0 1c3e 0a03 453e
00000330: 7eb2 043d 2074 2dbe b37d 17be 8c75 95bd
00000340: 1f0e 0bbc 0e5d e0bc 5b92 ee3d 62e0 c7bd
00000350: efdc 66bd 243f 05be c9d5 3abd e62a 903e
00000360: 2727 f5bd e288 eb3d 59be f5bd e186 8dbd
00000370: 1dc6 fabd 2681 38be 5f82 f13d 2eac 043c
00000380: 90e7 1bbc 41e9 73bd 57be 193e cc96 983d
00000390: 90fe 013e a655 8bbd de94 58bd 9789 8bbc
000003a0: 7ace 04be d220 b43d 2765 2c3d 806f d4bd
000003b0: c2db aa3c 1969 313e 847f d8bd 67d6 89bd
000003c0: 1f10 54be ad9e 8dbd f4a5 b3be 8cf5 49bd
000003d0: c277 13be 29a4 66be 6e1b a73d 2964 60be
000003e0: 1ec2 5d3d 81fb ad3e f821 cdbd ac7f b93d
000003f0: 03d5 04be b1ef 83be d15a c9b9 5582 893d

block1.gcn.conv1.bias f4 [32]
0.061048757 -0.15003082 -0.34351745 -0.026766013 0.02549543 0.04451876 -0.0457433 -0.0029629574
-0.1479207 -0.16755065 -0.027706519 -0.36039048 0.02971951 0.122591875 -0.046051398 0.0054109576
-0.034363188 0.016769888 -0.11216348 0.1380082 -0.34202093 -0.02114016 -0.09767981 -0.08996813
-0.095175944 -0.2108835 0.08551096 -0.050029866 -0.06404738 -0.20555653 -0.091011986 -0.009387817
00000000: 430e 7a3d aea1 19be 85e1 afbe 6644 dbbc
00000010: cbdb d03c 4e59 363d 545d 3bbd 2d2e 42bb
00000020: 8678 17be 6692 2bbe c8f8 e2bc 1a85 b8be
00000030: 5476 f33c 7311 fb3d 64a0 3cbd 674e b13b
00000040: 6ac0 0cbd 0161 893c f7b5 e5bd 0652 0d3e
00000050: 5e1d afbe 212e adbc 5a0c c8bd 3641 b8bd
00000060: 9beb c2bd d8f1 57be 5f20 af3d 1eec 4cbd
00000070: 462b 83bd 697d 52be 7e64 babd 5ccf 19bc

block1.conv2.weight f4 [64, 32, 1, 3]
0.13467884 0.11114786 0.13386624 0.19080043 -0.19791587 0.20497428 0.20672405 0.34008786
0.471588 0.105857134 0.34113288 0.15492961 0.1949693 0.21603882 0.23702368 0.08568019
0.1702768 0.18826161 0.11198317 0.11480958 0.01507316 0.08554512 0.32881197 0.65183276
0.057432204 0.070468985 0.09055978 0.4184888 1.190557 0.5780013 -0.04436647 -0.14480501
0.3645809 -0.037345 0.075662844 0.4645301 0.0321209 0.24780725 0.13044839 0.42548063
0.46272925 0.23588994 0.22098075 0.13136165 0.35219416 -0.21603626 -0.20831235 0.3828311
-0.04305192 0.283309 0.52377135 0.24560206 0.12305516 0.34803426 0.07417201 0.6391008
0.6269429 0.10207653 0.09368181 0.04190646 0.16994779 0.2285493 -0.35362285 0.5491528
0.32039106 0.10985647 0.018805722 0.32684597 0.098130256 0.45117003 0.020229982 1.1830248
0.21594533 0.24241874 0.28199768 0.957641 0.16848104 0.3561752 -0.023645392 0.07310982
0.4602188 0.09601758 0.15596877 -0.025283951 -0.25867307 -0.035892554 -0.04301079 -0.013305788
-0.07332656 -0.006848617 -0.18727162 0.05809514 0.07724367 0.14336061 0.11629291 0.33429512
0.13326104 0.21520296 0.073876604 0.014083771 0.08698223 0.31954888 -0.088059954 0.41935998
0.60501856 0.11016388 -0.24754764 -0.25080866 0.17685272 0.2264266 0.021576926 0.18986408
0.06674794 -0.10793574 0.09907931 0.056697186 -0.075183764 -0.21193664 0.17375384 0.20123532
0.016693065 0.13376905 0.28646296 0.11896643 0.6361778 0.2811748 -0.034272566 0.07633401
0.15488303 0.06575978 0.011065583 0.13312022 0.28704438 0.1113828 -0.06864246 0.50545025
0.27119085 0.058715425 0.0005950944 0.06560781 0.013727117 -0.26273987 -0.12331802 0.06322695
0.0660159 -0.042322814 -0.012888711 -0.09358255 0.36462435 0.43031234 0.064187795 -0.011263485
-0.001604305 0.30684108 0.20637573 -0.12627912 0.541845 0.44600478 0.089770645 0.18245412
-0.09599044 -0.58804643 0.31457424 0.28926533 0.14175802 -0.0030442914 -0.4791171 -0.65342104
0.2494525 0.37438536 0.5161025 1.1883532 0.51567286 0.5560383 -0.24056225 0.030182248
0.10572636 0.21419756 0.35476422 0.43445686 0.043223105 -0.2678638 0.10713868 -0.28353387
0.10812675 0.6093009 -0.07742068 -0.05308839 -0.2989191 0.15350182 0.18067698 0.18855515
-0.4891799 -0.44099823 -0.3208338 -0.20615524 -0.18586099 0.020598184 -0.46764553 -0.8172753
-0.7245741 -0.4104217 -0.20795795 0.09330533 -0.37677112 -0.25077936 -0.19728826 0.18943456
0.05908881 0.59417546 -0.2935616 -0.33917755 -0.4968845 0.5387618 0.37100372 0.69530445
-0.21691096 -0.22408266 -0.3496876 -0.42850643 -0.43731195 -0.007965765 0.057987936 -0.29329184
-0.04824564 -0.14608695 0.065773845 0.023330323 0.21663502 0.47276312 0.6282802 -0.22282912
-0.3103048 0.4658776 -0.5101382 -0.3079357 -0.100056425 0.103155255 -0.4673192 -0.14377683
0.46291792 -0.2005372 0.35315633 0.09051316 -0.2196598 -0.051431406 0.2209948 -0.0015006618
0.008720285 0.019856451 0.086457975 0.5719917 0.698792 0.020454792 -0.1505158 -0.10796828
00000000: 40e9 093e 7da1 e33d 3b14 093e 3061 433e
00000010: 75aa 4abe c7e4 513e 78af 533e ff1f ae3e
00000020: fb73 f13e a0cb d83d f8a8 ae3e dea5 1e3e
00000030: 08a6 473e 4839 5d3e 56b6 723e 1879 af3d
00000040: 0b5d 2e3e a7c7 403e 6f57 e53d 4921 eb3d
00000050: 6af5 763c 4832 af3d 0b5a a83e 83de 263f
00000060: 083e 6b3d 0b52 903d 6877 b93d 2a44 d63e
00000070: 2c64 983f e5f7 133f 9eb9 35bd c447 14be
00000080: 59aa ba3e 12f7 18bd 1ff5 9a3d e4d6 ed3e
00000090: 3491 033d 2fc1 7d3e 4394 053e 99d8 d93e
000000a0: d9ea ec3e 228d 713e c748 623e ab83 063e
000000b0: cb52 b43e 9c38 5dbe d54f 55be 7002 c43e
000000c0: 3657 30bd e10d 913e e115 063f 1b7f 7b3e
000000d0: 5804 fc3d 8c31 b23e 7fe7 973d 1c9c 233f
000000e0: 547f 203f 800d d13d 40dc bf3d 1ca6 2b3d
000000f0: cb06 2e3e d408 6a3e 0e0e b5be 4795 0c3f
00000100: 4c0a a43e 6efc e03d 750e 9a3c 5b58 a73e
00000110: 84f8 c83d c2ff e63e 59b9 a53c 5b6d 973f
00000120: c620 5d3e 9e3c 783e 0062 903e f627 753f
00000130: 4b86 2c3e 995c b63e fbb3 c1bc 9aba 953d
00000140: cca1 eb3e dda4 c43d 47b6 1f3e 4a20 cfbc
00000150: cc70 84be 1204 13bd 152c 30bd 8500 5abc
00000160: 3c2c 96bd 5d6a e0bb 22c4 3fbe 2bf5 6d3d
00000170: ee31 9e3d 20cd 123e fa2a ee3d bb28 ab3e
00000180: 9575 083e 2a5e 5c3e 9e4c 973d 9ebf 663c
00000190: bd23 b23d e99b a33e c758 b4bd 5ab6 d63e
000001a0: 7fe2 1a3f 9a9d e13d 217d 7dbe fe69 80be
000001b0: e118 353e 60dc 673e 18c2 b03c bb6b 423e
000001c0: 25b3 883d 6a0d ddbd 18ea ca3d 4f3b 683d
000001d0: f2f9 99bd eb05 59be 87ec 313e a210 4e3e
000001e0: e5bf 883c c1fa 083e 46ab 923e aca4 f33d
000001f0: 8cdc 223f 25f6 8f3e 6461 0cbd 0155 9c3d
00000200: a899 1e3e 10ad 863d 6b4c 353c ab50 083e
00000210: 7bf7 923e aa1c e43d 6b94 8cbd 3065 013f
00000220: 87d9 8a3e 967f 703d 1c00 1c3a 635d 863d
00000230: b4e7 603c d785 86be 288e fcbd 227d 813d
00000240: 5833 873d b05a 2dbd 2c2b 53bc 35a8 bfbd
00000250: 0bb0 ba3e e651 dc3e e474 833d 7b8a 38bc
00000260: 8b47 d2ba 461a 9d3e 2954 533e 504f 01be
00000270: 5bb6 0a3f bd5a e43e acd9 b73d 41d5 3a3e
00000280: a396 c4bd 368a 16bf e00f a13e 961a 943e
00000290: 0429 113e bc82 47bb d64e f5be 9a46 27bf
000002a0: 7a70 7f3e 70af bf3e 4b1f 043f f51b 983f
000002b0: 2303 043f 8758 0e3f f355 76be c340 f73c
000002c0: 1087 d83d 9b56 5b3e a8a3 b53e 2171 de3e
000002d0: b60a 313d 7225 89be 866b db3d 5a2b 91be
000002e0: 8f71 dd3d 25fb 1b3f bc8e 9ebd 3673 59bd
000002f0: ed0b 99be 952f 1d3e 6303 393e 9a14 413e
00000300: ca75 fabe 85ca e1be 5444 a4be 5c1a 53be
00000310: 5852 3ebe 86bd a83c 3c6f efbe f438 51bf
00000320: b07d 39bf cb22 d2be eef2 54be dd16 bf3d
00000330: 25e8 c0be 2766 80be ef05 4abe 22fb 413e
00000340: 1c07 723d e21b 183f b54d 96be aea8 adbe
00000350: a567 febe 4bec 093f 33f4 bd3e 79ff 313f
00000360: e81d 5ebe ed75 65be 410a b3be 3265 dbbe
00000370: 5ae7 dfbe d782 02bc c284 6d3d 592a 96be
00000380: 389d 45bd d197 15be 70b4 863d 3c1f bf3c
00000390: 92d5 5d3e 020e f23e f9d6 203f 512d 64be
000003a0: 45e0 9ebe 8287 ee3e 6b98 02bf c0a9 9dbe
000003b0: 62ea ccbd 1043 d33d 7644 efbe 3c3a 13be
000003c0: 9403 ed3e a059 4dbe e8d0 b43e f75e b93d
000003d0: 80ee 60be bda9 52bd 764c 623e dbb1 c4ba
000003e0: 87df 0e3c ffa9 a23c e110 b13d 0c6e 123f
000003f0: 08e4 323f cf90 a73c d020 1abe 791e ddbd

block1.conv2.bias f4 [64]
0.11617249 0.118751 -0.27859277 0.02157539 -0.23479545 0.13570595 -0.14304517 -0.2436014
-0.10157055 0.28307402 -0.15042058 -0.13601229 -0.1788964 -0.21874002 0.014253475 -0.058247965
0.22432262 -0.08772971 0.016882561 0.05641549 -0.050092362 -0.17751653 -0.23003916 0.08940685
0.0019879781 -0.17249177 -0.20453312 -0.2555752 0.026696572 0.05656605 -0.13670011 -0.07623086
0.029991033 -0.16257392 -0.019197494 -0.10853023 -0.087754376 0.095624655 0.78472894 -0.10325593
-0.088198565 -0.0060259267 0.35526437 -0.08032031 0.56349444 0.049046848 0.2437479 0.1997159
0.2500044 0.004352797 -0.19290937 -0.03798182 0.46059382 -0.0536606 0.5037247 0.11093893
0.2266025 0.42433506 0.57801396 0.6130668 -0.17927834 0.32444608 -0.25804892 0.48943537
00000000: d8eb ed3d b933 f33d b6a3 8ebe dfbe b03c
00000010: 386e 70be 80f6 0a3e 6f7a 12be a572 79be
00000020: 3804 d0bd 14ef 903e da07 1abe ce46 0bbe
00000030: 9e30 37be 62fd 5fbe 6887 693c 6b95 6ebd
00000040: d4b4 653e a2ab b3bd 4c4d 8a3c ee13 673d
00000050: a62d 4dbd e5c6 35be 638f 6bbe f01a b73d
00000060: bd48 023b afa1 30be 2171 51be c1da 82be
00000070: c5b2 da3c cdb1 673d 1dfb 0bbe ed1e 9cbd
00000080: c1af f53c c779 26be 1044 9dbc 1945 debd
00000090: 91b8 b3bd dcd6 c33d ffe3 483f d877 d3bd
000000a0: 73a1 b4bd 2375 c5bb 36e5 b53e fa7e a4bd
000000b0: 2c41 103f 59e5 483d 0d99 793e 5382 4c3e
000000c0: 9400 803e e8a1 8e3b 098a 45be d392 1bbd
000000d0: f4d2 eb3e 38cb 5bbd 1af4 003f f333 e33d
000000e0: 7c0a 683e 7242 d93e b9f8 133f f2f1 1c3f
000000f0: be94 37be cc1d a63e fd1e 84be 4697 fa3e

block1.conv_1.weight f4 [32, 1, 1, 1]
-0.12496476 0.5559377 -0.55949694 0.17788464 -0.2631015 0.3717512 -1.0876654 -0.71194434
0.16684926 1.1054099 -0.28944856 -0.35365188 -1.1321123 -0.9237895 -0.20483847 -0.34311545
0.45820922 -0.84821284 0.21731572 -0.2587344 -0.83232635 -0.36906156 -0.7899576 -0.0056965705
0.34651622 -0.9138732 -0.8849137 -0.98369044 -0.04641928 0.8823226 -0.34658298 -0.75037456
00000000: 86ed ffbd ef51 0e3f 313b 0fbf 6427 363e
00000010: 3db5 86be 2c56 be3e 9f38 8bbf fc41 36bf
00000020: 88da 2a3e 127e 8d3f 9a32 94be dc11 b5be
00000030: 0ee9 90bf 787d 6cbf 2dc1 51be d4ac afbe
00000040: 669a ea3e 7a24 59bf 0388 5e3e d678 84be
00000050: 5713 55bf a3f5 bcbe a93a 4abf 4caa babb
00000060: 936a b13e 98f3 69bf b489 62bf 23d3 7bbf
00000070: 2522 3ebd e5df 613f 5373 b1be 8c18 40bf

block1.conv_1.bias f4 [32]
-0.96857864 -0.711062 0.07493999 0.27043808 0.846156 0.6507544 -0.7749769 -0.05429504
0.7884771 0.23685145 -0.3779257 -0.07675579 -0.42206693 0.26790646 -0.5913232 -0.538138
-0.047231536 -0.43650547 0.55150706 -0.5731259 -0.96176887 -0.09447217 -0.38809896 -0.08830704
0.7269739 -0.85182005 -0.5453782 -0.32799637 -0.17502683 0.9217229 0.7351528 -0.57075125
00000000: c5f4 77bf 2908 36bf 237a 993d dc76 8a3e
00000010: ae9d 583f d797 263f e364 46bf 7a64 5ebd
00000020: a3d9 493f 3089 723e 7a7f c1be 2432 9dbd
00000030: 2819 d8be 092b 893e f560 17bf 69c3 09bf
00000040: db75 41bd a57d dfbe 912f 0d3f 61b8 12bf
00000050: 7c36 76bf a07a c1bd e8b4 c6be 52da b4bd
00000060: f61a 3a3f e110 5abf e89d 0bbf 24ef a7be
00000070: 3c3a 33be 08f6 6b3f f932 3c3f c11c 12bf

block2.conv1.weight f4 [32, 32, 1, 3]
-0.07242394 -0.056682866 -0.09258054 0.11549134 0.019112635 -0.09223853 0.071397565 0.1697131
-0.059351034 0.18187086 -0.072705954 -0.25643438 -0.043366108 0.19253358 -0.025605867 0.34506407
0.062878184 -0.18165024 -0.38891497 0.20692283 0.5086633 -0.32384545 0.07305368 0.2055451
0.009377918 0.075522035 0.057590842 0.44545907 -0.18572664 -0.15395477 -0.54941946 0.041601397
0.29328638 -0.37207934 0.23886478 0.17940553 -0.44774422 0.07171341 0.30931786 -0.3681022
0.11233206 0.28001738 -0.37191898 0.16855578 -0.0028639592 -0.3166886 -0.018740227 0.30982274
0.65534526 -0.278196 -0.33958328 -0.509331 0.21716587 0.22339137 0.031589497 0.11522213
-0.25601682 -0.0072826566 -0.03622001 -0.07753817 -0.23148684 -0.02874821 0.29764006 -0.5178541
-0.0037038585 0.36780995 -0.47200316 0.060549248 0.2700841 0.49535254 -0.08281481 -0.19584501
0.09560639 -0.018165197 0.21465287 -0.2989903 0.10115884 0.2405928 -0.5183371 0.08415469
0.24006015 -0.4478835 0.2051596 0.24936974 -0.20812544 0.23827408 0.049292836 0.5990019
-0.15915465 -0.3750913 0.11807763 0.18524542 -0.12359723 -0.34912986 0.0745933 0.27892765
-0.024990726 0.120122194 0.12965225 0.06761996 0.0948029 0.11420142 0.14213493 0.100864105
0.02099481 0.0046095722 0.114492014 0.054468047 -0.06891511 -0.056647327 0.0077778366 0.06526223
0.2421047 0.1062181 0.069820575 -0.12630159 -0.049938295 0.13500243 -0.06859111 0.04531967
-0.28792685 -0.0076126945 -0.27876788 -0.008552453 -0.07765641 0.24645306 0.10320472 -0.05760887
-0.07581583 -0.1261205 -0.20392708 0.08391866 0.050051074 -0.15409395 -0.19863276 -0.02799513
-0.037149653 -0.12492233 -0.32977894 -0.2463032 -0.5358272 -0.098522685 -0.16723324 -0.026573611
-0.06604614 -0.117342524 0.12271612 -0.065562986 -0.121792406 -0.1791278 0.05529686 0.24341263
-0.012625719 0.10756913 0.18275937 0.20601329 0.103497155 -0.012708725 -0.056943253 0.2697111
0.10976971 0.24536675 0.06124638 -0.093607135 -0.18998589 -0.012085215 -0.045374125 0.10343535
-0.19931327 0.123187415 0.25892568 0.14111418 -0.065267585 0.06211195 0.109931186 -0.10643456
-0.14496627 0.07397601 -0.03846678 -0.13630095 0.16769445 0.19901745 0.16900012 -0.05792343
-0.057807524 0.13990594 -0.010910251 0.1217114 -0.028509025 0.033221383 0.006263343 -0.08745433
-0.25360402 -0.25871623 -0.2040276 -0.17989044 0.04333832 0.13113287 0.5527362 -0.17745215
-0.0033928854 -0.1656902 -0.18996868 -0.15356964 0.065383695 -0.08774482 -0.22753717 -0.034558892
0.20933206 0.25430185 0.23652428 -0.024807025 -0.05038846 0.25111857 0.042483386 -0.07804065
0.05260651 0.02814512 -0.010123877 -0.36986554 0.18570432 0.21237792 0.100291476 -0.37979895
-0.34881455 0.30486503 -0.47915724 0.03205491 0.25769135 -0.19776565 -0.18322702 0.51105666
-0.074107915 -0.14265549 -0.00899802 -0.4570143 0.08692131 0.0076817027 -0.11481909 -0.16866404
-0.49606353 0.2921966 0.25372842 0.5689891 -0.21740496 -0.20812671 -0.15993914 -0.052789174
0.2983145 -0.0008483752 -0.25938857 -0.12336528 0.088924065 -0.15958549 -0.0135935815 0.32161826
00000000: 0153 94bd 4b2c 68bd de9a bdbd b986 ec3d
00000010: 1a92 9c3c 8ee7 bcbd e338 923d 45c9 2d3e
00000020: 121a 73bd 5b3c 3a3e dce6 94bd 5e4b 83be
00000030: a9a0 31bd 8627 453e 65c3 d1bc 3dac b03e
00000040: 47c6 803d 8502 3abe dd1f c7be 94e3 533e
00000050: c237 023f 12cf a5be 2b9d 953d 6a7a 523e
00000060: d7a5 193c 4cab 9a3d 60e4 6b3d 3613 e43e
00000070: 202f 3ebe 52a6 1dbe c1a6 0cbf 3a66 2a3d
00000080: a229 963e 2f81 bebe f898 743e 15b6 373e
00000090: bb3e e5be 7bde 923d e95e 9e3e e477 bcbe
000000a0: 5a0e e63d 705e 8f3e 2a6c bebe e399 2c3e
000000b0: 43b1 3bbb 0225 a2be 1b85 99bc 16a1 9e3e
000000c0: b5c4 273f b56f 8ebe dcdd adbe 8463 02bf
000000d0: bb60 5e3e b5c0 643e fd63 013d 95f9 eb3d
000000e0: a314 83be 5aa3 eebb 6f5b 14bd 55cc 9ebd
000000f0: e30a 6dbe 5e81 ebbc 4764 983e 1692 04bf
00000100: 6fbc 72bb 9651 bc3e 66aa f1be 7d02 783d
00000110: 7748 8a3e d99e fd3e d09a a9bd 988b 48be
00000120: 48cd c33d 2ecf 94bc f6cd 5b3e 4215 99be
00000130: 5e2c cf3d f55d 763e bdb1 04bf 4b59 ac3d
00000140: 54d2 753e fc50 e5be 5c15 523e c85a 7f3e
00000150: d61e 55be 1ffe 733e 49e7 493d 3058 193f
00000160: 70f9 22be f80b c0be afd2 f13d fab0 3d3e
00000170: 8b20 fdbd 26c1 b2be 5fc4 983d 9bcf 8e3e
00000180: 5ab9 ccbc a002 f63d 8fc3 043e 557c 8a3d
00000190: 0628 c23d 6fe2 e93d d28b 113e d791 ce3d
000001a0: 4ffd ab3c e50b 973b ca7a ea3d e319 5f3d
000001b0: 5d23 8dbd 0707 68bd 39dd fe3b 34a8 853d
000001c0: 4bea 773e e088 d93d 17fe 8e3d 3455 01be
000001d0: 198c 4cbd 143e 0a3e 7f79 8cbd 1ea1 393d
000001e0: 266b 93be e973 f9bb aaba 8ebe 961f 0cbc
000001f0: 530a 9fbd 315e 7c3e ff5c d33d 47f7 6bbd
00000200: 5445 9bbd bb25 01be 43d2 50be 8cdd ab3d
00000210: 5b02 4d3d ceca 1dbe 6366 4bbe 0b56 e5bc
00000220: 3c2a 18bd 47d7 ffbd c9d8 a8be e836 7cbe
00000230: f92b 09bf 43c6 c9bd 313f 2bbe e7b0 d9bc
00000240: 3343 87bd 4751 f0bd 9752 fb3d e345 86bd
00000250: 4c6e f9bd 476d 37be f67e 623d 2941 793e
00000260: 1bdc 4ebc 344d dc3d 4625 3b3e 26f5 523e
00000270: 51f6 d33d 4238 50bc 543d 69bd 9317 8a3e
00000280: f1ce e03d 6c41 7b3e 7cdd 7a3d 19b5 bfbd
00000290: a98b 42be 1101 46bc 38da 39bd ead5 d33d
000002a0: c718 4cbe af49 fc3d e891 843e 3c80 103e
000002b0: 03ab 85bd 1a69 7e3d 9a23 e13d 5dfa d9bd
000002c0: 0a72 14be bc80 973d 588f 1dbd 7a92 0bbe
000002d0: 18b8 2b3e 3bcb 4b3e 5e0e 2d3e 1e41 6dbd
000002e0: 95c7 6cbd 8143 0f3e e9c0 32bc d443 f93d
000002f0: c28b e9bc 2513 083d bb3c cd3b 411b b3bd
00000300: 63d8 81be 7476 84be 9cec 50be 3335 38be
00000310: 8683 313d b247 063e 1f80 0d3f 04b6 35be
00000320: 2c5b 5ebb b1aa 29be 2687 42be 5c41 1dbe
00000330: e3e7 853d 8eb3 b3bd 81ff 68be a08d 0dbd
00000340: 255b 563e da33 823e 6c33 723e 1a38 cbbc
00000350: 2164 4ebd 9d92 803e 0f03 2e3d c7d3 9fbd
00000360: ed79 573d 9890 e63c 9ede 25bc 045f bdbe
00000370: 4629 3e3e 9979 593e 9e65 cd3d 0275 c2be
00000380: d297 b2be 4517 9c3e 1954 f5be 024c 033d
00000390: 1ff0 833e 1483 4abe dd9f 3bbe 9cd4 023f
000003a0: e4c5 97bd 4814 12be 6e6c 13bc c7fd e9be
000003b0: cd03 b23d cbb6 fb3b 4526 ebbd 44b6 2cbe
000003c0: 0afc fdbe cb9a 953e b1e8 813e 45a9 113f
000003d0: 689f 5ebe 2b1f 55be 16c7 23be 7639 58bd
000003e0: aebc 983e 7f65 5eba 94ce 84be f0a6 fcbd
000003f0: d21d b63d 616a 23be 9db7 5ebc 26ab a43e

block2.conv1.bias f4 [32]
0.0022385682 -0.08115039 0.05106606 0.06838374 0.031811986 -0.00428025 0.04451248 0.11418319
-0.11341171 0.2655659 0.09114759 -0.06214349 -0.11535203 -0.2073482 -0.09604377 -0.015530904
0.14064516 -0.34163183 0.12634823 0.12841763 -0.25452077 -0.572472 -0.32695335 0.11321999
-0.49140984 0.09911357 -0.05981436 -0.35599867 0.11122202 -0.29874906 -0.10315186 0.2619876
00000000: f1b4 123b 2d32 a6bd a52a 513d c60c 8c3d
00000010: 494d 023d 5741 8cbb b852 363d e0d8 e93d
00000020: 6644 e8bd 41f8 873e 96ab ba3d 2c8a 7ebd
00000030: af3d ecbd 1653 54be 99b2 c4bd 5575 7ebc
00000040: 4905 103e 5eea aebe 6e61 013e e97f 033e
00000050: 8c50 82be 868d 12bf 6e66 a7be e2df e73d
00000060: 129a fbbe 0efc ca3d e7ff 74bd 7545 b6be
00000070: 5fc8 e33d a3f5 98be 4841 d3bd 3d23 863e

block2.gcn.conv1.weight f4 [32, 48, 1, 1]
-0.40890628 -0.2736214 -0.035368867 0.008319323 -0.15199131 0.057978798 0.03570843 -0.050037015
0.014313752 0.15377913 0.20498402 0.06697746 0.012540289 0.03682626 -0.15130779 -0.1110452
0.02433208 0.14891665 -0.15501034 -0.0064744004 0.09147817 0.20966932 -0.030839775 -0.14170063
-0.031009119 0.06404506 0.15209067 0.04859484 0.038264606 0.088566236 0.24219696 -0.20533353
-0.04610748 0.025375122 0.01484983 0.012750107 -0.28949177 -0.20597476 -0.101961784 -0.07602855
-0.04946574 0.17376356 -0.19849733 -0.13031451 -0.014122836 0.2625639 0.004712888 -0.5317532
-0.6781714 -0.4529483 -1.572188 0.13228242 0.031215036 -0.048763264 -0.1282329 0.15023021
0.40120572 -0.367225 -0.042446546 0.10286879 -0.04164151 0.18308431 -0.03534003 0.0062643834
0.010010876 -0.008699192 -0.09877146 -0.049250353 0.36233526 -0.011299892 0.03446866 0.16742754
-0.065610446 -0.03268069 0.24411747 0.113421924 0.2295307 -0.17416987 0.0662576 0.09591311
-0.2326009 -0.11988849 -0.089946136 0.09590594 0.040407225 0.28260574 -0.3825832 -0.11104542
-0.004756719 -0.17422448 0.035769314 -0.16021654 -0.3178577 0.067685306 0.13178788 0.2591785
0.22306214 0.11609233 -0.34213394 -0.3321706 0.21626912 -0.003441866 -0.06897305 0.3560173
0.06451532 -0.019127432 -0.0014964315 0.07123284 0.11891234 0.041695565 0.44103742 -0.50273764
-0.10739687 -0.0053188917 0.09957499 -0.10105431 0.12559482 0.18934864 -0.3205516 0.0024030793
-0.07326692 -0.07259409 0.09480363 -0.24824709 0.33578664 -0.41226855 -0.16183068 0.18100318
0.3159432 0.09274665 -0.07089786 0.19103819 -0.31736833 -0.31583685 0.28601232 -0.394185
-0.59995735 0.36431417 0.1415056 0.008473265 -0.03432665 -0.41525993 0.09777727 0.78909117
-0.8004088 -0.54360324 -0.06431304 -0.12391542 -0.24052331 -0.17838684 0.32964212 0.08382386
-0.25283465 -0.05641498 -0.01967171 -0.09212955 -0.1956633 -0.17320858 0.16653612 0.2663245
-0.08197162 -0.22120841 0.0027596476 0.15069573 -0.04932308 0.45629147 0.08112261 -0.15466638
-0.3208012 0.0738113 0.27779198 -0.104906484 -0.014941697 0.062751815 0.25171086 -0.069975495
-0.034566626 0.1638958 -0.034111306 0.0057632485 -0.108789794 -0.24631259 0.11574173 0.041746758
-0.3038188 0.07955226 0.027392238 -0.13101369 0.14070113 0.28788203 0.23677006 -0.34563392
0.1276833 0.44520292 0.11566594 -0.39614064 0.11750477 0.11129799 -0.14738585 0.1595735
-0.15358648 -0.1668575 -0.15198202 0.31162584 -0.19561104 0.33227375 0.34916264 -0.2975928
0.22109108 -0.10941064 0.24988481 -0.19853851 -0.052876256 -0.0784434 -0.41836038 0.5048826
-0.103631556 -0.06268727 0.25496772 -0.041233465 0.4259108 -0.4822326 0.097605534 0.6488854
-0.15792665 0.078828774 -0.05121426 -0.396129 0.041113175 -0.052191928 -0.09907292 0.2913888
-0.2321888 -0.09579394 0.1286332 0.3515895 0.071737014 -0.608037 -0.10673652 0.4947265
0.09965442 0.2261399 -0.18298501 -0.035443116 0.093467236 -0.3648234 -0.026556253 0.19637941
-0.1872149 0.13991722 -0.16183205 0.014288539 0.1377997 0.25043938 0.064566664 -0.097888485
00000000: 2a5c d1be 1b18 8cbe f2de 10bd c54d 083c
00000010: 9ca3 1bbe 2d7b 6d3d 0143 123d 9df3 4cbd
00000020: 3a84 6a3c 4778 1d3e 55e7 513e 7b2b 893d
00000030: c975 4d3c 22d7 163d 6ef0 1abe aa6b e3bd
00000040: 1254 c73c 9b7d 183e 08bb 1ebe 3527 d4bb
00000050: e858 bb3d 8eb3 563e b2a3 fcbc f819 11be
00000060: d606 febc 0e2a 833d a8bd 1b3e 620b 473d
00000070: 59bb 1c3d 3762 b53d 7b02 783e f442 52be
00000080: 32db 3cbd 7ddf cf3c b44c 733c d3e5 503c
00000090: 4438 94be 0ceb 52be 57d1 d0bd dbb4 9bbd
000000a0: 969c 4abd 13ef 313e e242 4bbe 2b71 05be
000000b0: 7863 67bc c76e 863e 926e 9a3b fa20 08bf
000000c0: a49c 2dbf d7e8 e7be 753d c9bf 0b75 073e
000000d0: adb6 ff3c fdbb 47bd 7c4f 03be f3d5 193e
000000e0: d66a cd3e ea04 bcbe 6edc 2dbd dfac d23d
000000f0: 4a90 2abd 747a 3b3e b5c0 10bd 7545 cd3b
00000100: a804 243c 0e87 0ebc b148 cabd bdba 49bd
00000110: 0284 b93e 2f23 39bc 022f 0d3d 2072 2b3e
00000120: c55e 86bd 30dc 05bd eef9 793e c149 e83d
00000130: 190a 6b3e 9659 32be 11b2 873d 186e c43d
00000140: ee2e 6ebe 1988 f5bd ae35 b8bd 556a c43d
00000150: 0c82 253d b3b1 903e f2e1 c3be c86b e3bd
00000160: 40de 9bbb e767 32be d882 123d ce0f 24be
00000170: 3fbe a2be 989e 8a3d 67f3 063e 0bb3 843e
00000180: 676a 643e d1c1 ed3d 2e2c afbe 4412 aabe
00000190: a775 5d3e ee90 61bb be41 8dbd e647 b63e
000001a0: 9c20 843d 22b1 9cbc e923 c4ba 86e2 913d
000001b0: 5088 f33d f8c8 2a3d a8cf e13e 6ab3 00bf
000001c0: e4f2 dbbd 194a aebb f9ed cb3d 90f5 cebd
000001d0: ee9b 003e 9ce4 413e 571f a4be fb7c 1d3b
000001e0: f80c 96bd 36ac 94bd 6828 c23d 7c34 7ebe
000001f0: 3aec ab3e dd14 d3be f1b6 25be e658 393e
00000200: 4fc3 a13e f5f1 bd3d e632 91bd 849f 433e
00000210: 1a7e a2be 5eb5 a1be 3570 923e 9ed2 c9be
00000220: ce96 19bf 6387 ba3e d8e6 103e 73d3 0a3c
00000230: 1a9a 0cbd f39c d4be 733f c83d e101 4a3f
00000240: 97e7 4cbf 9529 0bbf 8eb6 83bd 5ec7 fdbd
00000250: be4b 76be 0aab 36be dac6 a83e d8ab ab3d
00000260: 8b73 81be 6513 67bd 9126 a1bc 6bae bcbd
00000270: f65b 48be 975d 31be 7288 2a3e af5b 883e
00000280: bde0 a7bd 7584 62be 34db 343b fb4f 1a3e
00000290: ff06 4abd 099f e93e 9c23 a63d dd60 1ebe
000002a0: 0e40 a4be 612a 973d c03a 8e3e 36d9 d6bd
000002b0: 05ce 74bc 0684 803d 3fe0 803e 504f 8fbd
000002c0: bc95 0dbd 4dd4 273e 4cb8 0bbd a2d9 bc3b
000002d0: 2fcd debd 5e39 7cbe 000a ed3d a6fe 2a3d
000002e0: 238e 9bbe 4cec a23d b065 e03c 7428 06be
000002f0: f513 103e 4665 933e da73 723e eef6 b0be
00000300: 69bf 023e a3f1 e33e 44e2 ec3d f2d2 cabe
00000310: 57a6 f03d 33f0 e33d 51ec 16be 3c67 233e
00000320: c645 1dbe b1dc 2abe 2da1 1bbe 6c8d 9f3e
00000330: 434e 48be c91f aa3e 72c5 b23e 155e 98be
00000340: b365 623e b012 e0bd cee1 7f3e ae4d 4bbe
00000350: c694 58bd efa6 a0bd 5533 d6be fc3f 013f
00000360: c83c d4bd 2f62 80bd 218b 823e 6ce4 28bd
00000370: fb10 da3e 31e7 f6be 69e5 c73d 5b1d 263f
00000380: 86b7 21be fb70 a13d 0bc6 51bd 6cd1 cabe
00000390: 4a66 283d 34c7 55bd bee6 cabd ea30 953e
000003a0: e7c2 6dbe 9d2f c4bd 6cb8 033e 8a03 b43e
000003b0: dbea 923d 50a8 1bbf ad98 dabd cb4c fd3e
000003c0: 9e17 cc3d 3891 673e 6c60 3bbe cd2c 11bd
000003d0: c06b bf3d 22ca babe 808c d9bc af17 493e
000003e0: 43b5 3fbe 7646 0f3e 4db7 25be 7a1a 6a3c
000003f0: 5d1b 0d3e 9739 803e 873b 843d c279 c8bd

block2.gcn.conv1.bias f4 [32]
0.04882936 0.0936555 -0.1942763 -0.042497948 -0.07160158 -0.068327636 0.07852274 -0.31151715
0.068787105 0.1076433 0.028168479 0.08964899 0.06537631 -0.72891986 -0.008632116 0.02395931
-0.2790402 0.28616774 -0.2326895 0.06242781 -0.0016963007 -0.16336289 0.015627507 -0.059142005
-0.050131198 -0.26518932 -0.116127126 -0.3474015 -0.26407763 0.018669894 -0.067820445 0.014817991
00000000: 4c01 483d 74ce bf3d 5ef0 46be 5412 2ebd
00000010: d9a3 92bd 5cef 8bbd 88d0 a03d 2d7f 9fbe
00000020: 41e0 8c3d 1774 dc3d 95c1 e63c e499 b73d
00000030: 04e4 853d 7e9a 3abf b86d 0dbc 5146 c43c
00000040: 5bde 8ebe 9484 923e 2846 6ebe 4eb4 7f3d
00000050: 6856 deba 9a48 27be 4205 803c e33e 72bd
00000060: 5f56 4dbd e5c6 87be 0fd4 edbd 9cde b1be
00000070: 2f35 87be 9bf1 983c 72e5 8abd 29c7 723c

block2.conv2.weight f4 [64, 32, 1, 3]
-0.07112036 -0.021160152 -0.23802768 0.06335052 0.10685993 0.17913921 0.022725726 0.05225483
0.15693054 0.026527895 -0.021117713 -0.14881593 0.20098273 0.09174619 0.27710405 -0.037198786
0.22452691 0.36287507 -0.08592872 0.023514878 -0.14460173 -0.0148876645 -0.068457656 -0.2480857
0.08088632 0.09937529 -0.011444188 -0.069987714 0.06664509 -0.089151785 -0.04959299 0.053985506
0.19767486 0.14519425 0.007724192 -0.06736444 -0.07095973 -0.18367733 -0.4315711 0.27606446
0.07508902 -0.33134317 0.12991513 -0.01904562 -0.053941395 0.07296724 0.07717034 0.069375046
0.12402283 0.047026686 -0.09678084 -0.042076133 -0.10466294 0.0014179212 -0.16286546 -0.107418574
-0.14496991 0.061072733 -0.04541866 0.053661 0.079362355 0.13399987 0.07244726 0.09266111
-0.041154645 -0.12255189 0.10561251 -0.1035509 -0.057569828 0.019623296 0.030298136 -0.013442245
-0.0997603 -0.18060613 -0.14201456 -0.04638612 0.20778489 -0.3098256 0.36662883 0.11627182
-0.14040141 0.06169987 0.31630594 0.20783977 0.025372751 0.27363288 0.04525571 0.09968159
-0.16723436 0.023097184 -0.21928991 -0.07262396 0.104684725 -0.12694488 -0.1350254 -0.25203586
-0.094651625 0.024464449 0.19372268 0.020240936 0.019856492 -0.09045885 -0.0018877934 -0.03584736
0.44737333 -0.1572403 -0.2238953 0.0012232527 0.18970184 0.022933168 0.4430857 -0.15793906
-0.1425092 -0.4168729 0.05901262 0.18640848 0.3444537 -0.051974878 -0.0997979 -0.3944845
0.02543594 -0.049743943 0.14010303 0.08735122 0.069648474 -0.10861642 -0.013525267 0.07960255
0.06851856 0.14762153 0.007862142 -0.07017826 -0.028071446 -0.011296583 -0.063768156 -0.11705424
-0.31808928 -0.59777325 -0.046757597 -0.12221002 -0.13450749 0.20545548 0.037457857 0.20434849
-0.02933738 0.022836566 0.030794818 0.01742125 0.13378328 0.1764252 -0.38279003 -0.27539
0.11053175 0.21130519 0.00078931573 -0.07322585 -0.04753762 0.0047335695 -0.013848681 0.24959469
0.40054172 0.5327542 0.11465001 -0.023447849 0.09858609 -0.04917446 -0.10398246 0.038716815
-0.091981396 -0.014302063 -0.11774906 0.06542676 0.6182662 -0.110029645 0.28334498 0.09781526
0.2530968 0.1206213 0.30059808 0.2133373 -0.01709004 0.16038215 0.3217513 -0.012348819
0.0077602128 0.14035262 -0.5177913 -0.16692121 0.063013256 -0.05119298 0.00013993712 0.48719147
0.12699679 0.10468107 -0.077425905 0.2534526 -0.012673934 0.247938 0.59884346 0.18409024
0.40861475 0.042133417 -0.08815991 -0.41538376 -0.030967047 0.14862493 -0.07547231 0.09546986
-0.10133964 -0.0116602145 0.02941267 -0.016985744 -0.14653192 0.27061656 -0.12167323 -0.07767263
0.2527722 0.08273075 0.38013852 0.2659825 0.19385348 0.52549225 0.14241023 0.21372898
0.42462927 0.21998969 -0.037957072 0.36582664 0.011166712 0.08980007 -0.034144085 -0.06375641
-0.15811893 1.3440337 0.07711058 0.14118381 -0.03579823 0.108700745 -0.07566218 -0.115017004
0.21676928 0.24874356 0.43435314 0.18164802 0.094611175 -0.028211268 0.21814929 -0.3586325
-0.3262747 0.19970985 0.12313777 0.20355424 0.03432871 0.4038868 0.5604219 -0.093244284
00000000: 8da7 91bd 0e58 adbc 87bd 73be ebbd 813d
00000010: 61d9 da3d 4570 373e 4d2b ba3c 2909 563d
00000020: 66b2 203e 0751 d93c 0eff acbc 3463 18be
00000030: 6bce 4d3e 6de5 bb3d 95e0 8d3e c15d 18bd
00000040: 62ea 653e c3ca b93e 66fb afbd 46a2 c03c
00000050: 7a12 14be 64eb 73bc 8733 8cbd 2e0a 7ebe
00000060: baa7 a53d 4685 cb3d 6780 3bbc b855 8fbd
00000070: 397d 883d 3695 b6bd 0522 4bbd e81f 5d3d
00000080: 476b 4a3e cdad 143e 381b fd3b 5ef6 89bd
00000090: 5653 91bd e915 3cbe e3f6 dcbe 5258 8d3e
000000a0: 46c8 993d d0a5 a9be 7908 053e 8f05 9cbc
000000b0: a7f1 5cbd d96f 953d 7c0b 9e3d 8114 8e3d
000000c0: aeff fd3d 0e9f 403d 0835 c6bd 0658 2cbd
000000d0: 8659 d6bd 8ad9 b93a 34c6 26be 45fe dbbd
000000e0: fe72 14be 6727 7a3d eb08 3abd a3cb 5b3d
000000f0: bb88 a23d 4337 093e 3b5f 943d 1cc5 bd3d
00000100: c691 28bd 7cfc fabd 5f4b d83d 7f12 d4bd
00000110: 57ce 6bbd 09c1 a03c cc33 f83c dd3c 5cbc
00000120: 214f ccbd d0f0 38be 446c 11be 5fff 3dbd
00000130: 90c5 543e 76a1 9ebe c6b6 bb3e ec1f ee3d
00000140: 63c5 0fbe 01b9 7c3d daf2 a13e f3d3 543e
00000150: 84da cf3c 9c19 8c3e 0d5e 393d dd25 cc3d
00000160: 7c3f 2bbe 4e36 bd3c 898d 60be dfbb 94bd
00000170: f264 d63d d7fd 01be 1944 0abe d80a 81be
00000180: b6d8 c1bd ab69 c83c 3d5f 463e 52d0 a53c
00000190: 15aa a23c 7d42 b9bd d66f f7ba aed4 12bd
000001a0: 1e0e e53e 9a03 21be cf44 65be 8d55 a03a
000001b0: 3341 423e 57de bb3c 21dc e23e c7ba 21be
000001c0: efed 11be 5d70 d5be 38b7 713d dde1 3e3e
000001d0: 3c5c b03e 9ce3 54bd d762 ccbd dff9 c9be
000001e0: 085f d03c 4ec0 4bbd 2b77 0f3e 32e5 b23d
000001f0: dca3 8e3d 4972 debd 1599 5dbc a906 a33d
00000200: 7553 8c3d 192a 173e 37d0 003c 9fb9 8fbd
00000210: 17f6 e5bc 4e15 39bc e198 82bd 22ba efbd
00000220: 99dc a2be ab07 19bf e584 3fbd 3f49 fabd
00000230: 55bc 09be ec62 523e 696d 193d bb40 513e
00000240: f254 f0bc c013 bb3c 6a45 fc3c 02b7 8e3c
00000250: 7cfe 083e cfa8 343e 0efd c3be ebff 8cbe
00000260: 785e e23d 6360 583e 15ea 4e3a 6ff7 95bd
00000270: cfb6 42bd 0f1c 9b3b 94e5 62bc c095 7f3e
00000280: ce13 cd3e 9462 083f a0cd ea3d b415 c0bc
00000290: 81e7 c93d 296b 49bd c2f4 d4bd 8695 1e3d
000002a0: be60 bcbd 3353 6abc 6b26 f1bd 77fe 853d
000002b0: b246 1e3f 3957 e1bd 9812 913e 5e53 c83d
000002c0: e795 813e 4d08 f73d fee7 993e 1875 5a3e
000002d0: 6900 8cbc 383b 243e 96bc a43e b352 4abc
000002e0: 6249 fe3b 99b8 0f3e f88d 04bf 65ed 2abe
000002f0: 180d 813d bbaf 51bd 16bc 1239 2971 f93e
00000300: 720b 023e 0763 d63d 7991 9ebd 8ac4 813e
00000310: 55a6 4fbc 76e3 7d3e ce4d 193f 2782 3c3e
00000320: f435 d13e 1794 2c3d 2f8d b4bd 2ead d4be
00000330: 9bae fdbc 2231 183e 3a91 9abd b485 c33d
00000340: 288b cfbd 7c0a 3fbc d7f2 f03c b025 8bbc
00000350: 770c 16be 418e 8a3e d02f f9bd d412 9fbd
00000360: 5c6b 813e bd6e a93d 84a1 c23e dc2e 883e
00000370: 8781 463e a986 063f fdd3 113e c5db 5a3e
00000380: 0269 d93e fa44 613e e078 1bbd a14d bb3e
00000390: 96f4 363c 19e9 b73d abda 0bbd b892 82bd
000003a0: eee9 21be 4c09 ac3f 27ec 9d3d 7d92 103e
000003b0: 2aa1 12bd 7f9e de3d c6f4 9abd 098e ebbd
000003c0: c4f8 5d3e a2b6 7e3e 8963 de3e f001 3a3e
000003d0: 81c3 c13d 511b e7bc 8762 5f3e ae9e b7be
000003e0: 7a0d a7be bd80 4c3e a82f fc3d 8670 503e
000003f0: 439c 0c3d 40ca ce3e cf77 0f3f dcf6 bebd

block2.conv2.bias f4 [64]
-0.20206918 -0.08856058 0.242853 -0.16921571 0.2216787 -0.4555548 0.24490932 0.26647714
0.38010043 0.08690856 0.15384057 -0.17192575 -0.24066366 0.12502861 -0.3329465 -0.27082065
-0.27135432 -0.33582193 -0.14812228 0.36899748 0.26104367 0.2676256 0.24558817 0.20598884
-0.19358446 0.36805633 -0.14023435 0.25870857 -0.23370855 0.26872495 0.20490843 -0.25603527
0.4997976 0.18364449 0.11938281 0.15591681 0.56121755 0.20871513 0.31738597 0.5186986
0.6052801 0.39429402 0.13252212 0.037688095 0.75261205 0.3852204 0.37159607 0.26341593
0.6740146 0.1986482 0.2558815 0.21813266 0.60981506 0.26337075 0.5065456 0.37616315
0.46260473 0.097190976 0.44800383 0.28657168 0.35255966 0.3208977 0.15462777 0.5137101
00000000: 39eb 4ebe 405f b5bd 75ae 783e e246 2dbe
00000010: beff 623e 7b3e e9be 82c9 7a3e b16f 883e
00000020: 869c c23e 1dfd b13d 6288 1d3e 4e0d 30be
00000030: 8970 76be 8007 003e f777 aabe 01a9 8abe
00000040: f4ee 8abe daf0 abbe 5ead 17be 3ded bc3e
00000050: 84a7 853e 3906 893e 777b 7b3e bdee 523e
00000060: 013b 46be e171 bc3e 9899 0fbe 7375 843e
00000070: 4b51 6fbe 5196 893e 84d3 513e 0e17 83be
00000080: 79e5 ff3e 4d0d 3c3e fa7e f43d a8a8 1f3e
00000090: f4ab 0f3f 6bb9 553e 6a80 a23e 6ec9 043f
000000a0: a3f3 1a3f e8e0 c93e e1b3 073e d55e 1a3d
000000b0: 2fab 403f 9c3b c53e d741 be3e 74de 863e
000000c0: 398c 2c3f 6f6a 4b3e e602 833e 2b5e 5f3e
000000d0: d71c 1c3f 88d8 863e f9ac 013f 7598 c03e
000000e0: 87da ec3e 100c c73d c260 e53e 86b9 923e
000000f0: b382 b43e b44c a43e be56 1e3e 8182 033f

block2.conv_1.weight f4 [32, 32, 1, 1]
0.30661982 0.22693978 0.16623564 0.085650176 0.043430295 -0.34780782 0.3012114 -0.0407809
-0.10820013 -0.1329661 0.30070874 -0.047150478 0.21118264 0.08377351 0.23017108 0.087233506
-0.19266285 0.136938 -0.06480863 0.31031877 0.052858908 -0.046898562 0.29555655 -0.116500564
-0.35923544 0.22936206 0.26199228 0.12753241 0.0026386776 -0.23720674 -0.18579939 0.2552373
0.067679465 0.2252374 -0.22419307 -0.07315685 0.026051195 -0.28483075 0.27550367 -0.04217964
0.029817555 0.06571732 0.15881266 -0.085770816 -0.004169474 0.055407804 0.13551535 0.1206673
-0.03261961 0.107037395 -0.08496481 -0.0073565952 -0.033554457 -0.10788018 0.11383531 0.048414633
-0.17259346 0.26506376 -0.09177159 0.17328194 0.1188124 -0.1642293 -0.02385472 -0.021094484
-0.04263999 -0.12286396 -0.42444956 0.10769076 -0.02272388 0.2583782 -0.855843 -0.08594527
-0.07863044 0.40026933 -0.69090813 -0.23686218 -0.5761406 -0.5268805 -0.16256043 -0.152501
0.20950393 -0.462235 0.11236947 -0.028716013 -0.41811904 -0.19181788 -0.4289025 -0.251644
0.25592524 -0.44077754 -0.67842555 -0.7951927 -0.10263592 0.5299405 -0.16731174 -0.58645374
0.025629848 -0.23360978 0.116251506 -0.091650486 -0.06851533 -0.061971195 0.27824938 -0.19878674
-0.11966334 -0.11286437 0.057606757 0.07840955 0.109994724 -0.09253787 0.20554067 -0.07154464
0.069146305 0.0102055855 -0.1536184 -0.024001122 0.21730676 0.088679925 0.25373808 -0.24633075
-0.085186906 0.17088139 0.14010547 0.19897778 0.021587554 -0.08029445 -0.058631863 0.046047848
-0.08164603 0.12611362 -0.13663027 0.024035126 0.043524694 0.15498398 -0.055435326 -0.107883036
0.16873552 0.27185914 -0.14421321 -0.114355534 -0.38247868 -0.01959408 -0.14193235 -0.17941974
-0.11572621 -0.3623665 -0.14996693 -0.01981904 -0.18402143 -0.20381004 -0.289225 -0.22879271
0.19409472 -0.30023274 -0.07679789 -0.27137807 0.17207468 0.20114343 0.18731442 -0.29460666
-0.05508883 0.3716567 -0.06913402 -0.31288382 -0.27757272 -0.018908799 0.12018578 0.01788897
-0.09961966 -0.07831331 -0.08154157 0.14790475 -0.023910655 -0.08495763 0.32843822 0.16934568
0.017970057 -0.10855141 -0.16234319 0.22952461 0.012289054 0.11264972 0.06670251 0.15145683
0.049112894 0.39681742 0.19136606 -0.19794463 0.099589996 -0.19038978 -0.2087846 0.2609776
-0.2891703 -0.10950234 0.034459755 -0.08558152 0.23809737 0.2635465 -0.32325092 -0.14897089
0.15906365 0.23353967 -0.0032776152 -0.040708464 -0.09816186 -0.09157151 -0.03845809 -0.07762727
-0.028950945 -0.021466302 0.002949135 -0.032110848 -0.3064624 -0.016054844 -0.10229672 -0.03111282
0.11843706 -0.22594224 0.021746183 -0.3013796 0.2102683 0.291284 0.117615014 -0.13373373
-0.0580375 -0.034106646 -0.3275057 0.091782436 0.18663819 0.33736393 -0.36958393 -0.2470264
0.069326684 0.29011387 -0.20953354 -0.27235413 -0.32123712 -0.051539183 0.1448401 0.049863324
0.05110597 -0.26769865 0.16625711 -0.14014886 -0.13091552 -0.13427828 -0.13910784 0.10171362
0.06912957 -0.09439425 -0.07070895 -0.20854376 -0.22615533 0.14841397 -0.09104624 -0.35188007
00000000: 46fd 9c3e e762 683e ad39 2a3e 5c69 af3d
00000010: f7e3 313d de13 b2be 6138 9a3e df09 27bd
00000020: 0898 ddbd 4428 08be 7ff6 993e dc20 41bd
00000030: 4340 583e 7291 ab3d f8b1 6b3e 7ba7 b23d
00000040: 6949 45be 7a39 0c3e 63ba 84bd 1ae2 9e3e
00000050: 9582 583d b518 40bd 3053 973e d997 eebd
00000060: b5ed b7be e3dd 6a3e da23 863e db97 023e
00000070: aaed 2c3b 53e6 72be 3242 3ebe 77ae 823e
00000080: 889b 8a3d a2a4 663e de92 65be 42d3 95bd
00000090: 5169 d53c 56d5 91be d10e 8d3e 8fc4 2cbd
000000a0: f243 f43c cd96 863d c99f 223e 9ca8 afbd
000000b0: 15a0 88bb 4bf3 623d 89c4 0a3e 6b20 f73d
000000c0: 249c 05bd 6c36 db3d 0802 aebd 980f f1bb
000000d0: 6670 09bd 49f0 dcbd 7d22 e93d 6c4e 463d
000000e0: 57bc 30be 70b6 873e bef2 bbbd d270 313e
000000f0: ea53 f33d ba2b 28be f96a c3bc 57ce acbc
00000100: 45a7 2ebd 1aa0 fbbd 7451 d9be f98c dc3d
00000110: 6e27 babc 264a 843e 8718 5bbf 1304 b0bd
00000120: ff08 a1bd 1af0 cc3e 5bdf 30bf 008c 72be
00000130: f37d 13bf a4e1 06bf 3e76 26be 3929 1cbe
00000140: 3388 563e 11aa ecbe f721 e63d d83d ebbc
00000150: b313 d6be e86b 44be 1c99 dbbe 7bd7 80be
00000160: a208 833e 98ad e1be 4cad 2dbf c091 4bbf
00000170: c832 d2bd 2eaa 073f c553 2bbe d521 16bf
00000180: b0f5 d13c 6737 6fbe 4515 ee3d 40b3 bbbd
00000190: c451 8cbd 82d5 7dbd b476 8e3e c08e 4bbe
000001a0: 0e12 f5bd 6f25 e7bd 10f5 6b3d 3095 a03d
000001b0: ea44 e13d 7f84 bdbd 4179 523e ff85 92bd
000001c0: 949c 8d3d 5435 273c 244e 1dbe 009e c4bc
000001d0: aa85 5e3e d29d b53d f5e9 813e 213e 7cbe
000001e0: 7976 aebd 88fb 2e3e cf77 0f3e d5c0 4b3e
000001f0: 62d8 b03c 6b71 a4bd f727 70bd ab9c 3c3d
00000200: 0936 a7bd ee23 013e cee8 0bbe 50e5 c43c
00000210: f346 323d 1fb4 1e3e 2710 63bd c8f1 dcbd
00000220: 01c9 2c3e 1f31 8b3e a1ac 13be 3c33 eabd
00000230: 3fd4 c3be c483 a0bc b756 11be cfb9 37be
00000240: dd01 edbd 1a88 b9be ee90 19be 8a5b a2bc
00000250: 1d70 3cbe 94b3 50be 4d15 94be a348 6abe
00000260: c4c0 463e 1bb8 99be 3648 9dbd 11f2 8abe
00000270: 5834 303e 8bf8 4d3e 5acf 3f3e afd6 96be
00000280: d3a4 61bd c949 be3e 2396 8dbd 4f32 a0be
00000290: 031e 8ebe a0e6 9abc f623 f63d e48b 923c
000002a0: 6405 ccbd bb62 a0bd 44ff a6bd 5874 173e
000002b0: 47e0 c3bc 44fe adbd 0e29 a83e f468 2d3e
000002c0: f135 933c 3450 debd 4b3d 26be 8008 6b3e
000002d0: 0758 493c e5b4 e63d 539b 883d 8017 1b3e
000002e0: 9a2a 493d a72b cb3e 77f5 433e ffb1 4abe
000002f0: d7f5 cb3d 8af5 42be a1cb 55be db9e 853e
00000300: 210e 94be c342 e0bd ac25 0d3d 5d45 afbd
00000310: cccf 733e 91ef 863e 2581 a5be d38b 18be
00000320: 95e1 223e 0625 6f3e 42cd 56bb ebbd 26bd
00000330: 1609 c9bd d889 bbbd 3b86 1dbd 0cfb 9ebd
00000340: 882a edbc 19da afbc 4646 413b aa86 03bd
00000350: a4e8 9cbe 7385 83bc f180 d1bd 50e0 febc
00000360: 218f f23d 675d 67be 0d25 b23c 6d4e 9abe
00000370: 9350 573e 2d23 953e 24e0 f03d 7ff1 08be
00000380: bbb8 6dbd 69b3 0bbd d4ae a7be 6ef8 bb3d
00000390: 151e 3f3e f7ba ac3e 1b3a bdbe 7df4 7cbe
000003a0: 26fb 8d3d ce89 943e f68f 56be 0072 8bbe
000003b0: 3179 a4be c01a 53bd f750 143e 7c3d 4c3d
000003c0: 7e54 513d cc0f 89be 4e3f 2a3e 2f83 0fbe
000003d0: b80e 06be 3f80 09be 4972 0ebe 3b4f d03d
000003e0: ce93 8d3d c651 c1bd dbcf 90bd 7f8c 55be
000003f0: 4395 67be d5f9 173e 7376 babd a029 b4be

block2.conv_1.bias f4 [32]
-0.2077355 -0.3347504 0.06863827 -0.21474063 0.37753326 -0.49626994 0.11016536 0.39816204
0.25941065 0.3110257 0.33358538 -0.2703527 -0.19324201 0.095590845 -0.3683141 -0.17316666
-0.35376883 -0.42053583 -0.3648676 0.35726914 0.3542059 0.27453485 0.21098584 0.31547868
-0.0917414 0.14301333 -0.18658909 0.13915043 -0.38539207 0.13099368 0.367205 -0.1783872
00000000: 9db8 54be 6864 abbe 3992 8c3d f8e4 5bbe
00000010: 0a4c c13e 1817 febe 609e e13d e5db cb3e
00000020: 79d1 843e c33e 9f3e b4cb aa3e ab6b 8abe
00000030: 3ce1 45be 22c5 c33d aa93 bcbe 9a52 31be
00000040: 3021 b5be 7950 d7be edcf babe fbeb b63e
00000050: 7a5a b53e d58f 8c3e ac0c 583e 6c86 a13e
00000060: eae2 bbbd 1672 123e 3611 3fbe 737d 0e3e
00000070: 1c52 c5be 3523 063e 4b02 bc3e 22ab 36be
