Model Training and Evaluation Results/PEMS04/GRU/GRU_best_27.37.pth (torch, 33671 bytes, 6 tensors)

gru.weight_ih_l0 f4 [96, 1]
00000000: 85a5 0840 ff0d d53c b4c5 e23d 5950 583e
00000010: af89 d03d 1519 b73e bedd 863b 8b95 693e
00000020: 9f3c db3c 4d6c d83c 886b 653e 7ede 023f
00000030: 9b70 aa3d b3ea 463c ae6e 253e 45d2 f03e
00000040: b7cf 2b3e d142 bd3e 52de 8d3e cbc8 883e
00000050: 5ffd 8b3b 99bd b3bd ffd4 11be 17e7 fb3e
00000060: 621b 32bd 87c2 433f 4f7c 2e3f c56c 903e
00000070: f510 bfbe c307 c73d fd4e 4c3d a616 e33d
00000080: 6ec9 7fbd eaaf 9cbc 33cf 43bd b9f6 08bc
00000090: f848 46be 05af cdbb fc8c 6fbc c43a 39be
000000a0: 8c30 b9bc c29f 4bbd 59db 04bd 7bf5 8dbc
000000b0: 87c1 10be 069e d9bd 4c3f 07be a401 3ebe
000000c0: 4982 1cbc 7724 36bc 95a3 35bc a143 3bbc
000000d0: d870 5fbe ee59 45bc 945c a5bd 73c8 8bbe
000000e0: 0f13 46bc 189a 1ebc 7f8f 2fbd 1fac 8cbc
000000f0: cc0b 8cbb 7ad8 d3bc 3f1d 15be a1e2 a1bd
00000100: 06bd 06be 35d4 85bc 938c 7cbc bc7f 05bb
00000110: 77df 78bd 923b b9bb e2f9 f93c 8b66 a1bc
00000120: d7c5 1b3d 36b5 fa3c a6d0 b53c 5f05 793c
00000130: ea69 f23c b2a8 a73c fc74 8cbd 4d1a fa3e
00000140: d6de 64bc c79a 43bc fbab eab9 d603 afbc
00000150: 3d97 e93c e5c0 e5bc 3803 c9bd f85c b33c
00000160: 6bb7 99bc a325 6b3c 17d8 253d 42ab f6bc
00000170: e33f 5d3d 55d3 9d3c eb1d 15bd d44f 76bd
2.1351025 0.02600765 0.11072865 0.211244 0.10182511 0.35761324 0.004115789 0.22810952
0.026762305 0.02641883 0.22404301 0.51120746 0.08322259 0.012140918 0.16155502 0.47035423
0.16778456 0.3696504 0.2770868 0.26715693 0.0042721475 -0.08776397 -0.14241408 0.49199745
-0.043483146 0.764687 0.6815843 0.28207985 -0.37317625 0.09718277 0.049880017 0.11088304
-0.062447958 -0.019126851 -0.047805022 -0.0083596045 -0.19363773 -0.0062769675 -0.014621016 -0.18088824
-0.022606157 -0.049712904 -0.03243575 -0.017328968 -0.14136325 -0.10625844 -0.1320774 -0.18555313
-0.009552547 -0.011117092 -0.011086364 -0.011429698 -0.2182039 -0.012045367 -0.080742985 -0.27301368
-0.012089505 -0.0096802935 -0.042861458 -0.017171917 -0.0042738672 -0.02586006 -0.14561938 -0.07904554
-0.13158044 -0.01633654 -0.015414375 -0.0020370325 -0.060759988 -0.0056528533 0.030514661 -0.019702217
0.03803047 0.030603986 0.022194218 0.0151990345 0.02959152 0.020466182 -0.068582505 0.4884819
-0.013969144 -0.011938757 -0.00044760093 -0.021364134 0.028514499 -0.02804608 -0.09815067 0.021894917
-0.018764218 0.014352235 0.040489282 -0.030110959 0.054016005 0.01926581 -0.036405485 -0.060134724

gru.weight_hh_l0 f4 [96, 32]
00000000: 0eb1 81bd 1e7e 6c3e e787 e33e 70a9 32be
00000010: f02f a43d 4e66 c43e 1fd8 e53d d4eb 233f
00000020: 176b 06be e6dc 803e 9cc5 0d3f dc7c 73bf
00000030: e8dc ca3e 6dad 1c3d 2630 113c 641a 163e
00000040: 00ff c2be bc71 693f a3f8 983d 9fb8 833e
00000050: a5b0 373e d0a3 1a3e 69e2 89be 30b3 f7be
00000060: ae3a 4e3d 29f6 05bf 862b cd3e 32f8 6abe
00000070: f809 d7bf 6448 ce3d b600 d5be a35e 4e3d
00000080: ed19 abbd 19d0 513f 61a0 ca3e 515b 733f
00000090: 0793 c83b 2947 f1be d6fa 303e a5b2 db3e
000000a0: 0b10 eebd 5e43 1c3b 9cd5 8cbe c6cf b13e
000000b0: c231 cbbc eb0a b5be ee5a 8bbe 2e54 6e3e
000000c0: 1633 093f 6e31 41bf 9264 a63e c4c5 3dbf
000000d0: 2c3e d4bd b576 83bd e91f 50be 4024 9ebd
000000e0: 65e8 86bf 5360 b23e 09c6 c3be a145 c93d
000000f0: 51cd c53e ebb0 00bf 8fb4 9e3e c7b3 7fbe
00000100: 770a b2bd 0970 453e 3fa3 583e ed89 1e3f
00000110: 400a 473d 638e 3cbf 9ba7 00be 27a9 3fbc
00000120: 3e40 1b3e f9d6 1d3e c760 acbb 45f6 423f
00000130: 84d2 673e 952c 0bbe 1a17 f23e d772 33bb
00000140: 0724 113e 70cd 64bf e3b4 0c3e 0720 68bf
00000150: 9b86 9fbc 2500 88bd b076 3b3c d964 62be
00000160: 6b87 32bf 5c3b 0b3f 2de7 743e bdfa 42be
00000170: 8bbb d93e 91d2 4dbe c66f 58bd 6498 083e
00000180: 12cd 793d a7fa 763e 4c03 263d 4adc 9f3d
00000190: f3b8 b83e 42b6 b63d e6a9 de3e 3a7d ef3d
000001a0: 5dff e53d 83c4 f7bc 667a 913e 1186 c2be
000001b0: 7d6a cd3e c136 2fbe a4a8 653e 5d16 3dbe
000001c0: 938c 083d cc0f 073f 74b7 c73d 1b69 18bc
000001d0: 793a dfbd 839a b23e 050f bc3e 4aa1 84be
000001e0: 77a8 b63c a97b b5be 2c98 093e 5e20 a0bd
000001f0: e283 cdbe 1833 9f3e bd51 94be a8d1 fb3d
00000200: d4d3 0fbe 2519 0e3e 33da 913e dd5e 93be
00000210: 07d1 09bf 8b10 ba3e 56f4 13bf 6288 80be
00000220: ae61 94bd a4b1 cebd 0a5c e2be 861c db3e
00000230: 8819 34bf 8af2 bd3c 0f21 e4be 4b82 d33e
00000240: 512d ca3a d61f cfbb ace1 963d e0b2 1cbf
00000250: c492 bebe 5e59 c3be f10d 38bf 9934 8abd
00000260: 0469 5e3d 721c 833e f4e4 7a3c dcff 033f
00000270: fa86 173f f27c b0be 6e1d 2c3e 0ab1 efbe
00000280: c444 413e f304 e4be 605f 29be e0b1 813d
00000290: 7121 dc3d 2632 dabd 71d8 86be bbbe 033d
000002a0: 2412 3d3e fa10 863e 6c35 cfbe db17 643e
000002b0: 6943 b33e 0735 0b3d b628 5abc 80e9 fc3d
000002c0: ccb8 7dbe c79d 783d 91d2 37be 2614 e7be
000002d0: b6f6 31be 9b37 bf3d 3188 0dbe d8f5 cfbe
000002e0: b4c5 4dbe 8901 0cbd 94f6 f23e 77c9 e8bd
000002f0: fef0 af3f d2a5 323e c41d d3be 0d44 0abc
00000300: c2f7 afbe f79d 4d3f e27f 883f 5c92 8b3f
00000310: 6549 89be 761e 0dbf 339e 48be 868d 26be
00000320: 2a6b 293d 0f63 8c3d 7b8d 89bf a60b 0dbe
00000330: 2c90 c6bd a555 f9be 788f 95be 8af0 a93e
00000340: a976 0640 02cf babc 2032 143f d559 883e
00000350: 66d2 20bf 5795 fdbe 5cc5 b1be 852c 513e
00000360: 85be 6e3e 6d68 d53e 5f9b 663e 625b 333f
00000370: b25d c73e 2b81 e6be 9a56 6fbb 504b a9be
00000380: 0086 30bf 0271 483e 8f8f 143f 022a 49be
00000390: 0e60 703e 14d7 5d3f ae4d 8a3e 9815 c03f
000003a0: d002 01bf 9d7d c2bf 3f9e 363f a6fb a5be
000003b0: 9b74 ee3e 17bf 53bf 1be1 983e 8e45 91bd
000003c0: cead 863f 2d3c 313e 41ed 343d 9fa7 4f3f
000003d0: fe8c af3c bc1e 4ebe 8b70 5d3d 5667 cfbd
000003e0: b57b 9d3e c2f1 8f3e 4c11 f1bf d053 f8bd
000003f0: 42f3 78bf 8732 8dbf 2c9e 4d3e fd4b a33e
-0.063325986 0.23094985 0.44439623 -0.17447448 0.08016956 0.38359302 0.112228625 0.6403172
-0.13126789 0.25168532 0.5537965 -0.95112395 0.39621663 0.03825133 0.008861577 0.14658505
-0.38085175 0.9118917 0.07469299 0.25726792 0.17938478 0.15101552 -0.2693055 -0.48378897
0.05034893 -0.52328736 0.40072268 -0.22946241 -1.6799917 0.10072401 -0.41602105 0.05038322
-0.08354554 0.81958157 0.39575484 0.9506121 0.0061210427 -0.47124603 0.17283186 0.42909732
-0.11624154 0.0023843865 -0.2750672 0.3472883 -0.024804 -0.35359892 -0.2721781 0.232743
0.53593576 -0.7546605 0.32498604 -0.7412989 -0.10363421 -0.06419126 -0.20324673 -0.07721758
-1.0539671 0.34839115 -0.38237026 0.09827734 0.38633206 -0.50269955 0.3099713 -0.24970923
-0.08693402 0.1928102 0.21156023 0.6192921 0.04859376 -0.73654765 -0.12563936 -0.011698044
0.15161225 0.15414037 -0.00526056 0.7615703 0.22638899 -0.13591225 0.4728325 -0.0027381682
0.141739 -0.8937597 0.13740878 -0.9067387 -0.019473365 -0.066406526 0.0114418715 -0.22108783
-0.6973788 0.5438745 0.23916312 -0.19040962 0.42525896 -0.20099856 -0.05284097 0.13339382
0.060986586 0.24119054 0.040530488 0.07805689 0.36078605 0.08921482 0.43488997 0.11693807
0.11230347 -0.030245071 0.28413695 -0.3799291 0.40120307 -0.1711073 0.22427613 -0.18465562
0.033337187 0.5275848 0.09751788 -0.009302403 -0.10899825 0.34883508 0.3673021 -0.25904304
0.022297127 -0.35445908 0.13436955 -0.078186736 -0.4013968 0.3109367 -0.2896861 0.12295848
-0.1404565 0.1387678 0.28486785 -0.28783312 -0.53834575 0.36340746 -0.577947 -0.25104052
-0.072451934 -0.10092476 -0.44210845 0.427952 -0.7035146 0.02318694 -0.44556472 0.41310343
0.0015424882 -0.006320934 0.07367262 -0.6121044 -0.37221348 -0.3815412 -0.7189627 -0.067483135
0.05429937 0.2560764 0.015313376 0.51562285 0.5919033 -0.34470326 0.16808102 -0.46814758
0.18873888 -0.44535026 -0.16540289 0.06332755 0.10748566 -0.10654096 -0.26337007 0.032164317
0.18463951 0.26184827 -0.40470445 0.22274725 0.35012367 0.033986118 -0.01331537 0.12349224
-0.24777526 0.060697343 -0.17951418 -0.4513256 -0.17379269 0.09336778 -0.13821484 -0.4061725
-0.20094949 -0.03418115 0.4745375 -0.11366551 1.374542 0.17446068 -0.41233647 -0.008439076
-0.34368712 0.8031916 1.0664027 1.090404 -0.26813808 -0.55124605 -0.19591598 -0.16264924
0.041361965 0.068548314 -1.0746301 -0.13773975 -0.09695467 -0.48698154 -0.2921102 0.3319133
2.1009924 -0.022803787 0.57888985 0.26631036 -0.6282104 -0.49528 -0.34720886 0.20427139
0.23314865 0.41681233 0.22520207 0.70061314 0.3893867 -0.45020422 -0.0036520124 -0.3306527
-0.6895447 0.19574359 0.58031553 -0.19644931 0.23474142 0.8665631 0.2701239 1.500659
-0.50394917 -1.5194584 0.71335214 -0.32418555 0.46573338 -0.82713455 0.29859242 -0.07093345
1.0521791 0.17308111 0.044171575 0.81115144 0.021429535 -0.20128912 0.054062407 -0.10127132
0.30758443 0.28114134 -1.8833404 -0.12125361 -0.9724618 -1.1031045 0.20079869 0.31893912

gru.bias_ih_l0 f4 [96]
00000000: 708f 02be 351c 5a3d 6400 1fbe dd42 51bd
00000010: b242 573f 91e8 e93d 7694 4a3e 8069 2f3f
00000020: fc05 6cbe c965 1c3e 7635 e6bb e9a1 4a3f
00000030: 8e2c cebe b0a3 383d e3b3 053f 66fd ca3e
00000040: 95d9 1d3e cb8c 5b3f 9ffd 9ebe ed7f 313e
00000050: aaf2 163e 642c d13e cc36 4b3f 10d4 c03e
00000060: 759d 183f cb39 f1be bbc8 ab3e 03b4 3e3d
00000070: fba2 6bbe 0602 443e 26cd 393d c9ad 623f
00000080: 2e7e 1fbe 5bbd 1fbe 219f 283e fb27 773e
00000090: e5f0 24bf 5296 243e 629a a43e 2a31 4cbe
000000a0: b896 77be 4351 063e ef37 4b3e 91c2 2f3f
000000b0: d16d 0c3f c4ee e9be f7b2 43bf 3d18 99be
000000c0: 1cc1 29be 6d83 303f a4f1 f83e 7f95 a33f
000000d0: aa7a 973e 25de 233f e45b 1fbf 76fb 64bf
000000e0: 2e00 973f 90d5 a83e dc34 88bd eb9c 11bd
000000f0: 645e 043f 1693 483e d1eb 02be 4fda 0f3e
00000100: 9f6f 9a3d 11bd 15bd ff86 403d d7b9 34bf
00000110: 3c4a 2fbf 0648 1c3f 254f 66be a951 c4be
00000120: 0f60 debd 93e5 da3e 7256 65be 8455 f0be
00000130: 569b a8be c053 b73c 0c6a 28bf d994 583f
00000140: 52a2 80be b785 b93e 8f93 81be 8794 ac3d
00000150: 71ce dbbd cf09 18bd 01dd e7be f515 873e
00000160: 1283 123f 841f 2fbf 2509 0d3e 9264 3b3e
00000170: b420 bcbc d54b 13be 30cc 1dbe ddf6 d8be
-0.1275003 0.053249557 -0.15527493 -0.051089156 0.84086144 0.11421312 0.19783196 0.68520355
-0.23049158 0.15273203 -0.007025416 0.79153305 -0.40268368 0.04507798 0.5222761 0.39646453
0.15415032 0.8576171 -0.31052873 0.17333956 0.14741006 0.4085418 0.7938049 0.3766179
0.5961526 -0.47114405 0.33551583 0.04655839 -0.23011391 0.19141397 0.04536166 0.88546425
-0.15575477 -0.15599577 0.16466953 0.24136345 -0.64430076 0.16072968 0.32149035 -0.1994063
-0.24178588 0.13116936 0.19845556 0.6865626 0.54855067 -0.45689976 -0.76444954 -0.29901305
-0.16577572 0.6895054 0.48621857 1.2779998 0.29585773 0.6401084 -0.6224959 -0.894462
1.179693 0.32975435 -0.06650707 -0.03555004 0.5170653 0.19587359 -0.1278527 0.14048122
0.07540821 -0.03655726 0.047003742 -0.7059607 -0.6847265 0.610474 -0.22491129 -0.38343552
-0.108581655 0.42753276 -0.22396258 -0.46940243 -0.32931012 0.022378802 -0.65786815 0.84602123
-0.2512384 0.3623483 -0.2530789 0.08426767 -0.10732735 -0.03711873 -0.452858 0.2638394
0.5723125 -0.68407464 0.1377302 0.18300083 -0.022964813 -0.14384396 -0.15409923 -0.42375842

gru.bias_hh_l0 f4 [96]
00000000: 5c00 393e 45a3 3bbd c934 91be 7899 e8bd
00000010: 376a 7c3f 765d 6fbd 1fda 6d3e 0090 083f
00000020: 405d 01be d3c3 1ebe 2aab efbd 6cf2 3f3f
00000030: b147 f3bd 9994 e5bc 6220 013f 63f3 263f
00000040: 1856 0d3e 650a 813f d7e3 6ebe eaf6 3c3d
00000050: 7500 ce3e 8fb9 0c3f fac8 6f3f 5ccc 643e
00000060: 8ab8 043f e231 9dbe 1285 9e3e b79a 04bc
00000070: 0538 41be e387 053d a736 5abe 71e4 463f
00000080: 3605 93bd 0a36 cbbe 7dd4 c6bd 7521 b73e
00000090: ab37 20bf 1e55 8e3e 073f ce3d 5891 52be
000000a0: d02a 94bd 0ccc 05be 2709 9c3e cedd 173f
000000b0: 21a8 283f e9e8 90be e017 66bf 0850 8ebe
000000c0: 859d 923d 30c0 2b3f 7388 b93e 0fa7 b03f
000000d0: dd03 803e 8bc3 1e3f 83f3 1abf b9dd 66bf
000000e0: 606b 8b3f 3eeb 903e d194 32be d795 77bd
000000f0: e55e 0d3f b052 693e 598f 16be 6597 bf3d
00000100: a51f 9cbd 7e04 d53d b659 68bc b75a 33bf
00000110: e100 82bf f8b3 163f cb02 a7be f056 a9be
00000120: 40be cebe 3f37 9d3e 2f7f b9be 0798 14bf
00000130: c48b 0abf c165 2ebe 1160 debe 73c4 203f
00000140: 93cc debd d7f8 c13e 6ede 62be 7cb7 0a3e
00000150: 7ef8 36bd 13d4 d6be 9eb7 83bf 1b8b ae3e
00000160: bbef 383f ca03 59bf 3a0c eb3d d1f0 d63e
00000170: 9497 6e3e fe3a 2d3d a446 2cbe 7cc9 e3be
0.18066543 -0.045810003 -0.28360584 -0.11357397 0.9859957 -0.05843874 0.23227738 0.53344727
-0.12633228 -0.15504389 -0.11702569 0.7497928 -0.118789084 -0.028024958 0.5044004 0.6521513
0.13802373 1.0081297 -0.23329102 0.046133913 0.40234724 0.5497064 0.9366604 0.22343582
0.51844084 -0.3070212 0.309609 -0.0080935275 -0.18869026 0.032600295 -0.2130991 0.77692324
-0.07178728 -0.39689666 -0.09708498 0.35767713 -0.6258494 0.27799314 0.10070615 -0.20563257
-0.07234728 -0.13066119 0.30475733 0.5932282 0.65881544 -0.28302696 -0.8988018 -0.27795434
0.07158951 0.6709013 0.36236915 1.3800982 0.25002947 0.62017125 -0.6052782 -0.9018207
1.0892143 0.28304476 -0.17439581 -0.060445633 0.5522292 0.22785449 -0.1470312 0.09355048
-0.07623223 0.104012474 -0.014181545 -0.70060295 -1.0156518 0.5886836 -0.32619318 -0.3307414
-0.40379524 0.30706212 -0.36229846 -0.58044475 -0.54119515 -0.17031004 -0.43432668 0.6279976
-0.10878863 0.37885162 -0.22155163 0.13546556 -0.044670574 -0.41958675 -1.029041 0.34090504
0.722408 -0.84771407 0.114769414 0.41980603 0.2330001 0.042292587 -0.16823822 -0.44489658

conv1.weight f4 [12, 32, 1, 12]
00000000: 1c0e dcbf b673 fabf 405e e9bf f23a dbbf
00000010: 0208 dbbf 3e80 e6bf 343a e5bf b324 debf
00000020: f937 e3bf e19f dbbf e5d8 e5bf dc15 e5bf
00000030: 3033 d0bf 6ad6 c6bf c305 76bf 269d c9be
00000040: 6fc0 983f 164f 123e 921f 80bf 2b0c 6bbf
00000050: bdd6 dfbf 5b24 10c0 b4a3 1cc0 4592 4ec0
00000060: 2ad4 ccbf 3fa1 b9bf ad8c 8bbe 4852 68bf
00000070: 837b 96bf 6a43 b1bf 91de c2bf dc9d b6bf
00000080: c73e b6bf 963e bfbf 7e13 fbbf 7946 50c0
00000090: ffbe 4c3f 6cd2 6340 bbf0 4a40 c9ce 2c40
000000a0: 5178 1b40 f081 1c40 629e 1a40 364d 2540
000000b0: f0b0 3140 af8d 3540 90c0 3440 5a8a 3340
000000c0: 5d48 e5bf 9f2e e7bf 2b58 e9bf fece e7bf
000000d0: 817f e5bf 9fc4 e6bf 919a ebbf a053 e0bf
000000e0: ac47 e2bf 5cf5 dcbf 27bb dabf 01b8 dbbf
000000f0: a927 6dc0 3dd9 46c0 3b06 27c0 fbd4 14c0
00000100: f558 09c0 4514 08c0 a457 08c0 fc71 11c0
00000110: 41d9 16c0 c762 13c0 be2c 02c0 da48 dbbf
00000120: b7cc e73f c7d1 e93f 93cd e43f 4ae4 2e3f
00000130: 8afc b23f 499c d93f 30ef ee3f 4100 dc3f
00000140: 17bf 0b40 a3f5 5c40 49da a440 5e78 c540
00000150: 78cc b1bf 7153 afbf 85a0 b8bf c023 b1bf
00000160: 9edb afbf 3b1c 66bf 90d4 85bd 557b c4be
00000170: 2ac7 51be 95ca ddbe acc2 83bf 6c46 52bf
00000180: 44ae d63f ad4f d53f dc96 cf3f 23fd b53f
00000190: accf 663f 055a d43f 58ca f93f f78d e43f
000001a0: ce46 0840 6e91 1940 3656 3040 a314 3c40
000001b0: e647 b63f 8265 ad3f 00f5 aa3f 34a0 b03f
000001c0: 9c0f b23f 0220 7e3f 45b0 9c3f 2be2 b43f
000001d0: 3cc5 b03f 9631 ab3f b6fa ca3f 13b1 983f
000001e0: 87f5 f03f a9de 2340 661b ef3f 1141 b73f
000001f0: 6c26 bb3f 36ec cd3f 977e d83f 96cb c53f
00000200: 9555 ef3f 52b6 1a40 6b38 6b40 57da 9d40
00000210: d18e 0940 c0dc 0240 868a fb3f d3da ff3f
00000220: ce7b f83f b0cd f93f dc2d fd3f 3ae6 fe3f
00000230: 5667 fd3f c672 f03f 24a1 f03f d154 f63f
00000240: 4760 b73f 7451 0940 1a67 ea3f b7c3 a83f
00000250: 6c66 9f3f 63bc b43f 0217 da3f a39d f33f
00000260: 9e12 0f40 11e8 1a40 1d7c 4640 67d8 8340
00000270: 0313 e83f e64d eb3f 3d19 dc3f 1330 4c3f
00000280: 7f2d 80bf 87e9 723e cb02 883f e756 8d3f
00000290: f5a4 a53f 6f41 d23f 7190 1c40 72c7 7140
000002a0: a7d2 b7bf dc9d b1bf 4549 b8bf 9c05 bdbf
000002b0: f3f4 b3bf c3ac babf f843 b5bf 86ae b1bf
000002c0: 672f bdbf 890f c1bf 577e bbbf 4399 c4bf
000002d0: 7e66 de3f 1181 e43f 45c8 de3f 18d3 dd3f
000002e0: 629c d53f 172a d73f 93b3 d43f 4c70 dd3f
000002f0: fc54 d33f 4f6a db3f 0e31 db3f 8e0b d03f
00000300: 643c dabf 1385 d8bf 23e1 bcbf 3267 cdbe
00000310: f6d1 b7bc 5f1f 65bf 9b95 bbbf fcf5 d3bf
00000320: 337e d4bf be0c ccbf a0db d3bf 6e49 09c0
00000330: 6216 18c0 a159 12c0 c907 10c0 aa8e 14c0
00000340: b08f 13c0 3f25 12c0 0043 13c0 51b4 0fc0
00000350: 2cd9 0dc0 6573 0ec0 3720 0dc0 e367 0fc0
00000360: ec0f 0540 c811 4e40 e1c3 4540 e33f 3b40
00000370: e4b9 2f40 db01 2840 a01a 1340 4fd6 0f40
00000380: d85a 0240 c0db 0040 a7a3 0640 e5b6 0140
00000390: 9357 26c0 f04f 26c0 b1c4 25c0 2d03 21c0
000003a0: b4de 23c0 1c44 21c0 1966 20c0 1d3c 24c0
000003b0: 1119 2dc0 2c78 34c0 68e4 3dc0 42d6 46c0
000003c0: 1fb7 d83f a42f e13f fe0d b13f 4233 be3e
000003d0: b999 b43f 77c2 be3f 67b2 d83f 249c e03f
000003e0: afd5 d63f 8272 ea3f d401 0f40 2ddd 6d40
000003f0: 11d9 d9bf c431 debf 36c2 e6bf 11e2 dfbf
-1.7191806 -1.9566562 -1.8231888 -1.7127364 -1.7111819 -1.8007886 -1.7908387 -1.735495
-1.7751456 -1.7158166 -1.7956816 -1.7897296 -1.6265621 -1.5534184 -0.9610254 -0.39377707
1.1933726 0.14287981 -1.0009634 -0.9181544 -1.7487408 -2.252219 -2.4474916 -3.2276776
-1.6002247 -1.4502333 -0.27255765 -0.9075055 -1.1756443 -1.3848698 -1.5224172 -1.4266925
-1.4237908 -1.4940975 -1.9615324 -3.2543013 0.79978937 3.5597181 3.170943 2.7001212
2.4292185 2.4454308 2.415917 2.5828376 2.7764244 2.8367727 2.824253 2.8053193
-1.7912709 -1.8061103 -1.8230032 -1.8110044 -1.7929536 -1.8028754 -1.8406545 -1.752552
-1.7678123 -1.7262378 -1.7088364 -1.7165529 -3.7055457 -3.1070092 -2.6097553 -2.3254993
-2.1460545 -2.1262372 -2.1303492 -2.272582 -2.3570101 -2.302904 -2.0339808 -1.7131608
1.8109349 1.8267144 1.7875236 0.6831709 1.3983319 1.700082 1.8666744 1.7187577
2.1835382 3.4524925 5.151646 6.1709433 -1.3890524 -1.3697339 -1.4423987 -1.3839035
-1.3738897 -0.89886826 -0.06534684 -0.38375345 -0.20486131 -0.4331862 -1.0293784 -0.82138705
1.6771932 1.666494 1.6217914 1.4217876 0.9016063 1.6589972 1.9514875 1.7855824
2.1293216 2.3995013 2.755262 2.9387596 1.4240692 1.3546603 1.3356018 1.379889
1.3911014 0.9926759 1.2241293 1.4131521 1.3810191 1.3374507 1.5857761 1.1929039
1.8824929 2.560465 1.8680236 1.4316732 1.46211 1.6087711 1.6913632 1.5452754
1.8697993 2.417378 3.6753185 4.932903 2.1493418 2.0447235 1.9651649 1.9988655
1.9412782 1.9515896 1.977962 1.991401 1.9797161 1.8785026 1.8799176 1.9244634
1.4326257 2.1455965 1.8312714 1.3184727 1.2453132 1.4119991 1.7038271 1.9032482
2.2355113 2.4204142 3.1013253 4.1201663 1.8130802 1.8383148 1.7195202 0.79760855
-1.0013884 0.23721896 1.0625852 1.1042145 1.2940966 1.6426219 2.446316 3.7777982
-1.4361161 -1.38763 -1.439736 -1.4767337 -1.4059128 -1.4583973 -1.4161367 -1.3881385
-1.4780091 -1.5082866 -1.4647931 -1.5359272 1.7375028 1.7851888 1.7404867 1.7330046
1.6688349 1.680972 1.6617302 1.7299895 1.651031 1.7141818 1.7124345 1.6253526
-1.704968 -1.6915611 -1.4756206 -0.40117794 -0.022438984 -0.89500993 -1.4655031 -1.6559443
-1.6601013 -1.5941389 -1.6551399 -2.1451068 -2.3763661 -2.2867205 -2.2504752 -2.3212075
-2.305645 -2.2835233 -2.3009644 -2.2453806 -2.2163801 -2.2257931 -2.2050912 -2.2407157
2.0790968 3.2198353 3.0900805 2.9257743 2.7457209 2.6251132 2.2985 2.2474554
2.0367947 2.0134125 2.1037385 2.026788 -2.599095 -2.598629 -2.59013 -2.5158188
-2.5604677 -2.519782 -2.5062315 -2.566169 -2.704655 -2.8198347 -2.9670658 -3.1068273
1.6930884 1.7592664 1.3832395 0.37148482 1.4109412 1.4903096 1.6929444 1.754765
1.6783961 1.8316195 2.2344866 3.7166245 -1.7019368 -1.7358937 -1.8028018 -1.7490865

conv1.bias f4 [12]
00000000: b5a3 b63f 6c82 ba3f bdc9 b93f 300b c73f
00000010: 7caf c83f 9ecb c33f 3db0 ce3f e4e7 c93f
00000020: a091 cb3f 4edc d93f fd4b da3f 128d d83f
1.426871 1.4571052 1.4514691 1.5550289 1.5678554 1.5296514 1.6147534 1.5773892
1.5903816 1.7020357 1.705444 1.6918051
