Model Training and Evaluation Results/PEMS04/GCRN/GRCN_best_25.79.pth (torch, 171959 bytes, 6 tensors)

block1.gcn_conv.conv1.weight f4 [128, 99, 1]
0.30857494 0.19395128 0.33827353 -0.35904738 -0.33734164 0.2740351 0.016559642 0.011516445
-0.20073152 0.17583184 0.15434955 -0.20987095 0.008491464 -0.047043867 -0.31799585 -0.10398361
-0.015520105 0.35830522 0.016091898 -0.08282957 -0.1437601 0.26427004 0.18560903 -0.030645238
0.36945945 0.042465404 -0.09429005 0.075074464 -0.12222038 -0.057605393 -0.22211932 -0.19404283
-0.14504495 -0.12344898 -0.19258873 -0.15211245 -0.056406565 -0.08382746 0.24209133 -0.41365296
-0.22243217 -0.3161556 0.023285571 -0.07594543 -0.28477198 0.17564218 -0.024384568 0.12258805
0.14671272 0.11318072 -0.08691954 0.27306643 0.319578 0.018674556 0.016995173 -0.14306137
-0.18591322 0.077032246 0.12688892 0.16339386 0.0802659 0.13243087 -0.117638744 -0.21251023
-0.28042176 0.13476793 -0.059211124 0.040310103 -0.04091951 -0.17185983 -0.051239695 -0.091014385
0.18071498 0.1118472 -0.026734646 -0.8065694 -0.5348335 0.30221522 0.18255861 0.1676994
-0.35253248 0.09589693 0.17535125 0.22247429 0.34822023 0.22742389 0.11931289 0.5890073
0.23058204 -0.19289789 0.005096077 -0.114910774 -0.019456264 -0.24123484 -0.34477258 0.015560287
-0.14666127 -0.122204654 -0.21733898 0.1123192 0.0056546866 -0.22646385 -0.2815185 -0.014590682
0.020888489 0.037371486 0.19867261 -0.33670977 -0.2654203 -0.51022625 -0.13285339 0.5984584
0.5547246 -0.44807193 -0.05707601 0.27942818 0.95529824 0.16080947 0.008502581 0.10957931
0.28319958 0.19868754 -0.004939928 -0.6807459 -0.44546068 -0.42969227 -0.27977657 -0.17820112
-0.054472696 0.19037622 0.06344133 0.67410445 0.11875631 0.07871033 -0.045063592 0.25513795
0.27742812 0.3716372 -0.066611886 -0.09527513 0.26342914 -0.07186689 -0.06081654 0.40686712
-0.054442566 -0.046559736 0.49868974 0.09289493 -0.00053345325 -0.37645367 -0.065231636 -0.19870603
-0.99839634 -0.07918852 0.19906045 0.10729045 -0.39258733 -0.25321877 0.050093364 -0.4902188
-0.55748135 -0.41966996 0.18952191 0.38701707 0.4341094 0.07668971 0.21604124 0.18931572
-0.12463449 -0.0712727 0.08149189 -0.052032426 -0.16189629 0.120814346 -0.124870986 -0.068440415
0.29140717 0.2306251 0.12495959 0.0871361 -0.09806105 -0.2523561 0.16841143 -0.08183385
0.077982776 0.26324102 0.16622639 0.05517291 -0.22373787 0.066957764 0.15982279 -0.10756361
-0.10355342 -0.13644655 -0.25003177 -0.09085078 0.2562785 0.10189937 0.4606376 0.19626477
0.37538126 -0.24112639 -0.059658352 -0.0007395483 -0.04337808 -0.153085 -0.1733073 0.19512765
0.5309345 0.29740217 0.18540117 0.25388202 0.2258678 0.074776866 -0.20399044 -0.5273195
0.09866242 -0.07162286 -0.08199328 -0.039404616 -0.050392937 0.03169529 -0.4005155 -0.42244303
-0.026964312 0.14880605 0.13606939 0.32023463 0.2310192 0.37148 0.34616932 -0.42558217
-0.11760945 -0.06266112 -0.40449739 -0.14900528 0.10436317 0.088787235 0.07808142 0.09293452
0.39404494 0.19195029 0.005968562 -0.02135145 0.2637788 0.2087857 -0.1001794 -0.18968248
-0.22285193 0.40140492 0.4774127 0.17923793 0.02425121 0.2808022 0.034926828 -0.050197087
00000000: 89fd 9d3e 2a9b 463e 3032 ad3e 0fd5 b7be
00000010: 0bb8 acbe 544e 8c3e 16a8 873c 79af 3c3c
00000020: 908c 4dbe 430d 343e cf0d 1e3e 69e8 56be
00000030: c81f 0b3c 12b1 40bd 5ad0 a2be 5cf5 d4bd
00000040: 0a48 7ebc c873 b73e 28d3 833c 8da2 a9bd
00000050: d935 13be 674e 873e 4b10 3e3e b90b fbbc
00000060: ca29 bd3e 34f0 2d3d 241b c1bd a4c0 993d
00000070: ae4e fabd a2f3 6bbd 3f73 63be 2ab3 46be
00000080: aa86 14be d2d2 fcbd fb35 45be 5ec3 1bbe
00000090: 920a 67bd bbad abbd cae6 773e 52ca d3be
000000a0: 42c5 63be 26df a1be 62c1 be3c 4789 9bbd
000000b0: a2cd 91be 8bdb 333e 25c2 c7bc 720f fb3d
000000c0: dc3b 163e 4bcb e73d df02 b2bd 5dcf 8b3e
000000d0: ba9f a33e 62fb 983c 7639 8b3c ae7e 12be
000000e0: 0960 3ebe 15c3 9d3d 2bef 013e b850 273e
000000f0: 7362 a43d f59b 073e 95ec f0bd 489c 59be
00000100: 7193 8fbe 9b00 0a3e 5d87 72bd 351c 253d
00000110: 379b 27bd 06fc 2fbe b7e0 51bd c065 babd
00000120: 590d 393e 2510 e53d 9e02 dbbc 557b 4ebf
00000130: d9ea 08bf f4bb 9a3e a5f0 3a3e 64b9 2b3e
00000140: 237f b4be 9c65 c43d 478f 333e 4dd0 633e
00000150: ec49 b23e cfe1 683e 515a f43d 2fc9 163f
00000160: b31d 6c3e 0687 45be fefc a63b 5756 ebbd
00000170: be62 9fbc 4406 77be 0886 b0be 93f0 7e3c
00000180: 5f2e 16be 6f46 fabd 1c8e 5ebe 9c07 e63d
00000190: f34a b93b 24e6 67be 3123 90be c20d 6fbc
000001a0: 561e ab3c d812 193d d570 4b3e 3965 acbe
000001b0: 2be5 87be 309e 02bf b80a 08be 9234 193f
000001c0: 6e02 0e3f af69 e5be 89c8 69bd 3611 8f3e
000001d0: 6d8e 743f 3dab 243e 694e 0b3c 1e6b e03d
000001e0: 89ff 903e bf74 4b3e 1fdf a1bb 5d45 2ebf
000001f0: 6c13 e4be a000 dcbe e03e 8fbe 5b7a 36be
00000200: c31e 5fbd fcf1 423e 87ed 813d 1c92 2c3f
00000210: 8236 f33d e232 a13d 9a94 38bd 71a1 823e
00000220: 0f0b 8e3e 3b47 be3e d06b 88bd 9b1f c3bd
00000230: 2fe0 863e f32e 93bd c41a 79bd e350 d03e
00000240: 2bff 5ebd 6cb5 3ebd 4354 ff3e b23f be3d
00000250: 71d7 0bba 89be c0be 2a98 85bd 9879 4bbe
00000260: e796 7fbf 972d a2bd 81d6 4b3e 18bb db3d
00000270: 3501 c9be e4a5 81be b32e 4d3d f5fd fabe
00000280: 19b7 0ebf fbde d6be 0812 423e 1a27 c63e
00000290: 9643 de3e 7f0f 9d3d ea39 5d3e fbdb 413e
000002a0: 5e40 ffbd 6cf7 91bd 38e5 a63d f41f 55bd
000002b0: 24c8 25be 836d f73d 5cbc ffbd 7d2a 8cbd
000002c0: 5233 953e fc28 6c3e d0ea ff3d 6974 b23d
000002d0: 3bd4 c8bd d234 81be 0c74 2c3e 8198 a7bd
000002e0: 6fb5 9f3d 87c7 863e 4037 2a3e fdfc 613d
000002f0: 8a1b 65be 2721 893d 96a8 233e 4f4a dcbd
00000300: d113 d4bd a5b8 0bbe 2a04 80be f90f babd
00000310: f036 833e 9eb0 d03d b1d8 eb3e a2f9 483e
00000320: f931 c03e d6e9 76be 515c 74bd 3fde 41ba
00000330: 37ad 31bd 50c2 1cbe 7877 31be 8bcf 473e
00000340: 53eb 073f 1945 983e ced9 3d3e d3fc 813e
00000350: e349 673e 9d24 993d dfe2 50be 69fe 06bf
00000360: 860f ca3d 02af 92bd 18ec a7bd bc66 21bd
00000370: d368 4ebd ecd2 013d 5e10 cdbe 744a d8be
00000380: 43e4 dcbc 9d60 183e c655 0b3e cbf5 a33e
00000390: 4c90 6c3e a032 be3e 1b3d b13e e8e5 d9be
000003a0: 39dd f0bd 7954 80bd 481a cfbe d794 18be
000003b0: 5cbc d53d 15d6 b53d 27e9 9f3d 7454 be3d
000003c0: 42c0 c93e 9e8e 443e ed93 c33b 3ce9 aebc
000003d0: 040e 873e ebcb 553e db2a cdbd 203c 42be
000003e0: 4c33 64be f284 cd3e 706f f43e 268a 373e
000003f0: 79aa c63c 4ec5 8f3e 6f0f 0f3d 769b 4dbd

block1.gcn_conv.conv1.bias f4 [128]
-0.06429875 0.15030192 -0.48081782 0.23422562 0.11402835 0.17249463 0.16103806 -0.15033585
-0.09830934 0.66770935 0.18446784 0.19899908 0.85331774 0.5245562 0.117504455 0.4496411
0.25622004 0.08647077 -0.18392056 0.38588247 0.65408397 0.6767012 -0.099260904 0.24845788
-0.38517278 0.025792977 -0.08121764 1.090416 -0.103444934 0.23192592 0.405583 0.11585846
-0.22898029 0.22738035 0.25890043 -0.40294552 0.23757301 0.17400451 0.16737533 -0.16739158
-0.17520683 0.20674081 -0.12144851 -0.34384906 0.5388766 -0.4132268 0.2884763 -0.12808102
0.13293381 -0.24313763 0.2608051 0.5698633 -0.67528373 -0.391057 -0.14500968 0.5832058
-0.29844144 0.22556414 0.33271745 -0.46277335 0.19698547 0.22668424 -0.314251 -0.16096537
0.18001431 0.2792681 -0.12947947 0.020310605 -0.14044164 0.044678967 0.02181591 -0.16531372
-0.06950865 0.2447758 -0.14208867 0.1221405 0.24336755 -0.1264202 0.048768766 -0.14484043
0.13945556 0.15473266 -0.23331092 -0.043067418 0.08611933 0.037549134 0.073015854 -0.13857834
0.37778065 0.5146931 0.06031664 0.5902918 0.42755657 0.2859747 0.14430358 0.06787997
-0.039548196 0.010456048 -0.17402142 0.30034617 0.26999456 0.32622403 -0.07950634 -0.11390819
0.13957612 0.30167347 0.1206819 0.33829588 0.46603146 0.59143996 -0.10986358 0.34700978
-0.1410053 0.032227278 -0.09516411 0.55862004 0.9255294 0.7133879 0.01397764 0.4699954
0.020808794 0.679929 -0.14846237 1.0337496 0.47915992 0.03644686 0.2189115 0.061151378
00000000: 10af 83bd bfe8 193e c12d f6be d7d8 6f3e
00000010: b287 e93d 6fa2 303e 29e7 243e a4f1 19be
00000020: 6856 c9bd 00ef 2a3f 23e5 3c3e 6ac6 4b3e
00000030: 0873 5a3f 5149 063f 2da6 f03d 5c37 e63e
00000040: 462f 833e 9617 b13d ac55 3cbe 6392 c53e
00000050: 0c72 273f 4a3c 2d3f 4d49 cbbd be6b 7e3e
00000060: 5e35 c5be cb4b d33c 6f55 a6bd c092 8b3f
00000070: f0da d3bd fd7d 6d3e 93a8 cf3e 3347 ed3d
00000080: cf79 6abe 65d6 683e 998e 843e e04e cebe
00000090: 5746 733e 3d2e 323e 7064 2b3e b368 2bbe
000000a0: 6b69 33be ddb3 533e ffb9 f8bd fc0c b0be
000000b0: d1f3 093f 7792 d3be 2ab3 933e ac27 03be
000000c0: cd1f 083e 12f9 78be 3f88 853e 90e2 113f
000000d0: 65df 2cbf a038 c8be 6b7d 14be fa4c 153f
000000e0: 51cd 98be 49fa 663e f159 aa3e a1f0 ecbe
000000f0: 8fb6 493e ea1f 683e 82e5 a0be 1bd4 24be
00000100: ac55 383e 3afc 8e3e 4496 04be 6d62 a63c
00000110: efcf 0fbe 4b01 373d 47b7 b23c 0048 29be
00000120: 8d5a 8ebd 82a6 7a3e b17f 11be cc24 fa3d
00000130: 5835 793e 4c74 01be c2c1 473d 0d51 14be
00000140: 70cd 0e3e 3d72 1e3e 0fe9 6ebe 7667 30bd
00000150: 555f b03d 1fcd 193d 5689 953d 7be7 0dbe
00000160: 776c c13e edc2 033f 950e 773d 5d1d 173f
00000170: b2e8 da3e 476b 923e 51c4 133e a704 8b3d
00000180: 4afd 21bd d84f 2b3c ac32 32be f9c6 993e
00000190: ba3c 8a3e d606 a73e 38d4 a2bd b248 e9bd
000001a0: 0bed 0e3e f274 9a3e 1228 f73d 1e35 ad3e
000001b0: ad9b ee3e 9c68 173f 2800 e1bd 44ab b13e
000001c0: b263 10be c000 043d 67e5 c2bd b901 0f3f
000001d0: 7fef 6c3f 97a0 363f 7902 653c 3da3 f03e
000001e0: 3477 aa3c d40f 2e3f 8506 18be e851 843f
000001f0: 7354 f53e 4d49 153d 562a 603e de79 7a3d

block2.gcn_conv.conv1.weight f4 [128, 192, 1]
-0.20074259 -0.16495833 -0.28860462 0.27092555 0.35192844 0.34929705 0.15721692 0.028212082
-0.40220612 -0.3685993 -0.35347247 -0.16006875 0.26082548 0.25752878 0.5706686 0.49562427
0.5999846 0.55935043 0.30026788 0.26560035 0.16577524 -0.8332244 0.17419533 0.58681
-0.42376792 -0.38346627 -0.40531594 0.73907804 0.72871614 0.598084 -0.68990695 -0.37618116
-0.09697333 -0.6539594 -0.5001453 -0.088890865 0.53435916 0.69416004 0.42284495 -0.3621235
-0.35682043 -0.53730166 0.38492575 0.35861623 0.12346664 -0.40832973 -0.38376692 -0.44576994
0.42254433 0.37962717 0.24484165 -0.32173565 -0.20726454 -0.2508284 0.11184442 0.11373331
-0.11845277 0.53430444 0.43916693 0.18406387 -0.57260066 -0.20376816 0.14690083 -0.28442538
0.06955526 -0.019085515 -0.414752 -0.52464485 -0.5383732 0.89576584 0.7030117 0.55717164
-0.111808084 0.09558001 -0.45635048 0.40514377 0.36687836 0.2675209 0.40489665 0.46936795
0.15751198 -0.85018414 -0.618395 0.27427146 0.4138681 0.42816004 0.5453899 0.41097277
0.4415074 0.3219379 -0.58437496 -0.28340825 0.39537844 -0.45305404 -0.6488355 -1.4013355
-0.01101123 0.062909536 0.022798719 -0.0028872623 0.081883445 0.31306165 -0.1661168 -0.058442507
0.70479614 0.2190341 0.06268173 0.1257852 -0.27168423 -0.18972006 -0.20620099 0.13881609
0.12721406 0.15019381 -0.05290644 0.06658489 0.5232267 -0.32346752 -0.33045554 -0.23379536
0.15148313 0.24184376 0.068350695 0.06481553 0.0901682 0.25925767 -0.12530908 -0.19502123
-0.2192932 0.081724 0.0451521 0.43190065 -0.16141848 -0.18405816 -0.00038573952 -0.11761212
-0.19667117 0.30401722 -0.03859139 0.012989498 -0.35054922 0.39369687 0.49768284 -0.16134086
0.027141375 -0.046181682 -0.31333542 -0.0367659 0.0062654032 -0.03878333 0.23845522 0.15664345
0.034868218 0.17417106 0.25649157 0.21179637 -0.03749544 0.101325996 0.054986145 -0.16127555
-0.20912495 -0.11113308 -0.07100682 -0.051972553 -0.3552291 0.25554815 0.12674578 0.412177
-0.463963 -0.5813886 0.19100289 -0.19639982 -0.12636447 0.24495791 0.19021738 0.14733899
0.14362 0.24706699 0.1901783 0.15178311 0.12625279 -0.077183 -0.28371683 0.1286359
0.13802603 -0.15645114 0.17164087 0.02149552 -0.0425597 -0.07391831 -0.15468286 -0.19536129
-0.5185945 -0.43212876 -0.32658273 0.24053095 0.17637165 0.23263149 -0.21296623 -0.2719868
-0.061151717 -0.42677966 -0.3806644 -0.36892813 -0.3079286 -0.10997991 0.16423848 0.38171723
0.41460094 0.24644844 0.12342123 0.12446666 0.021611039 -0.06454449 -0.13503046 -0.38303763
-0.56775254 -0.52330875 -0.4412406 0.70123786 0.6196951 0.47035462 0.37292618 0.31502873
-0.5000884 -0.55695885 -0.41677582 -0.14758115 0.83524275 0.68455166 0.55818784 -0.06134748
0.004151358 0.13226996 0.28481805 0.47052342 0.49539584 -0.52114457 -0.54639274 -0.25521863
-0.09090739 -0.06643723 -0.18879658 0.012953445 0.060991563 0.014246814 -0.21662548 0.092683904
0.43408567 0.44490314 0.3493101 0.11044324 -0.49893406 -0.5083785 -0.37189296 -0.51340634
00000000: 778f 4dbe d6ea 28be fcc3 93be c1b6 8a3e
00000010: f72f b43e 10d7 b23e 79fd 203e 061d e73c
00000020: f6ed cdbe 0cb9 bcbe 58fa b4be 10e9 23be
00000030: eb8a 853e d0da 833e 5617 123f 77c2 fd3e
00000040: 9798 193f 9731 0f3f b6bc 993e c5fc 873e
00000050: fcc0 293e 324e 55bf 4360 323e 2e39 163f
00000060: 1cf8 d8be b155 c4be 9285 cfbe 3834 3d3f
00000070: 248d 3a3f 081c 193f be9d 30bf d19a c0be
00000080: f499 c6bd e269 27bf 8609 00bf 6a0c b6bd
00000090: c3cb 083f 79b4 313f 227f d83e 4068 b9be
000000a0: 2bb1 b6be 9a8c 09bf fd14 c53e 8c9c b73e
000000b0: 14dc fc3d 9810 d1be 197d c4be f53b e4be
000000c0: bb57 d83e 7e5e c23e c5b7 7a3e 89ba a4be
000000d0: 283d 54be 946c 80be b00e e53d 02ed e83d
000000e0: 5e97 f2bd 2dc8 083f 7dda e03e 3d7b 3c3e
000000f0: f595 12bf 9aa8 50be 2c6d 163e 34a0 91be
00000100: fd72 8e3d 3a59 9cbc 605a d4be 204f 06bf
00000110: d3d2 09bf e950 653f 93f8 333f cda2 0e3f
00000120: a3fb e4bd 74bf c33d c5a6 e9be 016f cf3e
00000130: 7bd7 bb3e 80f8 883e 9d4e cf3e ff50 f03e
00000140: d24a 213e aba5 59bf 224f 1ebf 4f6d 8c3e
00000150: 85e6 d33e cb37 db3e ac9e 0b3f 066b d23e
00000160: 420d e23e 0bd5 a43e 9999 15bf e31a 91be
00000170: 0b6f ca3e b3f6 e7be 151a 26bf f65e b3bf
00000180: 7268 34bc b7d6 803d 61c4 ba3c 3938 3dbb
00000190: 82b2 a73d 9e49 a03e 861a 2abe 6961 6fbd
000001a0: 856d 343f 7a4a 603e 475f 803d d6cd 003e
000001b0: 321a 8bbe fa45 42be 5a26 53be ce25 0e3e
000001c0: 6744 023e 68cc 193e 6cb4 58bd a95d 883d
000001d0: 2ff2 053f 899d a5be 7831 a9be 0d68 6fbe
000001e0: 651e 1b3e e4a5 773e 73fb 8b3d 01be 843d
000001f0: 1baa b83d 6cbd 843e 0651 00be a5b3 47be
00000200: 668e 60be ea5e a73d 69f1 383d 1522 dd3e
00000210: e34a 25be be79 3cbe 153d cab9 a0de f0bd
00000220: 2b64 49be 25a8 9b3e 0112 1ebd e7d1 543c
00000230: 307b b3be a392 c93e 49d0 fe3e 8a36 25be
00000240: 9757 de3c 0129 3dbd 806d a0be d797 16bd
00000250: 034e cd3b 45db 1ebd 9b2d 743e 2467 203e
00000260: fad1 0e3d e659 323e dd52 833e 26e1 583e
00000270: d294 19bd 0184 cf3d 2739 613d 6b25 25be
00000280: da24 56be be99 e3bd 066c 91bd 2ce1 54bd
00000290: 97e0 b5be 35d7 823e a5c9 013e dd08 d33e
000002a0: 8f8c edbe e2d5 14bf 4396 433e 091d 49be
000002b0: b065 01be 3fd6 7a3e 58c8 423e 08e0 163e
000002c0: 1f11 133e 21ff 7c3e 1abe 423e 086d 1b3e
000002d0: 6948 013e 1f12 9ebd 5543 91be 21b9 033e
000002e0: b256 0d3e ba34 20be a0c2 2f3e 5f17 b03c
000002f0: 1453 2ebd 7c62 97bd 2f65 1ebe ca0c 48be
00000300: 9cc2 04bf fb3f ddbe da35 a7be bf4d 763e
00000310: c59a 343e f336 6e3e d213 5abe db41 8bbe
00000320: 397a 7abd dd82 dabe 72e6 c2be 26e4 bcbe
00000330: d1a8 9dbe 263d e1bd 222e 283e 7170 c33e
00000340: 9346 d43e fb5c 7c3e 45c4 fc3d 60e8 fe3d
00000350: a209 b13c e72f 84bd 6d45 0abe 821d c4be
00000360: 3b58 11bf 90f7 05bf 4aea e1be 5384 333f
00000370: 57a4 1e3f 52d2 f03e 2ef0 be3e 724b a13e
00000380: cb05 00bf db94 0ebf a463 d5be 831f 17be
00000390: 78d2 553f c73e 2f3f 66e5 0e3f 7f47 7bbd
000003a0: 1d08 883b c771 073e acd3 913e 72e8 f03e
000003b0: 86a4 fd3e bb69 05bf 65e0 0bbf 04ac 82be
000003c0: a72d babd 3e10 88bd e453 41be b03a 543c
000003d0: 4ad2 793d 786b 693c 12d3 5dbe 0fd1 bd3d
000003e0: 7a40 de3e 58ca e33e c6d8 b23e 1130 e23d
000003f0: 4974 ffbe 1825 02bf c168 bebe 996e 03bf

block2.gcn_conv.conv1.bias f4 [128]
0.35244703 0.42693213 0.17372036 0.48425278 0.8331739 0.47008234 0.39174405 0.31575117
0.33172873 0.16599801 -0.053299423 0.106156565 0.40912735 0.33310652 0.25637734 0.11713176
0.29169255 0.4207162 0.5083174 -0.09222572 0.39209348 -0.1445906 0.44972193 -0.14145315
0.24971029 0.024548037 0.14164121 0.14979592 0.3241893 0.48705977 0.048079167 0.27571517
-0.30503902 0.3353833 -0.21749039 0.45427865 0.0397538 0.2521285 0.24382077 -0.26454145
0.25659224 0.26654714 -0.19160023 0.25591737 0.20230572 -0.24655215 -0.20878643 0.035523284
-0.2626346 -0.3508458 0.44816464 0.078304455 0.33097994 -0.09411985 -0.24864908 0.13383089
-0.36775059 -0.16396523 -0.046703655 0.2550121 -0.1980496 0.3576147 0.18466957 -0.2629548
0.06967179 0.14975506 -0.12916468 0.25846225 0.33028048 0.17449279 0.13125566 0.02510351
-0.14227341 0.080965266 -0.043785404 -0.0944228 0.16771623 -0.11512142 0.13268295 -0.1396276
0.21654065 0.13983129 0.20538858 -0.1095842 0.14773087 -0.21691616 0.16328803 -0.16732898
-0.0043928805 -0.16371566 -0.22338042 -0.09328821 0.28595108 -0.0605358 -0.091402635 0.19238845
0.42525494 0.39734265 0.2593428 0.46750733 0.42688414 0.43381652 0.39018527 0.34246057
-0.016532283 0.1326118 -0.16127308 0.1606597 0.3818989 0.26994404 0.41592515 -0.02729148
0.48127717 0.4576616 0.50530684 0.12561268 0.41389796 0.19262254 0.51125324 -0.24825114
0.24137375 0.27611297 0.09845743 0.10628671 0.34234664 0.37450227 0.100842886 0.4787584
00000000: f073 b43e d996 da3e c0e3 313e fbef f73e
00000010: e24a 553f a2ae f03e ad92 c83e 23aa a13e
00000020: 59d8 a93e 62fb 293e 7f50 5abd 9d68 d93d
00000030: 2479 d13e f08c aa3e e443 833e c7e2 ef3d
00000040: ba58 953e 1d68 d73e 1721 023f d7e0 bcbd
00000050: 7ac0 c83e 8f0f 14be f441 e63e 18d9 10be
00000060: 0eb4 7f3e f718 c93c 650a 113e 1a64 193e
00000070: 24fc a53e e65f f93e a9ee 443d 8a2a 8d3e
00000080: 132e 9cbe 5cb7 ab3e cdb5 5ebe 3697 e83e
00000090: e1d4 223d fd16 813e 27ac 793e fa71 87be
000000a0: 0f60 833e de78 883e da32 44be 9a07 833e
000000b0: 3b29 4f3e 2b78 7cbe 1ccc 55be dd80 113d
000000c0: 0b78 86be 10a2 b3be d675 e53e 165e a03d
000000d0: 3476 a93e e8c1 c0bd dd9d 7ebe f70a 093e
000000e0: ce49 bcbe 80e6 27be 554c 3fbd f290 823e
000000f0: 84cd 4abe 4619 b73e 051a 3d3e 03a2 86be
00000100: 15b0 8e3d 6459 193e bf43 04be 2a55 843e
00000110: 861a a93e 3dae 323e e267 063e e0a5 cd3c
00000120: 1fb0 11be 1ed1 a53d 5358 33bd be60 c1bd
00000130: cebd 2b3e c7c4 ebbd 0ade 073e 8afa 0ebe
00000140: d5bc 5d3e ef2f 0f3e 6251 523e ae6d e0bd
00000150: c346 173e 451f 5ebe fa34 273e 4a58 2bbe
00000160: 27f2 8fbb 14a5 27be d6bd 64be e40d bfbd
00000170: 2e68 923e 63f4 77bd 4e31 bbbd 7a01 453e
00000180: 04bb d93e 7f70 cb3e 94c8 843e 1f5d ef3e
00000190: 8f90 da3e 331d de3e 5dc6 c73e fe56 af3e
000001a0: b66e 87bc 63cb 073e c524 25be fa83 243e
000001b0: 4188 c33e 1b36 8a3e 24f4 d43e 6292 dfbc
000001c0: f669 f63e 9f52 ea3e ca5b 013f 9ca0 003e
000001d0: 6fea d33e d83e 453e 7ee1 023f 8c35 7ebe
000001e0: ae2a 773e ae5e 8d3e 0da4 c93d d9ac d93d
000001f0: 0f48 af3e c3be bf3e b786 ce3d d21f f53e

conv1.weight f4 [12, 32, 1, 12]
-2.7039773 -2.0887358 -1.6365578 -1.3461024 -1.3245243 -1.279907 -1.366039 -1.4198945
-1.3922675 -1.3320215 -1.4541725 -1.4191201 2.8238766 2.1771584 1.838253 1.5474908
1.376182 1.3552916 1.323843 1.3182311 1.371537 1.3682264 1.3861476 1.3745472
-2.8535454 -2.1014006 -1.6661508 -1.4841043 -1.225502 -1.0726266 -1.201103 -1.2280526
-1.2851721 -1.3130475 -1.5587004 -1.270473 2.4832523 1.906974 1.5647486 1.4550372
1.3472462 1.3485801 1.331023 1.3411415 1.3362797 1.3684468 1.3994591 1.376581
3.0237322 2.5954583 2.4201317 2.3350873 2.1748912 1.873401 1.6917837 1.5206555
1.4567355 1.4965665 1.4836727 1.4920262 2.701101 2.1535141 1.7355578 1.5448382
1.2309718 1.158926 1.231135 1.3347967 1.369179 1.4415809 1.5362027 1.650045
2.813781 2.2385159 2.031547 1.7240365 1.4291033 1.3125693 1.309236 1.36515
1.2948784 1.3333129 1.3487501 1.3816065 -2.760352 -1.9222602 -1.806248 -1.603245
-1.6509693 -1.4083736 -1.2944893 -1.0998583 -1.0578669 -1.0259799 -1.3755015 -1.9632325
2.7574906 1.6746331 1.8188426 1.6819581 1.7436944 1.9837784 2.0628533 1.9636276
1.8855424 1.9247172 2.1734595 2.7581222 2.808236 2.2601304 1.9121016 1.5709479
1.4439803 1.3670951 1.3468677 1.3573703 1.3445896 1.3159056 1.3273308 1.3805158
-2.9395096 -2.0228543 -1.5388885 -1.5303112 -1.5434117 -1.4077418 -1.4078356 -1.2477726
-1.269551 -1.3951185 -1.9169233 -1.6408799 2.830728 2.303236 1.600512 1.3663493
1.1047363 0.8855602 0.8604175 0.79361594 0.8966349 0.98279166 1.1848668 1.3439432
2.8643885 2.340682 2.0239508 1.6422263 1.3504007 1.3596585 1.3468386 1.3399087
1.3818209 1.4244432 1.4213053 1.4350806 -2.6972158 -2.0016048 -1.6185389 -1.4653208
-1.2776679 -1.2075274 -1.3135995 -1.3150169 -1.3956728 -1.8562561 -2.7377546 -2.416099
-2.7712388 -2.1689987 -1.8628217 -1.5333296 -1.3787533 -1.3361112 -1.3689964 -1.3712404
-1.3377488 -1.3078489 -1.3665102 -1.4357331 2.9918509 2.1321828 2.3806844 2.1522396
2.0039418 2.051804 2.1051357 1.9736776 2.0520263 2.362945 2.7165854 2.8625076
-2.8102882 -2.2031987 -1.8322408 -1.574675 -1.4024439 -1.3544112 -1.3604667 -1.2971264
-1.3817606 -1.333232 -1.4013206 -1.3223133 -2.664817 -2.0264883 -1.6926078 -1.4888551
-1.4160367 -1.3830187 -1.3768905 -1.3797605 -1.3359394 -1.3057629 -1.3408529 -1.2984924
2.669012 1.9652727 1.6299248 1.4220834 1.6320084 1.7603284 1.675068 1.3872712
1.1831259 1.3695403 2.092869 3.5532467 2.9479814 1.95446 2.0048373 1.687155
1.6141413 1.7522992 1.8708111 1.8619094 1.8044372 1.9258301 2.449792 2.7148058
2.6988575 2.0445652 1.734671 1.4855748 1.368292 1.3646637 1.3832432 1.3571606
1.3116252 1.3557398 1.403923 1.327149 -2.8939805 -2.4655282 -2.0401092 -1.9667276
00000000: f70d 2dc0 d9ad 05c0 ba7a d1bf 154d acbf
00000010: 038a a9bf fed3 a3bf 5eda aebf 1abf b5bf
00000020: d235 b2bf ae7f aabf 5322 babf baa5 b5bf
00000030: 65ba 3440 9056 0b40 e04b eb3f 2e14 c63f
00000040: bb26 b03f 327a ad3f b073 a93f ccbb a83f
00000050: 868e af3f 0b22 af3f 496d b13f 2af1 af3f
00000060: 7da0 36c0 597d 06c0 6e44 d5bf 21f7 bdbf
00000070: 40dd 9cbf d44b 89bf bebd 99bf d430 9dbf
00000080: 8580 a4bf f111 a8bf 7f83 c7bf dc9e a2bf
00000090: 9bed 1e40 b917 f43f af49 c83f a93e ba3f
000000a0: 9072 ac3f 469e ac3f f65e aa3f 86aa ab3f
000000b0: 370b ab3f 4429 af3f 7a21 b33f ce33 b03f
000000c0: d484 4140 fd1b 2640 70e3 1a40 1272 1540
000000d0: 6b31 0b40 9bcb ef3f 5e8c d83f d7a4 c23f
000000e0: 4f76 ba3f 7e8f bf3f fde8 bd3f b7fa be3f
000000f0: d7de 2c40 2dd3 0940 c226 de3f 42bd c53f
00000100: 7c90 9d3f b057 943f d595 9d3f 9eda aa3f
00000110: 4241 af3f b985 b83f 4aa2 c43f ad34 d33f
00000120: fd14 3440 d843 0f40 de04 0240 3aad dc3f
00000130: dbec b63f 4502 a83f 0c95 a73f 3cbd ae3f
00000140: 93be a53f ffa9 aa3f d8a3 ac3f 7bd8 b03f
00000150: 9ba9 30c0 9f0c f6bf 2233 e7bf 2237 cdbf
00000160: f652 d3bf 9645 b4bf d3b1 a5bf 28c8 8cbf
00000170: 2f68 87bf 4f53 83bf 6f10 b0bf 344b fbbf
00000180: ba7a 3040 615a d63f d6cf e83f 674a d73f
00000190: 6131 df3f 73ec fd3f ca05 0440 2658 fb3f
000001a0: 7459 f13f 225d f63f f619 0b40 1385 3040
000001b0: 23ba 3340 faa5 1040 bfbf f43f d214 c93f
000001c0: 59d4 b83f f9fc ae3f 2966 ac3f 4fbe ad3f
000001d0: 831b ac3f 986f a83f fae5 a93f beb4 b03f
000001e0: ed20 3cc0 7276 01c0 4cfa c4bf 3de1 c3bf
000001f0: 848e c5bf e230 b4bf f533 b4bf 03b7 9fbf
00000200: a680 a2bf 3e93 b2bf be5d f5bf 5a08 d2bf
00000210: a62a 3540 3868 1340 94dd cc3f 89e4 ae3f
00000220: 0068 8d3f 13b4 623f 5244 5c3f 6a2a 4b3f
00000230: dd89 653f 3c98 7b3f b7a9 973f 5506 ac3f
00000240: 2452 3740 bccd 1540 6988 0140 7934 d23f
00000250: eed9 ac3f 4a09 ae3f 3565 ac3f 2182 ab3f
00000260: 82df b03f 2854 b63f 55ed b53f b9b0 b73f
00000270: 2f9f 2cc0 4b1a 00c0 482c cfbf a28f bbbf
00000280: 9f8a a3bf 4290 9abf 0724 a8bf 7952 a8bf
00000290: 68a5 b2bf cd99 edbf 5f37 2fc0 5ea1 1ac0
000002a0: fa5b 31c0 e0d0 0ac0 f170 eebf 2544 c4bf
000002b0: fd7a b0bf b105 abbf 463b afbf ce84 afbf
000002c0: 5a3b abbf 9867 a7bf cee9 aebf 1ac6 b7bf
000002d0: 7c7a 3f40 af75 0840 225d 1840 4bbe 0940
000002e0: 9540 0040 c250 0340 8bba 0640 78a1 fc3f
000002f0: 6654 0340 7e3a 1740 89dc 2d40 5333 3740
00000300: c3db 33c0 3501 0dc0 de86 eabf f38e c9bf
00000310: 4883 b3bf 595d adbf c623 aebf 3d08 a6bf
00000320: 88dd b0bf 59a7 aabf 795e b3bf 9041 a9bf
00000330: 5d8c 2ac0 fcb1 01c0 5fa7 d8bf ce92 bebf
00000340: b140 b5bf c206 b1bf f33d b0bf fe9b b0bf
00000350: 1000 abbf 3d23 a7bf 11a1 abbf 0035 a6bf
00000360: 18d1 2a40 0e8e fb3f 60a1 d03f d406 b63f
00000370: a7e5 d03f 7152 e13f a168 d63f 1a92 b13f
00000380: ab70 973f 194d af3f 91f1 0540 6568 6340
00000390: baab 3c40 bf2b fa3f 414f 0040 b2f4 d73f
000003a0: 2f9c ce3f 574b e03f bd76 ef3f 0c53 ee3f
000003b0: ccf7 e63f 9a81 f63f 64c9 1c40 61bf 2d40
000003c0: 15ba 2c40 28da 0240 b309 de3f 5127 be3f
000003d0: 3124 af3f 4dad ae3f 1d0e b13f 70b7 ad3f
000003e0: 56e3 a73f e288 ad3f c0b3 b33f 05e0 a93f
000003f0: fa36 39c0 37cb 1dc0 2691 02c0 bbbd fbbf

conv1.bias f4 [12]
1.2880474 1.2810706 1.3387675 1.2902156 1.3599826 1.4012446 1.4145285 1.4155318
1.4587098 1.5470765 1.5294759 1.5284834
00000000: bdde a43f 1ffa a33f bc5c ab3f c925 a53f
00000010: e913 ae3f fc5b b33f 450f b53f 2530 b53f
00000020: 01b7 ba3f 9a06 c63f dec5 c33f 58a5 c33f
